forecast_model_lstm.pth (torch, 22437 bytes, 5 tensors)

weight_ih_l0 f4 [128, 1]
-1.2288196 -0.064517 -0.93354285 0.46585792 -0.761654 -0.31385326 -0.65462506 0.4366796
-0.4158014 -1.1360244 0.03984007 -0.30802673 -0.6917808 10.678514 -0.9146954 -0.40801015
-1.0154073 -0.9934172 0.3940848 2.093072 -0.9826349 -0.9573342 -0.055449054 -0.78390384
-0.9667787 -0.98078555 -0.7098729 0.13062605 -1.7456286 -0.31493372 -0.70503473 -1.1869553
-0.76023245 -0.43454364 -0.68291014 -0.43719953 -0.5242169 -0.23077306 -0.7167852 -0.69946754
-0.7180533 -0.52396786 -0.63640535 -0.842093 -0.8479072 -6.086289 -0.67524755 -0.8060991
-0.50386995 -0.3674056 -1.3959651 -2.1971633 -0.28000998 -0.64134634 -0.35866937 -0.5793758
-0.95447534 -0.89524543 -0.46897158 -0.31696373 -0.78353065 -0.20968418 -0.45599952 -0.6917651
-0.041337438 0.4933519 -0.11531897 -0.8026673 -0.2565782 -0.32478285 -0.39007676 0.62963563
0.45017302 0.38092983 0.42001987 -0.76126707 0.04138784 8.170272 -0.2390615 0.27309906
0.16453378 0.15552203 1.9989753 -1.8534137 0.2195115 0.20262682 0.41143802 -0.41214886
0.37988973 -0.25174925 0.16063167 0.5102824 -0.24817365 -0.27752754 -0.06208003 -0.2840451
-0.84799427 -0.38870147 -0.59400535 -0.347498 -0.96271926 -0.4229247 -0.47823486 -0.37201378
-0.8615982 -1.0379153 -0.348969 -0.5682692 -0.74630487 -0.4687091 -1.1172702 -0.5373763
-0.9675735 -0.94125235 -0.84589475 0.595149 -0.81570435 -0.91710955 -0.69722205 -1.0159234
-1.6113026 -0.80515957 -0.87248915 -0.35825378 -0.9347239 -0.49253625 -1.0524722 -0.71729565
00000000: f649 9dbf 7d21 84bd aafc 6ebf ee84 ee3e
00000010: c2fb 42bf 60b1 a0be 8295 27bf 7894 df3e
00000020: ece3 d4be 3f69 91bf 572f 233d aeb5 9dbe
00000030: 8c18 31bf 31db 2a41 7a29 6abf b5e6 d0be
00000040: def8 81bf 9750 7ebf 7cc5 c93e e4f4 0540
00000050: f68d 7bbf db13 75bf 8c1e 63bd ecad 48bf
00000060: cf7e 77bf c314 7bbf 3bba 35bf d6c2 053e
00000070: c270 dfbf fe3e a1be 287d 34bf 27ee 97bf
00000080: 989e 42bf 817c debe 33d3 2ebf 9ed8 dfbe
00000090: 1433 06bf c64f 6cbe 3c7f 37bf 4e10 33bf
000000a0: 57d2 37bf c222 06bf 76eb 22bf 6893 57bf
000000b0: 7210 59bf e1c2 c2c0 06dd 2cbf 835c 4ebf
000000c0: 9ffd 00bf 961c bcbe fcae b2bf 539e 0cc0
000000d0: 785d 8fbe 462f 24bf 83a3 b7be f951 14bf
000000e0: 7f58 74bf ce2e 65bf 0b1d f0be 1249 a2be
000000f0: 7795 48bf 73b7 56be c578 e9be 8517 31bf
00000100: 7251 29bd 9f98 fc3e 5a2c ecbd 9b7b 4dbf
00000110: 385e 83be f049 a6be 24b8 c7be cd2f 213f
00000120: 147d e63e 3c09 c33e d80c d73e 66e2 42bf
00000130: 4c86 293d 6fb9 0241 8acc 74be a4d3 8b3e
00000140: 8b7b 283e 2b41 1f3e 6cde ff3f a93c edbf
00000150: 9fc7 603e 687d 4f3e 01a8 d23e 2d05 d3be
00000160: e880 c23e 47e5 80be a17c 243e dea1 023f
00000170: 3c21 7ebe 1718 8ebe a147 7ebd 5c6e 91be
00000180: 2716 59bf e103 c7be bc10 18bf 42eb b1be
00000190: c574 76bf 9689 d8be 33db f4be 9778 bebe
000001a0: b391 5cbf 69da 84bf 11ac b2be 177a 11bf
000001b0: d60d 3fbf a4fa efbe b602 8fbf 7e91 09bf
000001c0: e6b2 77bf eaf5 70bf 8f8c 58bf af5b 183f
000001d0: 00d2 50bf b1c7 6abf 257d 32bf c709 82bf
000001e0: 2a3f cebf f01e 4ebf 735b 5fbf 0a6d b7be
000001f0: 114a 6fbf b62d fcbe 69b7 86bf b0a0 37bf

weight_hh_l0 f4 [128, 32]
0.18631434 -0.13169724 0.17586744 -0.030821381 -0.0821562 0.2342657 -0.43759474 0.08523188
-0.23012823 0.2004844 0.051605146 -0.0012542643 0.13788114 -0.17650102 0.08031923 0.2960022
0.13576826 -0.03991498 0.15752937 0.027354343 0.015062679 0.3961284 -0.11228994 -0.2582761
0.40632188 0.1049491 -0.04477163 -0.26787972 0.032030735 -0.06911582 -0.28525633 -0.3813421
-0.026804186 -0.09211438 0.18488371 0.050509654 -0.042372257 0.13824074 -0.39905778 0.061506726
-0.26842162 0.19163886 0.16661985 -0.17244042 0.21843451 0.0314176 0.370382 0.15811074
-0.11419591 -0.18009703 0.43869525 0.14758912 -0.111731835 0.345167 0.15488346 -0.29603106
0.15673964 -0.51524156 0.07945061 -0.21222077 -0.16506106 -0.40811017 -0.22400956 -0.0071638627
0.18949018 -0.34289446 -0.17698745 0.041650113 -0.042310704 0.024277953 0.109525576 0.18071444
-0.26948595 0.1339776 -0.11608494 -0.0270725 0.009005974 0.025328897 0.12963918 0.008189801
-0.17969185 0.2896162 0.19466674 0.08534607 -0.042796154 -0.016412886 0.060076166 0.04412036
0.1403955 -0.007646438 -0.13856643 -0.15022284 0.057247177 -0.14491934 -0.16524456 -0.15378785
-0.0041704304 0.16525106 0.12873173 0.27250317 -0.029434403 -0.041013885 -0.10005074 -0.18467201
-0.102598354 -0.20185468 -0.033149656 0.008918332 0.08616192 0.07544027 0.29827037 -0.2786315
-0.24677135 -0.17982492 0.036476348 0.32387757 -0.2224093 -0.07115897 -0.10417648 0.012163577
0.036928736 -0.06038541 -0.13610336 -0.19198021 -0.22585635 -0.0653751 0.17596135 -0.051773567
0.03577826 -0.15382841 0.116128206 -0.13876027 -0.2985924 -0.06759401 -0.025833745 0.047271233
0.019499201 0.041934505 -0.0063921902 -0.09339518 -0.12701356 0.056717798 -0.04785118 0.15972924
-0.025193319 -0.03470632 0.15671852 0.130662 -0.14883229 0.20930366 0.19055264 0.067416295
0.10523945 -0.14737965 -0.056496527 -0.2445193 -0.2778462 -0.11014573 -0.043114167 0.01722575
0.12633544 -0.09951923 0.07261068 0.24667877 -0.016021762 -0.06558812 -0.069650486 0.161879
-0.013298439 0.13085897 -0.21464495 0.06905844 0.27247953 0.0050469446 0.30292627 -0.3099179
-0.12457203 -0.09971757 0.17463125 0.4093865 -0.26892427 0.24103028 0.08782631 -0.09088465
0.09401537 -0.33104405 -0.3419746 -0.26077765 -0.21689995 0.05414524 -0.29609948 -0.029081322
-0.050337695 -0.2324553 0.05695029 -0.1444928 -0.17499445 0.032841254 -0.93814677 0.08378907
-0.1419586 -0.023007063 0.044048537 0.07903695 0.032185297 -0.6595257 -0.10515283 -0.07570199
-0.06315028 -0.08367344 0.03254778 0.24824893 0.07751034 0.14924687 0.03383848 -0.31446648
-0.31545284 -0.3881432 -0.15974478 -0.13951272 -0.13671927 -0.14147316 -0.17940027 0.19149438
0.03919633 -0.050400943 -0.22598396 -0.18388925 0.09680216 0.12630557 0.04837062 0.11899482
0.06706333 0.034119576 0.27422786 -0.04784528 -0.10534674 -0.012942938 0.12316883 -0.017255437
-0.09742545 -0.018876111 0.19594108 -0.1468951 0.13872202 -0.12248737 -0.05377598 -0.13098337
-0.049751315 0.06437241 0.08377182 -0.23134777 -0.23830561 -0.1458075 -0.16073903 -0.099851735
00000000: 30c9 3e3e a4db 06be 9816 343e 1f7d fcbc
00000010: 8341 a8bd 59e3 6f3e 6b0c e0be 0d8e ae3d
00000020: bca6 6bbe c84b 4d3e eb5f 533d 2066 a4ba
00000030: b730 0d3e afbc 34be 697e a43d 9a8d 973e
00000040: d606 0b3e e47d 23bd 614f 213e 3716 e03c
00000050: 74c9 763c 57d1 ca3e 45f8 e5bd c43c 84be
00000060: 6c09 d03e 8eef d63d 7562 37bd 8827 89be
00000070: a932 033d 988c 8dbd 1e0d 92be 463f c3be
00000080: 7494 dbbc 77a6 bcbd 2852 3d3e 36e3 4e3d
00000090: 888e 2dbd fb8e 0d3e 4d51 ccbe 7aee 7b3d
000000a0: 8f6e 89be fa3c 443e 659e 2a3e 3994 30be
000000b0: 4cad 5f3e beaf 003d b6a2 bd3e c8e7 213e
000000c0: 8cdf e9bd 5b6b 38be aa9c e03e 9a21 173e
000000d0: a9d3 e4bd bbb9 b03e c599 1e3e 6291 97be
000000e0: 5b80 203e dfe6 03bf 00b7 a23d 6750 59be
000000f0: c405 29be d1f3 d0be c362 65be d6be eabb
00000100: b709 423e dd8f afbe 333c 35be 4f99 2a3d
00000110: fd4d 2dbd 8fe2 c63c f24e e03d 350d 393e
00000120: 10fa 89be 6d31 093e f1bd edbd 26c7 ddbc
00000130: cb8d 133c 8c7e cf3c 22c0 043e 842e 063c
00000140: 2401 38be 9348 943e b856 473e ecc9 ae3d
00000150: 054b 2fbd 5174 86bc 6d12 763d 8db7 343d
00000160: d7c3 0f3e f98e fabb 5ce4 0dbe 04d4 19be
00000170: 047c 6a3d bc65 14be df35 29be 907a 1dbe
00000180: 1ba8 88bb 9337 293e 40d2 033e 8985 8b3e
00000190: 6b20 f1bc 2dfe 27bd 67e7 ccbd a91a 3dbe
000001a0: 161f d2bd feb2 4ebe efc7 07bd 321e 123c
000001b0: a975 b03d 6e80 9a3d e5b6 983e caa8 8ebe
000001c0: a1b1 7cbe 0624 38be 3968 153d 48d3 a53e
000001d0: 43bf 63be cbbb 91bd 7a5a d5bd bd49 473c
000001e0: 9642 173d b156 77bd ae5e 0bbe 7696 44be
000001f0: e346 67be 61e3 85bd 362f 343e 8510 54bd
00000200: 3a8c 123d 3285 1dbe a0d4 ed3d 2c17 0ebe
00000210: 1ae1 98be ba6e 8abd 4aa1 d3bc 7b9f 413d
00000220: cabc 9f3c 84c3 2b3d 9475 d1bb f945 bfbd
00000230: d80f 02be ec50 683d 99ff 43bd 1090 233e
00000240: 3862 cebc 3728 0ebd d27a 203e 42cc 053e
00000250: 7e67 18be b353 563e 3b20 433e 8e11 8a3d
00000260: c887 d73d b1ea 16be e768 67bd 4463 7abe
00000270: db41 8ebe 1694 e1bd 7b98 30bd 041d 8d3c
00000280: 145e 013e bdd0 cbbd e8b4 943d 5c99 7c3e
00000290: 1240 83bc 1053 86bd eaa4 8ebd 9cc3 253e
000002a0: b2e1 59bc e5ff 053e e3cb 5bbe 836e 8d3d
000002b0: 7082 8b3e d760 a53b 2719 9b3e 8fad 9ebe
000002c0: 9f1f ffbd ba38 ccbd 89d2 323e 1b9b d13e
000002d0: 71b0 89be a4d0 763e 48de b33d bb21 babd
000002e0: 218b c03d 9b7e a9be 4b17 afbe a684 85be
000002f0: 051b 5ebe 66c7 5d3d 5a9a 97be f43b eebc
00000300: e62e 4ebd c308 6ebe b544 693d ecf5 13be
00000310: bf31 33be 8d84 063d 632a 70bf 9b99 ab3d
00000320: 985d 11be 4f79 bcbc 3d6c 343d 20de a13d
00000330: bbd4 033d add6 28bf 5e5a d7bd a509 9bbd
00000340: ef54 81bd fb5c abbd d250 053d f834 7e3e
00000350: bebd 9e3d 2cd4 183e 389a 0a3d c001 a1be
00000360: 0983 a1be b5ba c6be 2394 23be 6cdc 0ebe
00000370: 2300 0cbe 57de 10be b4b4 37be 1a17 443e
00000380: 558c 203d 3871 4ebd 5768 67be 774d 3cbe
00000390: 3640 c63d 3f56 013e 4520 463d 8eb3 f33d
000003a0: 8058 893d f8c0 0b3d 9867 8c3e 6af9 43bd
000003b0: 08c0 d7bd 9e0e 54bc f13f fc3d 465b 8dbc
000003c0: ff86 c7bd 13a2 9abc c7a4 483e ab6b 16be
000003d0: 250d 0e3e a9da fabd 3444 5cbd 8120 06be
000003e0: 09c8 4bbd afd5 833d 8f90 ab3d 6ee6 6cbe
000003f0: 6306 74be 904e 15be c698 24be 117f ccbd

bias_ih_l0 f4 [128]
-2.1148627 -1.6010852 -1.176854 -1.6316408 -1.2645572 -1.4513292 -1.3577553 -1.4601381
-1.354201 -1.0596598 -1.5792712 -1.3551441 -1.5981792 -1.4972478 -0.81288946 -1.3485951
-1.3563668 -1.8136867 -1.0935689 -2.054739 -0.73139155 -0.89191335 -1.6596154 -1.5732545
-1.2775198 -1.2949767 -1.5579622 -1.6139245 -1.5785347 -1.0692388 -1.3642992 -1.2736405
-1.0601743 -0.9570121 -0.6099346 -0.79758304 -0.7174196 -0.80861306 -1.0014598 -0.81654626
-0.5063018 -0.77262807 -0.559575 -0.609602 -0.69034415 1.4734008 -0.5209508 -1.0528638
-0.96080685 -0.9579548 -0.5314234 -0.38847825 -0.45592064 -0.84278846 -0.8806756 -0.6849054
-0.8856545 -0.9403266 -0.97518283 -0.97084177 -0.85947484 -0.5500076 -0.90339446 -0.9240726
-0.18697262 0.058950383 0.04034533 0.08190792 0.006843686 -0.04269856 0.03777499 -0.00049014867
-0.03579901 0.05471525 -0.09186213 -0.0012471331 0.04775862 -0.01074491 -0.009807255 0.06519913
0.04264994 0.14562625 -0.03184408 0.052667826 0.0057673324 -0.038813584 -0.02103876 -0.0013047036
0.03062147 -0.022151483 -0.117405385 0.026771836 -0.120900296 0.041485578 0.088053435 0.004222401
-2.070228 -1.6383836 -1.0883484 -1.4339136 -1.3449996 -1.4676516 -1.3183018 -1.5686524
-1.3372909 -0.83289856 -1.6229889 -1.377679 -1.3557812 -1.5497005 -0.9529154 -1.3676623
-1.3227445 -1.7247331 -0.9748843 -1.7362094 -0.92206866 -1.0966954 -1.5632991 -1.5426061
-1.2347809 -0.97518 -1.6571599 -1.637122 -1.5794915 -0.8816365 -1.4352069 -1.3381882
00000000: e959 07c0 5cf0 ccbf 27a3 96bf 9bd9 d0bf
00000010: 03dd a1bf 28c5 b9bf edca adbf cee5 babf
00000020: 7556 adbf efa2 87bf 8f25 cabf 5d75 adbf
00000030: 2391 ccbf d1a5 bfbf 8619 50bf c49e acbf
00000040: 6d9d adbf e326 e8bf 11fa 8bbf d880 03c0
00000050: 7a3c 3bbf 6f54 64bf 476e d4bf 6760 c9bf
00000060: c585 a3bf ccc1 a5bf 4e6b c7bf 1495 cebf
00000070: 6d0d cabf d1dc 88bf 5ba1 aebf a706 a3bf
00000080: cbb3 87bf bffe 74bf ad24 1cbf 672e 4cbf
00000090: d0a8 37bf 4401 4fbf d62f 80bf 2d09 51bf
000000a0: ff9c 01bf f4ca 45bf 4f40 0fbf e00e 1cbf
000000b0: 65ba 30bf 6698 bc3f 085d 05bf 3ec4 86bf
000000c0: 70f7 75bf 873c 75bf 5d0b 08bf 9fe6 c6be
000000d0: 6e6e e9be fcc0 57bf f573 61bf f655 2fbf
000000e0: 41ba 62bf 3eb9 70bf 95a5 79bf 1689 78bf
000000f0: 8b06 5cbf 4ccd 0cbf dc44 67bf 0690 6cbf
00000100: c075 3fbe f575 713d 2541 253d 57bf a73d
00000110: 0041 e03b afe4 2ebd f3b9 1a3d 527d 00ba
00000120: fca1 12bd 191d 603d 3622 bcbd d876 a3ba
00000130: 8b9e 433d 6b0b 30bc 9cae 20bc 1f87 853d
00000140: b4b1 2e3d 0c1f 153e f06e 02bd 38ba 573d
00000150: e4fb bc3b fefa 1ebd 7a59 acbc 9702 abba
00000160: e1d9 fa3c 0777 b5bc 3c72 f0bd 9c50 db3c
00000170: 939a f7bd c8ec 293d 5c55 b43d 115c 8a3b
00000180: 9e7e 04c0 8eb6 d1bf 004f 8bbf 7b8a b7bf
00000190: f228 acbf 02dc bbbf 1dbe a8bf 9ac9 c8bf
000001a0: 592c abbf d738 55bf 1abe cfbf c957 b0bf
000001b0: 3d8a adbf 965c c6bf 43f2 73bf 8f0f afbf
000001c0: b14f a9bf 0ec4 dcbf 0492 79bf 1c3c debf
000001d0: b10c 6cbf 8460 8cbf 2f1a c8bf 1e74 c5bf
000001e0: 4d0d 9ebf 65a5 79bf d11d d4bf 378d d1bf
000001f0: c72c cabf eeb2 61bf dcb4 b7bf c049 abbf

bias_hh_l0 f4 [128]
-1.9462107 -1.5703968 -1.0778663 -1.5204723 -1.5596689 -1.4557201 -1.5752618 -1.4724009
-1.4225525 -0.98551464 -1.5607269 -1.2629471 -1.3791977 -1.8144798 -0.9502964 -1.6131539
-1.3571254 -1.6388701 -0.8528338 -1.8305613 -0.7295211 -0.9889857 -1.5382992 -1.3580468
-1.1577142 -1.1165174 -1.4679372 -1.7165289 -1.6945263 -1.1460012 -1.6539482 -1.3067299
-1.3319362 -0.9811336 -0.74461824 -0.77350074 -0.8594024 -0.7760104 -1.2582383 -0.6183304
-0.754196 -0.8653325 -0.8344732 -0.6566018 -0.6665919 1.7357852 -0.73772043 -0.8752725
-0.7291201 -1.0721034 -0.40828347 -0.31622034 -0.57884127 -0.86844516 -0.72993845 -0.74310446
-0.9687226 -0.71762604 -0.6587026 -0.82822025 -0.849044 -0.5782103 -0.6332966 -0.8313838
-0.02239233 -0.057685163 -0.039256137 -0.081429824 -0.0069192457 0.04264069 -0.102894224 0.0004904253
0.035645243 -0.05555743 0.092043735 -0.00028249298 -0.04778115 0.016416788 0.013358355 -0.06368307
-0.04366289 -0.11100074 0.03042014 -0.0516405 -0.008344879 0.03707755 0.021433309 0.0009208253
-0.030015538 0.021402612 0.11746521 -0.026543371 0.062789105 -0.039609455 -0.08741703 -0.0035594632
-2.0550137 -1.4184285 -1.1535997 -1.6873741 -1.4858439 -1.5252477 -1.4593751 -1.2991037
-1.5240018 -1.0586759 -1.4663368 -1.2655396 -1.5941875 -1.3262627 -0.83555216 -1.4492545
-1.3998206 -1.7526588 -0.99496126 -1.592325 -0.92930466 -1.0704757 -1.6915064 -1.5043216
-1.3309112 -1.2513832 -1.476461 -1.6823653 -1.6812465 -1.0426306 -1.5509244 -1.3133575
00000000: 6f1d f9bf c302 c9bf 86f7 89bf d69e c2bf
00000010: 3ba3 c7bf 0955 babf 2ea2 c9bf a277 bcbf
00000020: 3316 b6bf b04a 7cbf e6c5 c7bf 40a8 a1bf
00000030: 8d89 b0bf e040 e8bf a046 73bf d47b cebf
00000040: 49b6 adbf 7fc6 d1bf 5153 5abf d54f eabf
00000050: e5c1 3abf 2b2e 7dbf fde6 c4bf 7ad4 adbf
00000060: fb2f 94bf 0bea 8ebf 5ee5 bbbf 38b7 dbbf
00000070: 3de6 d8bf 2bb0 92bf 93b4 d3bf ed42 a7bf
00000080: e37c aabf 922b 7bbf 4d9f 3ebf 2504 46bf
00000090: cc01 5cbf 9ea8 46bf f40d a1bf e74a 1ebf
000000a0: fd12 41bf 6e86 5dbf 09a0 55bf 0e17 28bf
000000b0: c4a5 2abf 362e de3f 3fdb 3cbf dc11 60bf
000000c0: 9da7 3abf af3a 89bf 880a d1be a2e7 a1be
000000d0: f12e 14bf 6c52 5ebf 3fdd 3abf 183c 3ebf
000000e0: 34fe 77bf 57b6 37bf bca0 28bf 3e06 54bf
000000f0: f35a 59bf 9705 14bf ba1f 22bf 92d5 54bf
00000100: 1f70 b7bc 4747 6cbd 0bcb 20bd aec4 a6bd
00000110: d7ba e2bb 01a8 2e3d 35ba d2bd e28f 003a
00000120: bf00 123d 3090 63bd 6d81 bc3d 911b 94b9
00000130: 2bb6 43bd 807c 863c 00dd 5a3c 456c 82bd
00000140: dcd7 32bd 5b54 e3bd a833 f93c fd84 53bd
00000150: f6b8 08bc a1de 173d e894 af3c 8a63 713a
00000160: 25e3 f5bc 8854 af3c 9a91 f03d 7c71 d9bc
00000170: 9397 803d 863d 22bd b307 b3bd e245 69bb
00000180: 5885 03c0 118f b5bf 28a9 93bf e0fb d7bf
00000190: 2230 bebf 513b c3bf cecc babf 0849 a6bf
000001a0: 7e12 c3bf b182 87bf edb0 bbbf 34fd a1bf
000001b0: 560e ccbf fac2 a9bf bfe6 55bf 2c81 b9bf
000001c0: 522d b3bf 2057 e0bf c8b5 7ebf 4ed1 cbbf
000001d0: e9e6 6dbf 5905 89bf 4883 d8bf 9c8d c0bf
000001e0: 4c5b aabf 532d a0bf adfc bcbf bf57 d7bf
000001f0: 1633 d7bf eb74 85bf b184 c6bf 191c a8bf

weight f4 [1, 32]
0.032952733 -0.0011951863 0.0011221541 -0.0016884323 0.00039890473 0.0004965683 0.037748706 0.0016088904
-0.0008626955 -0.0010543137 0.00033911964 0.0014229871 -0.0009833642 -0.46977746 0.001446918 -3.9470084e-05
0.0006179185 -0.03612146 -0.0008212632 0.014629799 -0.0019259681 -0.00035867424 9.45495e-05 0.0016149209
0.00019049994 0.001523895 -0.0015222279 0.0010263784 0.030023165 0.000424328 -0.0003191462 -3.088879e-05
00000000: 72f9 063d cca7 9cba 3e15 933a 634e ddba
00000010: 1624 d139 222c 023a 639e 1a3d 67e1 d23a
00000020: 8426 62ba e630 8aba decb b139 8683 ba3a
00000030: 3ae4 80ba ac86 f0be 83a6 bd3a ae8c 25b8
00000040: cffb 213a 19f4 13bd 0a4a 57ba d3b1 6f3c
00000050: c470 fcba 710c bcb9 e048 c638 c1ab d33a
00000060: f0c0 4739 6ebd c73a 7e85 c7ba 8b87 863a
00000070: 24f3 f53c 5778 de39 1453 a7b9 968e 01b8
