forecast_model_gnn.pth (torch, 4043 bytes, 3 tensors)

weight f4 [16, 2]
-0.63173634 0.3259537 0.07890939 -0.22495688 0.20727755 0.41658202 0.42608207 0.090609536
0.20064105 0.36488467 0.52993417 -0.00683216 0.48921272 -0.21671677 -0.43221787 0.16317038
0.20145994 0.077535674 -0.39066142 0.05175415 -0.6501856 0.46220157 0.31538263 0.65046996
0.45485488 -0.57880956 0.14356874 -0.51959664 -0.46653205 0.41833934 0.4350639 0.5486732
00000000: 79b9 21bf 67e3 a63e 3f9b a13d 195b 66be
00000010: 9140 543e 3d4a d53e 6e27 da3e 7e91 b93d
00000020: d974 4d3e 2ad2 ba3e c4a9 073f 50e0 dfbb
00000030: 177a fa3e 00eb 5dbe a94b ddbe 2316 273e
00000040: 844b 4e3e 06cb 9e3d c604 c8be 29fc 533d
00000050: 9072 26bf afa5 ec3e d579 a13e 3385 263f
00000060: bde2 e83e dd2c 14bf af03 133e 4904 05bf
00000070: 4add eebe 9330 d63e b2c0 de3e d975 0c3f

bias f4 [16]
0.09877392 0.1506026 0.61255026 -0.37067777 -0.03556091 -0.678429 -0.51818573 0.5655047
-0.2480308 0.63937706 -0.5074178 -0.07943975 -0.29594165 -0.500607 -0.34059584 -0.08900417
00000000: fb49 ca3d 9137 1a3e 18d0 1c3f 7ac9 bdbe
00000010: 51a8 11bd 86ad 2dbf d2a7 04bf ebc4 103f
00000020: c9fb 7dbe 37ae 233f 22e6 01bf 4fb1 a2bd
00000030: aa85 97be c827 00bf 9462 aebe d147 b6bd

weight f4 [1, 16]
0.08565882 -0.017431637 0.056801595 -0.03605863 -0.10210594 0.14522798 -0.06861394 0.17957269
0.15134716 0.013042449 -0.033359885 -0.061695267 0.10145423 -0.0051965956 -0.114230275 0.055250816
00000000: e46d af3d cbcc 8ebc caa8 683d 37b2 13bd
00000010: eb1c d1bd a5b6 143e 7785 8cbd e7e1 373e
00000020: c0fa 1a3e ffaf 553c 60a4 08bd 2db4 7cbd
00000030: 3cc7 cf3d 3448 aabb 90f1 e9bd ae4e 623d
