ml_models/lstm_products/forecast_model_lstm_T-Shirts.pth (torch, 21457 bytes, 5 tensors)

lstm.weight_ih_l0 f4 [128, 1]
000000 ed 85 8e 3e 41 0b bb be 1e 01 a1 3e 34 04 a4 be
       0.27836552 -0.36532024 0.31446165 -0.32034457
000010 93 eb e7 be 55 bf 07 bd ab 60 66 bf a6 9f c8 be
       -0.45296916 -0.033141453 -0.89991254 -0.39184302
000020 b8 06 19 bf 13 9c 8f bf 13 50 cd be 29 32 87 be
       -0.59775877 -1.1219505 -0.40100154 -0.26405457
000030 d8 14 83 be 5c 1c d7 3f a4 4f 1e bf 6c 5b d4 be
       -0.2560184 1.680553 -0.6184027 -0.41476
000040 0b 36 ac be 3e f1 a0 bf 3d 7e 9c be b5 b7 8a be
       -0.33634982 -1.2573621 -0.30565062 -0.27093282
000050 05 06 b2 bd b1 dd 5d bf c9 62 d9 be bf c4 da be
       -0.086925544 -0.866664 -0.4245818 -0.4272823
000060 2d 62 be 3f 2b 88 1a 40 3d 0d 15 bf 96 e0 6c bf
       1.4873711 2.414561 -0.58223325 -0.9253019
000070 14 b6 9c be d6 74 74 be 77 28 3e be a1 3d 13 be
       -0.30607665 -0.23872694 -0.18570124 -0.14378978
000080 4d 26 62 bf de 02 90 3d e4 68 b2 bd b3 80 25 bf
       -0.8833969 0.07031797 -0.087114125 -0.64649504
000090 63 67 1d bf 0c a8 5f 3e 13 1a 19 bf 41 de 8f bf
       -0.6148588 0.21841449 -0.5980541 -1.1239702
0000a0 82 ba b1 be 7b 8c 3e bf c1 14 27 bf 5a 38 f9 be
       -0.34712607 -0.74433106 -0.6526604 -0.48675805
0000b0 3d 49 b5 be 19 9d aa bb 44 b3 0b bf b8 ef 02 bf
       -0.3540744 -0.005206716 -0.5457041 -0.5114703
0000c0 6f 15 8a bf 82 d1 8e bf bf 4e a5 be 4c 8a 2e bf
       -1.0787791 -1.1157687 -0.3228664 -0.68179774
0000d0 e8 53 40 bf 61 b9 55 be fa bf b3 be a3 cc 6f 3a
       -0.7512803 -0.20871498 -0.35107404 0.000914762
0000e0 0e b0 b3 be 9a 9e 90 bf fb ab 9f bf 25 0d 56 bf
       -0.35095257 -1.1298401 -1.2474359 -0.83613807
0000f0 6e d2 71 3e 8c e5 a5 be 9a 61 3d bf f4 fe 18 bc
       0.23615429 -0.32401693 -0.73977053 -0.009338129
000100 8d d8 1b 40 a3 a1 0e be 51 f6 bc 3e 2c d1 0a bf
       2.4350922 -0.13928847 0.36906675 -0.5422542
000110 1a e0 69 bd 4f f5 80 be 1d 06 98 3c a4 47 0e 3f
       -0.057098486 -0.25187156 0.018557603 0.55578065
000120 bb 22 d6 be 1a 34 7e bd 9d 45 11 3e 34 c9 18 3d
       -0.41823372 -0.062061407 0.14186712 0.037301257
000130 41 f9 0c 3e a9 ff 22 c0 a3 30 09 3d 28 5d b3 be
       0.13766958 -2.5468543 0.03349365 -0.3503201
000140 d3 99 bd 3e f0 77 39 be 3a 30 98 bf cc b6 6f be
       0.3703142 -0.18112159 -1.1889718 -0.23409575
000150 50 a2 6b 3f d5 fe 4b be b0 32 b1 3e c6 32 c9 3c
       0.92044544 -0.1992143 0.34608984 0.024560343
000160 92 1c 64 40 91 a0 8f c0 55 31 d1 be e8 e4 c6 3e
       3.5642438 -4.4883504 -0.4085795 0.38846517
000170 b7 a0 41 3f 51 fa e0 3e 5c b0 4b be 2f 1e e5 3e
       0.75635856 0.43940976 -0.19891495 0.4474959
000180 93 5b e9 bd fa e7 6f bd dd 78 c6 bd 61 1e 33 bf
       -0.113944195 -0.05857084 -0.096910216 -0.6996823
000190 5c 5a 7e be cb 28 48 bc 9c 65 32 bf 28 14 a5 be
       -0.24839157 -0.012216757 -0.69686294 -0.3224194
0001a0 e6 a7 25 bf 5c 1b 9b bf a6 de 1f bf 62 5e e8 3d
       -0.6470932 -1.2117724 -0.6244911 0.11346127
0001b0 12 63 ea bd 19 e9 80 bc 5e 5d 21 bf 60 76 92 be
       -0.114446774 -0.01573615 -0.6303309 -0.28605938
0001c0 23 b0 1a bf 64 8d 69 bf da 84 e3 be 9d 1a 5b be
       -0.60425013 -0.9123137 -0.44437295 -0.21396871
0001d0 cb ff 7c bf d2 cf e9 be 03 ca 92 be 86 72 f2 be
       -0.9882781 -0.45666367 -0.28669748 -0.47353
0001e0 25 60 e0 bd 15 e2 44 3e 0e ae a7 be 3b ee 27 bf
       -0.10955838 0.19226868 -0.3274998 -0.65597886
0001f0 d3 cc e2 be ea f8 a0 be fa 15 16 be 36 13 8b be
       -0.44296893 -0.31439906 -0.14656821 -0.27163094

lstm.weight_hh_l0 f4 [128, 32]
000000 b9 ee 88 3c 4b 3a 3a 3d 5a c3 6a be 61 cb 48 be
       0.016715394 0.04546575 -0.22926083 -0.19608833
000010 60 06 ec bd 4b 40 68 be 25 21 10 3e c3 5e 01 be
       -0.115246534 -0.22680776 0.14075144 -0.12633805
000020 13 25 7a be 9d e5 d7 bd 4b a0 a1 3e d2 7f da 3d
       -0.24428205 -0.10541842 0.31567606 0.10668911
000030 92 31 0c be e3 96 b2 3d b0 f7 32 3d b1 f4 ce 3d
       -0.13690785 0.087201856 0.043693244 0.10105265
000040 26 26 85 3d d6 74 0d 3e 77 eb ac 3d 92 70 d2 3d
       0.06501417 0.138141 0.08443349 0.10275377
000050 9f 04 3d be 68 f0 a6 3d 36 71 25 3d 79 03 08 be
       -0.18458794 0.081513226 0.04039117 -0.13282575
000060 4d cd 72 be 86 75 80 bd a7 d8 4f 3d e6 99 8d 3e
       -0.23711129 -0.06272416 0.050743725 0.27656478
000070 91 62 2c 3e fb aa 2d 3d 88 f5 09 3b 89 64 9b be
       0.16834475 0.042399388 0.002105089 -0.3035014
000080 4d da ab bd 43 f3 32 3f fd 04 aa bc 05 10 8d be
       -0.08391247 0.6990244 -0.020754332 -0.27551284
000090 67 a7 c4 3e e4 82 33 3d 2a ee 8b bd 53 54 27 be
       0.38408968 0.043826 -0.068325356 -0.16340761
0000a0 4f 4e ca bd fd 3d 51 3e 49 91 16 be ca fa 31 3d
       -0.098782174 0.20433803 -0.1470386 0.04345206
0000b0 89 c4 98 3d b1 23 a9 3e 2f f6 ef 3d 11 bf 00 bd
       0.07459361 0.33035043 0.11716878 -0.031432215
0000c0 56 9c 9f 3d e3 9c 83 3e 30 8b 46 3e 76 a7 bb 3e
       0.077934906 0.25705633 0.19389033 0.366512
0000d0 12 7f 14 be 9f 3c 54 3d 0e bb 74 bc 87 8c 88 3c
       -0.14501598 0.051815625 -0.014937175 0.016668571
0000e0 7c cf f0 bd 85 59 62 3e b0 bf 62 be 46 7b 04 3e
       -0.117583245 0.22104461 -0.22143435 0.1293765
0000f0 3d a2 1e 3b 53 db 86 be 69 7a a3 bd 59 b4 7e bd
       0.0024205588 -0.26339206 -0.07982332 -0.06218371
000100 1e 47 18 3e df 3a 55 3b 6f da f5 bc 50 22 02 3e
       0.14870879 0.003253631 -0.030011384 0.12708402
000110 fa 03 49 3c 52 1f 11 be 22 5c 52 3d 3f ec 65 be
       0.0122690145 -0.14172104 0.051357396 -0.22453402
000120 1a 10 94 bd e6 63 ce 3d 80 8f 3c 3e 5f ee 36 3e
       -0.07229634 0.10077648 0.18414116 0.17864369
000130 52 7f af bd b4 fe d9 bc f4 16 c5 3d b0 8f b5 bd
       -0.08569206 -0.02661071 0.096235186 -0.08865297
000140 16 60 31 3d 5e 41 4c 3e 02 15 ff 3d 41 4f 87 3e
       0.043304525 0.1994681 0.12455179 0.26427653
000150 36 9e b9 bb 0d 05 b3 3d 7d c2 fc 3c fa 04 0c be
       -0.005664612 0.08741198 0.030854458 -0.13673773
000160 f3 61 76 be 18 cd 2f 3e 35 e9 b7 3d 97 cb fd bd
       -0.24060802 0.17168081 0.089800276 -0.12392347
000170 ad cd ac 3d 0d ae 28 be 5f 51 3f be 83 06 db 3c
       0.08437667 -0.16472645 -0.18683384 0.026736503
000180 c1 c9 d2 3c 7b 5e 70 3e 64 4a 15 be 63 4c 87 be
       0.02573097 0.23473541 -0.14579159 -0.26425466
000190 5f 5c 47 3b 5b 79 1f be bc b2 48 bd 89 f1 58 bd
       0.0030420048 -0.15573637 -0.04899858 -0.05296472
0001a0 ff c5 6b bd 0f 2a 8e 3d 12 82 4f be cd 82 4a be
       -0.05756187 0.06941616 -0.20264462 -0.19776459
0001b0 c3 bd cd 3d 6f 4e ab bd 6c bf 54 3d 42 b2 2a 3d
       0.1004596 -0.083645694 0.051940367 0.041673906
0001c0 cf 68 2c be fe 1c 25 3e 47 f8 08 3e e2 22 67 bc
       -0.16836856 0.16124341 0.1337596 -0.014107438
0001d0 7f f7 53 bd 98 3c cb bd bd f2 d7 bd 5f d8 39 be
       -0.051749703 -0.09923667 -0.105443455 -0.18148945
0001e0 f0 5a e7 3c a0 47 b3 bd ea 8d a7 bd 8c eb 47 bd
       0.028241605 -0.08753896 -0.08181365 -0.04880862
0001f0 29 80 5c bd d2 34 61 bd 36 db b9 3c 0b f8 b6 3d
       -0.05383316 -0.054982014 0.022687536 0.08934029
000200 d1 39 1a 3d b2 37 54 3e ff d4 93 3c fb 64 7a be
       0.037652794 0.20724371 0.0180459 -0.24452583
000210 1e 3d 8a 3e ca cc 16 be 74 22 89 be c0 20 3b bd
       0.26999754 -0.14726558 -0.26784098 -0.04568553
000220 bf 3e 52 be 6f cf e3 3d 91 6f 31 3e 4f f6 98 3e
       -0.20531748 0.11123549 0.17327715 0.2987542
000230 6c 47 1e 3e 9d 53 84 3d 6a 3b 88 3c 60 fa 73 be
       0.15456933 0.064612605 0.016629893 -0.23825979
000240 59 5e 3c bc de 4b 80 3e d0 a3 39 3e a7 cc 52 3e
       -0.011497104 0.25057882 0.18128896 0.20585881
000250 50 1e 36 bd 60 90 da bd 82 cb 90 3e 7a 6f 9a bd
       -0.044462502 -0.106720686 0.28280264 -0.07540794
000260 7e 93 90 bd 0b e6 2e 3e c4 6a 08 be 4c ab 80 3e
       -0.07059382 0.17079942 -0.13321978 0.2513069
000270 20 f0 2b be 0e 90 99 3d c7 37 8f be b7 c7 f2 bd
       -0.16790819 0.074981794 -0.27972242 -0.11854499
000280 ae fd 84 bd 88 18 34 be 3d cb a2 bd 77 8c b7 3b
       -0.06493698 -0.17587483 -0.07948921 0.0056014615
000290 ae a7 e0 bd b1 c6 b2 bd 4b cc fd bd d5 95 dc be
       -0.10969482 -0.08729304 -0.123924814 -0.43083063
0002a0 b3 dc a9 bc ec 0d cc 3d fa eb 42 3e 72 6d 95 3c
       -0.02073512 0.09963593 0.1903533 0.018240664
0002b0 5c 7f 9a be e1 18 e2 3d b3 af 37 bc 89 66 45 be
       -0.30175292 0.110399015 -0.011211324 -0.19277395
0002c0 9e d4 35 3e 9e 5f c3 3d 0d db ab 3d af 61 ba 3c
       0.17756888 0.09539722 0.0839139 0.022751657
0002d0 6a d1 8c 3d bd 1d 02 be b4 2d ed 3c 0b 53 c7 bd
       0.0687588 -0.12706657 0.028952457 -0.09732636
0002e0 4c 8d a2 bd 5f 4a 4f 3e 3a a9 c9 bd 18 ef fb bc
       -0.079371065 0.20243214 -0.098467305 -0.030753657
0002f0 3e 3d 4d bd d2 c1 55 bd a3 dc ba bd 43 ba c4 3c
       -0.050107233 -0.052186795 -0.09124114 0.024014598
000300 5e bd 33 3e 89 c7 06 bd d2 3f 6f bd a5 96 10 3d
       0.17552707 -0.032905135 -0.058410473 0.035299916
000310 8b 11 f6 3e 0a ab af be 69 e1 57 3e a5 b6 29 3c
       0.4806026 -0.3431018 0.21082081 0.010358487
000320 a2 64 61 bd 16 56 ee 3d 5c 81 94 be b8 aa 47 3e
       -0.05502761 0.11637513 -0.29004943 0.19498718
000330 1f 66 7a be fb f1 1c 3f fc a8 ad 3d c1 78 6d 3d
       -0.24453019 0.6130673 0.08479497 0.057976488
000340 f8 fa 2b be f4 9c 2e bd 8c 01 5a be c4 50 9d bd
       -0.16794956 -0.04263015 -0.21289653 -0.076814204
000350 c5 44 5a 3d e5 9a 4d 3e 61 fc 28 3f 22 fd 55 be
       0.05328824 0.20078619 0.660101 -0.20897344
000360 6b b1 19 be 77 73 68 3d 8f 14 ef bc e1 43 76 3e
       -0.15009086 0.05675074 -0.029184608 0.24049331
000370 17 ca 06 bf b2 de 4b be 4a ea 3f be 17 46 11 be
       -0.52652115 -0.1990917 -0.18741718 -0.14186893
000380 c4 fc 05 3e db 46 e3 bd ef a1 89 be cd ff 13 3d
       0.13084704 -0.11097499 -0.26881358 0.036132623
000390 7c c3 d4 3b 2b 09 68 bb 0a d5 20 3e 56 48 13 be
       0.00649303 -0.0035405855 0.15706268 -0.14383063
0003a0 a0 e8 7c be df 16 fb 3c cf 00 3d 3e d9 aa 74 3e
       -0.24698114 0.030650554 0.1845734 0.23893298
0003b0 f0 77 93 be 74 9d a7 3d f9 27 a6 bd 89 f8 86 bc
       -0.28802443 0.08184329 -0.08113093 -0.016475933
0003c0 ee 23 97 3e 8f 02 64 bd 85 5e 65 3d 71 e5 b2 3e
       0.295196 -0.055666503 0.055998344 0.34940675
0003d0 f3 74 4c 3e 35 89 d2 be 45 65 07 be e1 b6 2e bd
       0.19966488 -0.41120306 -0.13222225 -0.042654876
0003e0 de 8b 70 be aa 38 0e 3a 70 72 99 bd cf 4b 2e bd
       -0.23490855 0.0005425314 -0.0749253 -0.042552765
0003f0 b6 ce ae bc b6 f2 b9 3d 03 0a 76 be 01 c2 bf 3d
       -0.021338802 0.090794966 -0.24027257 0.09363175

lstm.bias_ih_l0 f4 [128]
000000 da 72 5c bf 10 53 7c bf e9 08 09 bf 05 fb 23 bf
       -0.8611275 -0.98564243 -0.5352922 -0.640549
000010 9a 51 8b bf 0d 73 28 bf 08 6b 67 bf f0 b7 86 bf
       -1.0884278 -0.65800554 -0.9039769 -1.0524883
000020 2c 54 44 bf 2c 1e 81 bf 3a 76 3c bf 18 ff 7c bf
       -0.76690936 -1.0087333 -0.736179 -0.9882674
000030 9d 1e ab bf 56 55 3d bf f9 63 5d bf 43 c5 83 bf
       -1.3368717 -0.7395834 -0.8648067 -1.0294574
000040 55 a4 8b bf 89 6f 7f bf 3e 66 45 bf 63 07 16 bf
       -1.0909525 -0.99779564 -0.77109134 -0.5860502
000050 f4 a0 7e bf a8 c2 0c bf 13 dc 4d bf 86 91 09 bf
       -0.99464345 -0.5498452 -0.8041393 -0.53737676
000060 b3 bd 43 bf 86 70 8c bf be 05 6b bf dd 3a 99 bf
       -0.76461333 -1.097184 -0.91805637 -1.1971089
000070 9b f2 20 bf 75 fd 68 bf 57 d1 90 bf d6 ef 33 bf
       -0.62870187 -0.91011745 -1.1313885 -0.70287836
000080 1b 4a 1b bf 17 50 3a bf 1c c0 0e bf 67 2a c4 be
       -0.6065995 -0.7277846 -0.55761886 -0.383136
000090 96 2f 1a bf 6e 29 d9 be 74 3c 2a bf f5 e7 39 bf
       -0.6022886 -0.4241442 -0.66498494 -0.72619563
0000a0 b1 60 2d bf 6d 1e 09 bf 27 c7 0c bf 90 34 24 bf
       -0.67725664 -0.5356205 -0.5499138 -0.64142704
0000b0 78 93 8a bf 84 f0 d0 be 19 e9 06 bf d1 ee f7 be
       -1.0826254 -0.408085 -0.5269943 -0.4842439
0000c0 b1 fd 0a bf 02 53 4e bf 29 9f c3 be d0 0e 27 bf
       -0.5429335 -0.8059541 -0.38207367 -0.6525698
0000d0 09 4f 2c bf f4 ae f3 be 4b 49 0f bf e2 cc 2c bf
       -0.673081 -0.47594416 -0.5597121 -0.67500126
0000e0 d2 0f cc be b2 bc 09 be af c5 e5 be ac f2 f2 be
       -0.3985582 -0.13450888 -0.44877383 -0.4745077
0000f0 9f 9a 18 bf e1 3d e3 be cd 90 1b bf d5 3b 43 bf
       -0.59610933 -0.44383147 -0.60767823 -0.7626317
000100 96 6b 1b 3c 9d e1 9b bc bf 21 ce bc 77 34 6b 3c
       0.0094861 -0.01902848 -0.025162576 0.01435577
000110 c1 55 e7 bd 27 39 1a 3b de e7 af bb 0f 03 fc bc
       -0.11295653 0.00235326 -0.005368217 -0.030763177
000120 9f ba 41 bd d8 ee 76 bd e2 28 d4 bc 88 65 b2 3c
       -0.047297116 -0.060286373 -0.0258984 0.02177693
000130 d4 23 ab 3d 28 f5 89 bd 31 b5 30 bc 7f 01 8a 3d
       0.08356443 -0.06736213 -0.010785387 0.067385666
000140 c0 8d e5 3d fd ec 2d bd 74 f2 f1 bc 80 21 ab 3d
       0.11208677 -0.042462338 -0.029534556 0.08355999
000150 e0 22 22 3d 33 e0 27 bc 37 97 15 3e e1 6e b2 bd
       0.03958404 -0.010246324 0.14608465 -0.08712555
000160 52 91 09 3d 3a 16 12 3d 28 90 b5 bd 13 ab 0f bd
       0.033585854 0.03566573 -0.08865386 -0.03507526
000170 28 fc 99 3d cf 75 6b 3d 16 df 23 bc 29 43 2d 3d
       0.07518798 0.057485398 -0.010001918 0.042300377
000180 d6 3a 70 bf b9 a1 8a bf a2 ee 55 bf bb 17 2f bf
       -0.93839777 -1.0830604 -0.8356725 -0.68395585
000190 b3 c5 96 bf 76 24 31 bf 14 1d 4c bf 80 96 86 bf
       -1.1779083 -0.6919626 -0.7973187 -1.0514679
0001a0 79 81 4d bf 1c 63 6d bf 92 be 5a bf dd 03 59 bf
       -0.80275685 -0.92729354 -0.8544704 -0.8477152
0001b0 39 0c a4 bf 0a bd 6c bf 0a 45 4b bf 88 f3 86 bf
       -1.281623 -0.9247595 -0.7940222 -1.054307
0001c0 47 ea 92 bf 06 55 3e bf b6 18 4d bf d6 d7 4f bf
       -1.1477746 -0.74348485 -0.8011583 -0.81188715
0001d0 38 a5 69 bf 64 1b 11 bf fc 48 6d bf 19 58 21 bf
       -0.9126773 -0.5668242 -0.9268949 -0.6302505
0001e0 e2 e9 63 bf 9d 4b 82 bf 38 5c 5e bf cf d1 91 bf
       -0.8902875 -1.0179325 -0.86859465 -1.1392154
0001f0 28 13 6f bf 6a 5d 64 bf 79 68 86 bf e3 56 80 bf
       -0.93388605 -0.8920504 -1.0500633 -1.0026516

lstm.bias_hh_l0 f4 [128]
000000 a0 a4 94 bf f0 a7 86 bf 06 97 46 bf de 64 16 bf
       -1.161274 -1.052 -0.77574193 -0.5874766
000010 57 9a 99 bf e7 ea 2b bf ae 4e 45 bf e8 af 61 bf
       -1.2000226 -0.6715531 -0.7707318 -0.88159037
000020 bf 51 79 bf b5 b2 63 bf 44 e4 62 bf d6 e9 8a bf
       -0.9739036 -0.8894456 -0.88629556 -1.0852611
000030 d6 71 84 bf f4 b9 4a bf 9f af 85 bf fe 42 67 bf
       -1.034724 -0.7918999 -1.044422 -0.90336597
000040 17 c2 82 bf 70 5e 83 bf a3 63 4c bf 18 09 4c bf
       -1.0215482 -1.0263195 -0.79839534 -0.79701376
000050 0a 9c 86 bf 75 53 23 bf 1c af 67 bf 5e 8c 52 bf
       -1.0516369 -0.6379922 -0.9050157 -0.82245433
000060 5a e2 69 bf f9 f8 8b bf 78 a3 63 bf dc 07 67 bf
       -0.9136101 -1.0935355 -0.8892131 -0.9024637
000070 c3 aa 4f bf b2 84 32 bf 25 e4 98 bf f5 a4 5e bf
       -0.81119937 -0.69733727 -1.1944624 -0.86970454
000080 28 de f9 be 60 64 4b bf 94 89 00 bf 20 cb 10 bf
       -0.48802304 -0.79450035 -0.5020993 -0.56559944
000090 55 21 44 bf 66 97 19 bf a9 6a 19 bf 20 ba 39 bf
       -0.7661336 -0.5999664 -0.59928375 -0.7254963
0000a0 69 3e 01 bf 46 2e 39 bf 9b 74 49 bf c1 e0 33 bf
       -0.50485855 -0.7233623 -0.7869355 -0.7026482
0000b0 47 e3 85 bf 23 1c 07 bf 76 d1 ae be 37 9b 25 bf
       -1.0459985 -0.5277731 -0.3414418 -0.64689964
0000c0 f6 02 f0 be c3 d4 45 bf 5e 94 0e bf 90 8f 28 bf
       -0.4687726 -0.77277774 -0.5569514 -0.6584406
0000d0 2f 7d 49 bf de 18 cf be a8 89 0d bf 85 b2 26 bf
       -0.7870664 -0.4044866 -0.5528817 -0.6511615
0000e0 bb be 74 be 07 79 38 bd 2b b1 f6 be 47 d2 08 bf
       -0.23900883 -0.045037296 -0.48182043 -0.5344586
0000f0 d2 26 03 bf 6e 94 12 bf 65 06 4a bf 9e 40 48 bf
       -0.5123111 -0.57257736 -0.7891601 -0.782236
000100 af 0f 59 bc c4 d6 9d 3c bc c0 c9 3c c6 68 56 bc
       -0.013248368 0.019267447 0.024628036 -0.013086503
000110 4e 6b e7 3d 65 9b cb ba 22 9a a8 3b d2 7f f5 3c
       0.112997636 -0.0015533982 0.005145327 0.029968176
000120 8f 3d 47 3d 65 1c 77 3d 21 18 cc 3c 83 f4 b0 bc
       0.04864269 0.060329814 0.02491385 -0.021600967
000130 af 96 ab bd fe 5c 94 3d 3c 9d 2f 3c a6 c1 88 bd
       -0.0837835 0.07244299 0.01071864 -0.066775605
000140 60 1e e7 bd 8b 1e 2d 3d 8a 73 fb 3c 24 54 aa bd
       -0.112850904 0.042265456 0.030694742 -0.0831683
000150 65 e7 25 bd 7c d4 31 3c 3a c4 16 be e9 0a b2 3d
       -0.04050388 0.010853883 -0.14723292 0.08693487
000160 86 1d 30 bd 3d 7d a3 bc e3 87 b7 3d e5 f1 0b 3d
       -0.042996906 -0.01995718 0.08961465 0.034166235
000170 16 a8 9c bd c5 64 6d bd 7a 22 27 3c 72 76 30 bd
       -0.07649247 -0.05795743 0.010201091 -0.04308171
000180 33 a1 8b bf fd 75 63 bf 8c 89 54 bf 13 5c 18 bf
       -1.0908569 -0.8885191 -0.8302238 -0.59515494
000190 b5 44 9d bf d5 93 4d bf d4 0b 4b bf 0c 4f 7d bf
       -1.2286593 -0.803037 -0.79314923 -0.9894874
0001a0 22 63 45 bf 2d 8c 8c bf 68 78 37 bf 8c 57 90 bf
       -0.7710439 -1.0980278 -0.716681 -1.1276717
0001b0 11 00 a6 bf c5 ad 4d bf 54 c4 51 bf ca c1 81 bf
       -1.296877 -0.80343276 -0.819402 -1.0137265
0001c0 93 6c 68 bf fb ae 5c bf e3 26 5f bf 69 3b 54 bf
       -0.9079067 -0.862045 -0.8716871 -0.8290315
0001d0 3c ac 97 bf 72 04 44 bf ad 60 56 bf ea d3 23 bf
       -1.1849437 -0.76569283 -0.83741266 -0.6399523
0001e0 e1 0c 4f bf 53 d4 90 bf 88 d3 8a bf 65 c7 82 bf
       -0.80879027 -1.1314796 -1.0845804 -1.02171
0001f0 b8 08 22 bf 41 2a 1d bf f1 9c aa bf 88 31 5f bf
       -0.63294554 -0.613926 -1.3329145 -0.87184954

fc.weight f4 [1, 32]
000000 3d ef 83 bc bb 9c ff 39 3d be ad bb 64 db b4 3b
       -0.016105289 0.00048754163 -0.005302219 0.0055193175
000010 be 17 0f ba db 73 47 3b c8 68 b0 b9 7d c1 ea bb
       -0.0005458555 0.0030434045 -0.00033647404 -0.007164179
000020 34 31 56 3b b2 44 0d 3a e9 bc fe ba 0c 1f 9d 38
       0.0032683136 0.00053889595 -0.0019434962 7.492126e-05
000030 eb 9c fa ba be 5a 3d 3d bc 8d ba 38 bf ee 55 3b
       -0.0019120252 0.046229117 8.895571e-05 0.0032643524
000040 41 8b 75 bb 52 ad 7f 3a 33 1d 28 3c 3b 9d 92 3b
       -0.0037467035 0.0009753305 0.010260868 0.0044743097
000050 83 65 90 bb da 18 23 3b a0 31 ae bb d2 fd 24 b9
       -0.0044066324 0.002488664 -0.0053159744 -0.00015734814
000060 92 bb 87 bd be 8d ab 3d 17 6e 78 3b 1f 45 a7 bb
       -0.06627573 0.083766446 0.0037907416 -0.0051046754
000070 3f 81 d2 bb 9c b6 90 bb ab 49 34 3b 5a dd a5 bb
       -0.0064240987 -0.0044163 0.002750973 -0.0050617876
