ml_models/lstm_products/forecast_model_lstm_Smartwatch.pth (torch, 21481 bytes, 5 tensors)

lstm.weight_ih_l0 f4 [128, 1]
000000 21 f2 c4 be f2 19 94 be 21 4e 19 3e a8 98 f2 be
       -0.3846598 -0.28926045 0.1497121 -0.47382092
000010 bd 36 2b bf 1a 40 0d bf 89 cf 46 bf 0e 08 17 be
       -0.668804 -0.55175936 -0.77660424 -0.14749166
000020 15 83 86 bf 4a f0 bd be 38 0f 39 bf 5d 85 c4 bf
       -1.0508753 -0.37097389 -0.72288847 -1.5353199
000030 ca 04 9c be 78 f6 25 3e 3e eb 7d bf 97 45 68 3e
       -0.30472404 0.16207302 -0.99187076 0.22682796
000040 4e 72 dc 3f 36 a2 11 40 9b 5d 56 bf e3 3d 4a bc
       1.7222383 2.2755256 -0.8373658 -0.0123438565
000050 e3 7d 58 be 17 bf 63 bd 01 cf da be 36 6f df be
       -0.21141772 -0.05560216 -0.42736056 -0.43639535
000060 05 ea c6 be fe f6 33 bd 30 fa 1b bf 37 02 b7 bd
       -0.38850418 -0.043936722 -0.6092863 -0.08935969
000070 fe ed e7 be ed 3c 83 3e 1a 5e d2 bd d4 49 0e 41
       -0.4529876 0.2563242 -0.10271855 8.893024
000080 98 ef 3a bf 28 31 90 be 18 bf 45 bf 0c fe 96 be
       -0.7302184 -0.28162503 -0.7724471 -0.29490697
000090 4b 48 7f bf 7b fa a6 bf 56 b2 7c bf f3 17 e8 bd
       -0.99719685 -1.304519 -0.9870962 -0.11332693
0000a0 fb 2f 4d bf df fc 62 bf 59 84 4b bf 75 b7 94 bf
       -0.8015134 -0.886671 -0.7949882 -1.1618487
0000b0 49 7e 19 bf 6a a4 6a bf 82 1c 3f bf e7 30 06 bf
       -0.5995832 -0.91657126 -0.74652874 -0.5241837
0000c0 3f 06 f3 be c0 62 92 3e b5 e7 c5 bf ac 4f 83 bf
       -0.47465703 0.28590965 -1.5461336 -1.0258689
0000d0 72 f2 fa be c5 7d e6 be 44 c0 cf be 69 ee 90 bf
       -0.49013096 -0.4501783 -0.40576375 -1.1322757
0000e0 1f a7 83 bf 1b 78 a1 be 8e 5c 1b bf ae e9 64 bf
       -1.0285376 -0.31536946 -0.606881 -0.89419067
0000f0 0d 22 68 bf f5 d5 57 be e4 c1 dd be 07 15 ae bf
       -0.9067696 -0.21077712 -0.4331199 -1.3600167
000100 df f5 fe bd 38 9b be 3d fa ec 03 3f 18 95 2f 3e
       -0.1244924 0.093069494 0.5153347 0.17146719
000110 25 49 98 be b6 9b 2d be 2d b9 88 3d 07 11 3c 3e
       -0.29743305 -0.1695393 0.066759445 0.1836587
000120 9c d9 88 3e 58 e0 ca be b3 9e 3a be 1e f1 ad be
       0.26728523 -0.39624286 -0.18224601 -0.3397302
000130 6e fd be bd ae 8f 39 3f 56 b5 a2 bd 48 cf fd 3e
       -0.093256816 0.7248486 -0.07944743 0.49572206
000140 64 aa 15 c0 50 a0 3d 40 9b 75 20 3e f4 0a ea be
       -2.3385248 2.9629097 0.15669863 -0.45711482
000150 44 ce 00 3f 6f b8 9a be 92 ca da bd bf 3a 54 be
       0.50314736 -0.30218837 -0.106831685 -0.20725535
000160 71 67 81 be 71 ac 63 be ba 7a 9f 3c 25 38 d2 be
       -0.25274232 -0.2223375 0.0194677 -0.4105846
000170 89 b9 8d be 0c 43 da be b4 7f 46 3e 19 c2 a5 40
       -0.27680615 -0.42629278 0.19384652 5.1799436
000180 0c 23 06 bf 12 c2 d3 be b3 e0 8f bf 9b f8 5e bf
       -0.5239723 -0.41359 -1.1240448 -0.8709809
000190 06 1e 57 bf 7f b1 45 bf 5f c2 9b bf af ac b2 be
       -0.8403019 -0.7722396 -1.2168692 -0.34897372
0001a0 8f ca f6 bf 52 4b 7f bf 17 23 6d bf 7b cd e6 bf
       -1.9280566 -0.99724305 -0.9263167 -1.8031458
0001b0 f8 f3 b6 be 80 4c 85 bf 6b 12 23 bf d3 b3 b2 bf
       -0.35733008 -1.0413971 -0.6369998 -1.3961128
0001c0 8d f5 97 3e 7e 67 14 bf a7 f7 6b bf 26 7f 67 bf
       0.29679528 -0.57970417 -0.9217476 -0.9042839
0001d0 53 a5 a8 bf d6 4a 4f bd 7b 8d 1f bf 73 ec 34 bf
       -1.3175453 -0.05060848 -0.6232526 -0.7067329
0001e0 4e fe b3 be 0f 96 ae be 54 d4 0f bf 78 07 2e bf
       -0.35154957 -0.3409886 -0.5618336 -0.67980146
0001f0 e0 d8 79 bf 57 4f 9f be 9c 4e 25 bf ac ed 27 bf
       -0.9759655 -0.3111522 -0.64573073 -0.65597034

lstm.weight_hh_l0 f4 [128, 32]
000000 36 b9 ee 3d 84 99 42 be af 3d 62 bd 82 5a 80 3e
       0.1165642 -0.19003874 -0.055234607 0.25069052
000010 2e 4c 87 3e 80 af 28 3c e6 66 4a bd 4f d4 a0 be
       0.26425308 0.010295749 -0.049414538 -0.3141198
000020 c0 4c 3b be 7d 0d 2a be 4b 63 a1 be c7 93 c0 3c
       -0.18290997 -0.16606708 -0.31521067 0.023507966
000030 d0 e1 b0 3e 60 93 e4 bd dd 58 96 3d 20 c7 a3 3d
       0.3454728 -0.11160922 0.07341168 0.079969645
000040 cd 80 56 3e 74 ab 0b bf 0f e7 a5 3e 8a 57 05 be
       0.20947571 -0.5455849 0.32402846 -0.13021675
000050 74 fc 7c 3d dc 1d 91 3e ba 92 36 be 91 c6 00 3f
       0.061764196 0.28343093 -0.17829409 0.5030299
000060 0b 93 f8 3d 05 28 b7 ba 5f 9e 77 3e 59 cf 8f bd
       0.12137421 -0.0013973719 0.24181508 -0.0702197
000070 d7 af 91 be 12 d7 1b 3e 3c 6b a2 bd 7c 89 c9 be
       -0.28454468 0.15218762 -0.079306096 -0.39362705
000080 8a 01 4e 3e 58 40 35 3d 57 59 5b 3d 4a ef 80 bd
       0.20117775 0.044250816 0.053551998 -0.06295641
000090 79 42 8f ba dc b2 98 bd dd 00 ed 3d 50 64 ed bb
       -0.0010929845 -0.0745599 0.1157243 -0.007244624
0000a0 20 70 0f be d5 de 04 3e 0e ee 14 be 41 af 09 bc
       -0.14007616 0.12975629 -0.14543936 -0.0084036
0000b0 6f 2c d7 bc e1 2f 9e 3d be a4 81 bd 80 81 de bd
       -0.026266305 0.07723976 -0.0633025 -0.10864544
0000c0 fc 77 ad 3e 1f 8c 9f be 9e 5c 9f 3c 1e 3a 99 3d
       0.33880603 -0.3116159 0.019453343 0.07481788
0000d0 96 81 60 3d 38 8e 3f be 64 98 e9 bd 62 43 13 3e
       0.054811083 -0.18706596 -0.11406019 0.14381173
0000e0 40 a0 7d 3d a1 90 8c 3d 30 c2 04 3d 63 97 0b 3e
       0.061920404 0.06863523 0.032411754 0.13631968
0000f0 fb 4a 4a be 8e 69 20 3d dd a3 32 be 85 ab 21 be
       -0.19755165 0.039163165 -0.17445321 -0.15788086
000100 6f e5 1f 3d f6 1b 80 bd 7f e8 bc bd 3b 6a 01 3e
       0.039037164 -0.06255333 -0.092240326 0.1263818
000110 ca f3 98 3c e3 8e 9a 3e f0 c6 5d 3e e8 a4 cb be
       0.018670935 0.3018714 0.2165792 -0.3977425
000120 73 f4 b9 3d ac 97 73 3e d5 3d 81 be 71 f3 85 bd
       0.09079828 0.23788327 -0.25242487 -0.065405734
000130 b0 bc ca 3d b4 56 68 be 12 ab b9 bc d8 da 74 3e
       0.098992705 -0.22689325 -0.02266458 0.23911607
000140 e0 1a 94 3f b7 27 04 bf 94 51 4e 3b 1d 35 b8 bb
       1.1570702 -0.516231 0.003148173 -0.005621566
000150 01 c9 39 3e 4a 2b bc 3a ec f7 e6 be 1c 18 30 3e
       0.18143083 0.0014356163 -0.45111024 0.17196697
000160 df 36 05 bd 07 28 a1 be c1 ef 27 be a2 67 21 be
       -0.032523032 -0.3147585 -0.16400053 -0.15762189
000170 24 1a 26 3e 0f 50 2a 3d b3 57 79 3e 38 e4 64 bf
       0.1622091 0.041580256 0.24349861 -0.89410734
000180 85 f4 df bd 98 16 61 be 09 b7 14 3e d9 2a 63 3e
       -0.1093531 -0.21981275 0.14522947 0.22184314
000190 9b 54 40 be 6e 65 d8 3c 51 52 38 3b 68 45 da bd
       -0.18782274 0.026415553 0.0028125236 -0.106577694
0001a0 15 06 a2 3d af e3 83 3e 4d e2 b8 bd b8 ee 1e be
       0.07911316 0.25759646 -0.090275384 -0.15520751
0001b0 be 6e f0 bc 04 b2 11 3e 55 a3 e2 3c 4a c9 01 3e
       -0.029349681 0.14228064 0.027665773 0.12674442
0001c0 97 03 94 3e 0e db 83 bd 2f f2 c2 bd 1d f3 6a bd
       0.2890899 -0.06438266 -0.09518849 -0.057360757
0001d0 3a 37 92 3d 96 bb 3b 3c 8c 54 2c be 79 b0 4c bc
       0.0713944 0.011458298 -0.16829127 -0.012493246
0001e0 13 92 0c bd e2 c2 60 be c3 f5 40 be 7f 56 17 be
       -0.034318995 -0.21949342 -0.1884375 -0.1477909
0001f0 c0 45 7f 3c a0 a8 a4 3c 14 ee 11 3d 08 f3 0b be
       0.015580595 0.020099938 0.03562744 -0.13666928
000200 1c de 24 3d 41 a4 80 be 4c 2d 18 be 3e b7 7c 3e
       0.040250883 -0.25125316 -0.1486103 0.24679276
000210 1b b8 91 bd 78 6f 0d 3e cf b2 99 3e 28 5c 34 be
       -0.071151935 0.13812053 0.30019233 -0.1761328
000220 21 33 58 3e 91 f9 bf bc 86 46 1a be cd e5 88 3e
       0.21113254 -0.023434432 -0.15065965 0.26737824
000230 ad 48 ab 3e a1 d0 f0 ba 11 35 47 bd a4 eb 57 3c
       0.33453885 -0.0018372723 -0.048634592 0.01317874
000240 e9 96 d0 3e b9 8c 7c be 57 f2 b5 3d 0c 69 1c 3e
       0.40740135 -0.24663056 0.08884113 0.15274447
000250 4e 6b 44 bb 1d 55 ea 3b 3e dd 8e bd af ae 95 3e
       -0.0029971185 0.0071512596 -0.06975792 0.29234836
000260 3f 79 6a bd bf 98 95 3e 50 d8 bf bd 0a 19 0b 3e
       -0.057244536 0.292181 -0.0936743 0.1358377
000270 06 d8 33 3c 43 9a c9 3c 8a 51 96 be d0 a6 bb be
       0.010976797 0.02460969 -0.29359084 -0.36650705
000280 f5 2d 39 bd 5e 87 60 bd 68 d6 83 3d cf a1 5c 3c
       -0.045209844 -0.054816596 0.06437379 0.013466313
000290 54 9a 2f be cb d0 84 3e 57 c2 ae 3d dc fe f8 bd
       -0.17148715 0.25940546 0.08533161 -0.121579856
0002a0 08 ed c3 3b b2 7c 2f bc b7 25 b5 bd e6 f2 49 3d
       0.005979184 -0.010710882 -0.08845084 0.04930391
0002b0 65 6f 02 bc 2e c9 8a 3d 7c f4 99 be 83 62 42 bd
       -0.007961129 0.06776653 -0.3006934 -0.04745723
0002c0 3a e1 5f 3d f7 5d 99 be 2f 65 b0 3b 82 f7 b9 bd
       0.054658152 -0.29954502 0.005383156 -0.090804115
0002d0 c0 e3 59 3d 70 13 34 be 87 ea 2f be 50 7a c8 3d
       0.053195715 -0.1758554 -0.17179309 0.09788954
0002e0 77 ba b6 bc 5e 56 e6 3d 20 cf be 3d 60 e4 28 3e
       -0.02230571 0.11246942 0.0931685 0.16493368
0002f0 39 3b cd bd 11 fd f5 3d 71 0e a3 3e 24 64 f4 be
       -0.100210615 0.12011159 0.31846955 -0.4773265
000300 9b d6 80 3e ef 59 02 be a2 3c b6 bc aa 94 57 3e
       0.2516373 -0.1272962 -0.022245709 0.21052805
000310 cb 61 64 bd 49 76 a1 3e 84 ee f5 3d 97 95 1c be
       -0.055757325 0.31535557 0.12008384 -0.15291439
000320 2d 4f 25 3d 4e a0 86 3d 4a 83 55 be 57 cb db bd
       0.04035871 0.065735444 -0.20850864 -0.10732143
000330 f2 f5 2b 3e e2 1d 4a be 89 a9 05 be 3f e3 72 3d
       0.1679304 -0.19737962 -0.13052954 0.05929875
000340 76 11 da 3e bd d3 8a be c4 68 22 3e ad fe bc 3d
       0.42591447 -0.27114668 0.15860277 0.09228263
000350 c6 76 07 3e 13 0b 70 3d ae e2 97 be 45 b2 54 bd
       0.13228902 0.05860431 -0.2966513 -0.051927824
000360 a6 52 eb bd e2 3f af 3d 70 e1 40 3d ca b4 05 bd
       -0.11490373 0.085571066 0.047089994 -0.032643117
000370 d0 81 7f 3c 52 d1 76 3e c0 9c fd bd 0c 26 92 be
       0.015594915 0.24103287 -0.12383413 -0.28544652
000380 12 50 5f 3e 7d 18 21 be a2 12 e0 3d 8e f5 43 3e
       0.21807888 -0.15731998 0.10941054 0.1913664
000390 fa ab c2 3d cd 60 9e 3d 98 92 23 be c6 5d 74 bd
       0.09505458 0.07733307 -0.1597389 -0.05965974
0003a0 cc 68 0a 3e ce 87 92 bc 11 22 94 be 16 b4 6f bd
       0.1351654 -0.017887022 -0.2893224 -0.058521353
0003b0 02 c9 6a bd 50 81 14 3e 3d bb 24 be 49 0d 64 3e
       -0.057320602 0.14502454 -0.1608705 0.22270693
0003c0 e1 e9 31 3e 5a 98 9b be da 22 3c bd c0 ff 48 be
       0.17374374 -0.30389673 -0.045931675 -0.19628811
0003d0 9f 24 83 3e 16 3b e3 bd 35 a4 ec bc fa 81 02 bd
       0.25613877 -0.11095254 -0.028886894 -0.031862237
0003e0 18 fe d8 bd 47 d8 42 be d6 be 3e 3e 7f 8d 7e bd
       -0.105953395 -0.19027816 0.18627486 -0.06214666
0003f0 67 5a 88 be 4a 95 56 3d c3 c5 4a 3e ec 30 4f be
       -0.26631472 0.052388467 0.19802003 -0.20233506

lstm.bias_ih_l0 f4 [128]
000000 02 2c a3 bf 00 b6 81 bf b9 82 99 bf b7 a4 6a bf
       -1.2747805 -1.0133667 -1.1993018 -0.91657585
000010 1b e8 99 bf e5 a5 8e bf 5d f5 86 bf 5d bf 38 bf
       -1.2023958 -1.1144377 -1.0543629 -0.72167
000020 a0 c4 6b bf 4c 8e 91 bf 81 22 9c bf 74 70 98 bf
       -0.920969 -1.137155 -1.219803 -1.1909318
000030 41 96 95 bf e9 00 8a bf dc 6e 75 bf 3f fd 7b bf
       -1.1686479 -1.0781528 -0.95872283 -0.984333
000040 9d cb 97 bf 3b 11 2c bf 06 e3 91 bf e8 9d 75 bf
       -1.1859013 -0.6721379 -1.1397407 -0.9594407
000050 3b 6e 35 bf eb ed 69 bf 2d b1 1c bf 44 55 91 bf
       -0.70871323 -0.9137866 -0.6120785 -1.1354146
000060 18 e9 7e bf d4 6c 98 bf 7a be 87 bf 82 b9 b5 bf
       -0.9957442 -1.1908212 -1.0605004 -1.4197237
000070 22 18 8e bf dd c7 91 bf 99 50 8c bf 9b 8b b0 bf
       -1.1101115 -1.1389118 -1.0962096 -1.3792604
000080 bc 6b 61 bf 11 e9 41 bf 1c fc 13 bf 06 bc 27 bf
       -0.88055015 -0.75746256 -0.57806563 -0.65521276
000090 67 9a 39 bf 2a 10 1c bf fa 4a 26 bf b9 00 19 bf
       -0.72501224 -0.60962164 -0.64958155 -0.5976673
0000a0 41 b6 09 bf e3 da 37 bf 29 b3 44 bf 3a 1d 24 bf
       -0.5379372 -0.7181837 -0.76835877 -0.64107096
0000b0 ba 0d 23 bf 9d 04 0c bf 55 80 31 bf f0 ed cf be
       -0.6369282 -0.5469454 -0.69336444 -0.4061122
0000c0 3c d2 fa be 05 b0 00 be fb ad 2c bf 43 70 0d bf
       -0.4898852 -0.12567146 -0.67452973 -0.5524942
0000d0 b7 2b f5 be 6a 7f 31 bf 9f fa 29 bf 83 95 46 bf
       -0.47884914 -0.69335043 -0.6639804 -0.77571887
0000e0 b6 0b f5 be a9 1f 46 bf 50 d1 2b bf 37 86 4a bf
       -0.47860497 -0.7739206 -0.6711626 -0.79111046
0000f0 00 da 38 bf 34 3b f9 be f7 60 41 bf db b4 7f 3f
       -0.7220764 -0.4867798 -0.7553858 0.9988534
000100 81 66 13 3e 82 77 ac bd 76 8f d5 bc 5b 25 a9 bc
       0.14394571 -0.08421232 -0.026069384 -0.020647695
000110 67 40 c7 bc dc 43 96 bd ac c2 08 bd d2 db 44 bb
       -0.024322702 -0.07337162 -0.03338878 -0.003003825
000120 24 4b 13 bd e3 ff 79 3d cb f6 b5 ba 85 09 b7 3c
       -0.03596033 0.06103505 -0.0013882754 0.022343406
000130 6c 8a 36 bc 0e 94 b5 bd ee 04 b8 3c 1d c0 6a bd
       -0.011141401 -0.0886613 0.022463288 -0.05731212
000140 db 9b be 3d 5f b4 84 3c 4b 24 fa bc 98 f0 8c 3c
       0.09307071 0.016199289 -0.030534884 0.017204568
000150 81 87 31 3c ce a4 94 bd ba 98 e2 bd d9 85 2d 3c
       0.010835529 -0.072579965 -0.110642865 0.010590994
000160 16 97 4b 3d 1a db ad bd 86 5f 86 bd c8 d2 bc 3d
       0.049704634 -0.08489056 -0.065611884 0.09219891
000170 6a 5d 44 bd c4 00 dc 3c bd 39 00 bc 71 6e fd 3d
       -0.04794065 0.026855834 -0.007826266 0.12374581
000180 00 98 ad bf 26 93 49 bf 8e b8 93 bf 70 be 84 bf
       -1.3562012 -0.78740156 -1.1540697 -1.0370617
000190 45 9a 8b bf 3f 50 9a bf dc f6 87 bf ea ce 3b bf
       -1.0906454 -1.2055739 -1.062221 -0.733626
0001a0 8e e3 51 bf 5f 2b 99 bf 6b c1 6e bf ee ea a6 bf
       -0.81987846 -1.1966361 -0.9326388 -1.3040445
0001b0 c0 3c 87 bf cb d5 8a bf 96 d4 6c bf b7 e2 89 bf
       -1.0565414 -1.0846494 -0.9251188 -1.0772313
0001c0 3d 79 76 bf 91 4f 3e bf 41 1a 75 bf 75 61 70 bf
       -0.96278745 -0.7434016 -0.95743185 -0.9389871
0001d0 18 97 39 bf 5a f8 8d bf 15 c5 4b bf 71 85 91 bf
       -0.72496176 -1.1091416 -0.795976 -1.1368848
0001e0 01 c2 64 bf 61 bb 8a bf 05 4e 90 bf 22 f6 bc bf
       -0.89358526 -1.0838434 -1.127381 -1.4762614
0001f0 f4 50 a6 bf 99 57 95 bf 14 54 78 bf d4 5b 90 bf
       -1.2993455 -1.1667358 -0.97003293 -1.1278024

lstm.bias_hh_l0 f4 [128]
000000 7e d5 b3 bf a1 97 7d bf 5d 51 a5 bf 03 53 87 bf
       -1.4049528 -0.9905949 -1.2915455 -1.0572208
000010 5c 3d 83 bf ca b4 8e bf a3 44 a6 bf 46 7d 3e bf
       -1.02531 -1.1148922 -1.2989696 -0.744099
000020 1e ec 53 bf 55 b5 b4 bf 10 11 84 bf 34 7c 8b bf
       -0.8278216 -1.4117838 -1.0317707 -1.0897279
000030 d5 3f 81 bf 41 01 a4 bf 29 8c 58 bf 99 52 70 bf
       -1.0097605 -1.2812883 -0.8458887 -0.93876034
000040 6f ce 86 bf 12 ef 19 bf a1 7c 87 bf 7f 43 71 bf
       -1.0531749 -0.6013042 -1.0584909 -0.94243616
000050 33 b1 72 bf 9b 19 8c bf f9 e5 42 bf de 55 a7 bf
       -0.94801635 -1.0945314 -0.7613216 -1.307308
000060 41 3b 69 bf 4c 60 99 bf 4d 3a 7f bf a7 86 b2 bf
       -0.9110604 -1.1982512 -0.99698335 -1.3947343
000070 fb 98 a4 bf 0c bf 97 bf 57 dd 64 bf 87 7f d0 bf
       -1.2859186 -1.1855178 -0.8940024 -1.6288918
000080 5f db 6e bf d0 4b 3e bf 70 95 42 bf 0a a1 20 bf
       -0.93303484 -0.7433443 -0.76009274 -0.62745726
000090 37 95 3e bf 0d 06 10 bf 2b 4e 0a bf 76 cc 09 bf
       -0.74446434 -0.5625923 -0.54025525 -0.5382761
0000a0 78 aa cf be 59 ea 43 bf 6f 3b 3c bf ea 00 35 bf
       -0.40559745 -0.7652946 -0.7352819 -0.7070452
0000b0 90 9f 5a bf f2 7a 33 bf 4c 65 08 bf a4 45 00 bf
       -0.85399723 -0.70109475 -0.53279567 -0.50106263
0000c0 d0 f1 ae be 5e dc 54 be e7 e8 4c bf 2d 4c 22 bf
       -0.34168863 -0.20787188 -0.8004288 -0.63397485
0000d0 47 73 ec be 9f e9 49 bf f1 d1 2a bf f1 f3 51 bf
       -0.461817 -0.788721 -0.66726595 -0.8201285
0000e0 cc 16 0e bf 39 f4 2f bf c5 5a 38 bf e5 c3 14 bf
       -0.55503535 -0.6873203 -0.72013503 -0.5811141
0000f0 20 e4 0a bf 36 61 26 bf 93 78 04 bf be d6 8b 3f
       -0.5425434 -0.6499208 -0.5174648 1.0924909
000100 a0 57 23 be 9a 10 af 3d 60 e5 17 3d 15 a2 e0 3c
       -0.15951395 0.08548088 0.037083983 0.027421037
000110 8e 55 94 3c 4e c9 8a 3d ba 59 f6 3c 4d 84 2d 3c
       0.018107202 0.06776677 0.030072082 0.010590625
000120 dc 66 3c 3d 4c 81 b6 bd 76 2f 49 bb fd ec de bc
       0.04599653 -0.0891138 -0.0030698455 -0.027212614
000130 15 1b aa 3b 2a d8 d4 3d f7 a4 d2 bc 8b 71 9c 3d
       0.0051912167 0.103927925 -0.025713427 0.07638844
000140 46 1f 26 be f1 31 31 3d 39 a5 e6 3c 0c c2 01 bd
       -0.16222867 0.04326052 0.028154956 -0.0316792
000150 55 5a 0a 3c cc c7 7b 3d 4e 14 e3 3d 20 7f 53 bc
       0.008444388 0.061469838 0.11087857 -0.012908727
000160 ba 72 51 bd e7 91 63 3d 5e 34 86 3d 6e 01 d4 bd
       -0.051134802 0.055559065 0.06552957 -0.10351835
000170 da ea 23 3d de c9 3e bd de 89 8a 3c 10 da 90 3c
       0.040018894 -0.046579234 0.016911443 0.017682105
000180 7d 8d a3 bf 27 ea 78 bf aa 4f 9c bf 02 5e 73 bf
       -1.2777554 -0.9723229 -1.2211812 -0.9506532
000190 55 b6 7f bf 41 f8 8c bf 59 79 a0 bf 96 7b 49 bf
       -0.9988759 -1.1013261 -1.2537032 -0.787042
0001a0 86 8d 45 bf c8 8f ae bf 67 93 a2 bf 5c 41 8f bf
       -0.7716907 -1.3637629 -1.2701234 -1.1191821
0001b0 c0 4a 9c bf 83 84 a5 bf 42 75 66 bf 3d 9d 6b bf
       -1.2210312 -1.2931064 -0.9002267 -0.920368
0001c0 4d f4 6c bf 81 cb 26 bf aa 85 87 bf 6e 5e 7c bf
       -0.92560273 -0.6515427 -1.0587666 -0.9858159
0001d0 41 02 68 bf f1 6a 76 bf 97 3c 65 bf 7a 36 a9 bf
       -0.9062844 -0.9625693 -0.8954558 -1.321975
0001e0 15 de 82 bf 2f dc 97 bf c7 50 99 bf f2 55 9a bf
       -1.0224024 -1.186407 -1.1977776 -1.2057478
0001f0 15 5e 8f bf fb fc 8f bf 3e 7f 75 bf 55 a5 85 bf
       -1.1200587 -1.1249079 -0.9589728 -1.044108

fc.weight f4 [1, 32]
000000 7a 2d 47 bb 2a e4 51 ba ac c0 ed 3a e0 cd 15 3b
       -0.0030392096 -0.00080067164 0.0018139086 0.0022858307
000010 64 c8 48 3a 7a ac eb ba d1 70 c4 ba 39 0c 17 3c
       0.0007659255 -0.0017980479 -0.0014987235 0.009219223
000020 20 6b db 3b 7f bf 22 bc 56 b4 12 bb 08 9d 1a 39
       0.00669612 -0.009933352 -0.002238532 0.00014745083
000030 6a df 8c ba 9a 34 6f 3c 51 85 17 bb 67 42 2f 3c
       -0.0010747735 0.0145999435 -0.0023120234 0.010696984
000040 59 e9 8c 3c 4c df 21 bb 40 b4 b7 ba 6f d9 90 bc
       0.017201113 -0.0024699746 -0.0014015511 -0.017681805
000050 fb 12 3e 3c 5e ca ff bb 62 d3 db ba 2a 68 a5 ba
       0.011601205 -0.0078061065 -0.0016771371 -0.0012619544
000060 ab 57 8d bb bf 69 02 bc 97 80 83 3a 00 e1 ca ba
       -0.0043134294 -0.007959782 0.001003283 -0.0015478432
000070 c7 e4 56 bc 08 2d 5a 38 0d fe 4e 3b 91 76 7d be
       -0.013116068 5.201719e-05 0.0031584532 -0.2475226
