ml_models/lstm_products/forecast_model_lstm_Flour.pth (torch, 21421 bytes, 5 tensors)

lstm.weight_ih_l0 f4 [128, 1]
-0.15133491 0.3850931 0.08590213 -0.167879 0.18720034 -0.44385904 -0.08829562 -0.2509996
-0.16795047 -0.019803066 -0.28610063 -0.73651606 -0.2849346 0.09525341 0.03809874 -0.41302794
-0.3768119 -0.23926535 2.705502 -0.24707219 -0.32289714 -0.14836065 -0.18684125 -0.16591181
0.07592441 0.08074115 -0.6766831 -0.16823217 0.0214372 -0.09872221 -0.0714987 -0.33583844
0.04124369 0.0966708 -0.24931417 -0.28211057 -0.17734334 -0.10966112 0.03922121 -0.028360762
-0.29325226 0.10627078 -0.30152813 -0.3724187 -0.34347504 -0.3639023 -0.2426768 0.15816496
-0.10133354 -0.16092038 -0.040407643 0.08119229 0.059292696 -0.13720368 -0.07013465 0.1912848
-0.12066201 -0.0125955995 -0.16755314 -0.3133354 0.40691814 -0.21064733 0.009824378 -0.3386209
0.028229367 0.62327826 -0.27836826 0.051912155 -0.27486798 -0.12445062 -0.07093974 0.11818066
0.09097766 0.006888558 -0.035998974 -0.08025216 -0.0347939 0.55796593 0.021826845 0.014717621
-6.3656786e-05 0.13468984 -3.1697836 0.012778243 -0.27920496 0.17380537 0.050081283 0.02505922
0.05439512 0.15345621 -0.049335368 0.22371654 0.24120301 -0.06502394 0.0030187825 0.06224673
-0.013931845 0.13226472 0.17989121 -0.030351272 -0.09510555 -0.10823866 -0.14731912 -0.22737712
-0.103393875 -0.15000579 -0.031049408 -0.46126258 -0.22308171 -0.16356188 -0.023914594 -0.06263416
-0.15825863 -0.21738239 0.5890599 -0.21722361 -0.30229998 -0.14443623 -0.07152604 -0.18476191
0.038184542 -0.24051522 -0.6239365 -0.034178875 0.14449961 -0.016486604 -0.009583842 -0.24980283
00000000: 8af7 1abe ec2a c53e 75ed af3d 79e8 2bbe
00000010: 72b1 3f3e 7e41 e3be 56d4 b4bd 0583 80be
00000020: 35fb 2bbe 0a3a a2bc c87b 92be 518c 3cbf
00000030: f3e2 91be 3814 c33d 6d0d 1c3d 6678 d3be
00000040: 7ded c0be fa01 75be f226 2d40 7e00 7dbe
00000050: c652 a5be dbeb 17be 5053 3fbe c9e4 29be
00000060: 427e 9b3d 9e5b a53d 1b3b 2dbf 0e45 2cbe
00000070: 119d af3c df2e cabd e96d 92bd 04f3 abbe
00000080: 25ef 283d 57fb c53d 374c 7fbe cc70 90be
00000090: 7e99 35be 0296 e0bd 6ba6 203d d454 e8bc
000000a0: 2925 96be 7fa4 d93d e561 9abe aaad bebe
000000b0: f6db afbe 6751 babe 4480 78be fff5 213e
000000c0: f687 cfbd 50c8 24be 7c82 25bd 2548 a63d
000000d0: e6dc 723d 1f7f 0cbe c1a2 8fbd 2ae0 433e
000000e0: a51d f7bd c65d 4ebc 0d93 2bbe 7f6d a0be
000000f0: 9357 d03e efb3 57be 6ef6 203c b85f adbe
00000100: 4641 e73c 2a8f 1f3f 4986 8ebe d7a1 543d
00000110: 7fbb 8cbe f7df febd db48 91bd b408 f23d
00000120: 7f52 ba3d 6ab9 e13b a973 13bd 3f5b a4bd
00000130: 0c84 0ebd dbd6 0e3f 36ce b23c 2d22 713c
00000140: 7a7f 85b8 22ec 093e bcdd 4ac0 d65b 513c
00000150: f4f3 8ebe 09fa 313e 0822 4d3d fe48 cd3c
00000160: 6bcd 5e3d a023 1d3e e213 4abd f315 653e
00000170: ecfd 763e 452b 85bd c4d6 453b 6df6 7e3d
00000180: 6542 64bc 6770 073e 6735 383e 3ba3 f8bc
00000190: b3c6 c2bd 3bac ddbd d3da 16be 8cd5 68be
000001a0: 2bc0 d3bd 1e9b 19be 545b febc 9c2a ecbe
000001b0: 886f 64be c47c 27be 8ae8 c3bc 5746 80bd
000001c0: 8d0e 22be 7d99 5ebe a1cc 163f de6f 5ebe
000001d0: 10c7 9abe 17e7 13be 3f7c 92bd 3a32 3dbe
000001e0: 6567 1c3d 9f49 76be 4dba 1fbf 26ff 0bbd
000001f0: b5f7 133e ea0e 87bc 8c05 1dbc 50cc 7fbe

lstm.weight_hh_l0 f4 [128, 32]
-0.24838896 -0.20752618 -0.032762975 0.10768751 -0.20418483 -0.23377219 -0.16894735 -0.006884581
-0.1496173 -0.16029343 0.1084814 0.10005424 0.23292322 -0.06137805 0.20244332 0.43425116
0.0032719614 0.20091085 0.15766214 -0.1036357 -0.18155853 -0.23519768 0.062966526 0.09438263
0.06813748 -0.13930199 0.029195458 -0.081473604 -0.2547562 0.080893606 -0.10514262 0.40281394
0.06415553 -0.36862925 0.12913242 -0.034770068 0.05770308 -0.038243394 0.20592956 -0.12506074
0.23369573 0.032075245 0.2747892 -0.088054724 -0.15543061 -0.122740895 -0.12152953 0.17751148
0.11476794 0.024079116 0.10236261 -0.21715088 0.06775657 -0.052570228 0.17151147 0.11552223
-0.08002709 -0.08781879 -0.08415176 -0.1056846 -0.11265593 -0.21263917 0.22330007 -0.0766115
-0.1271112 -0.21430862 -0.046774253 0.1585282 -0.021683024 0.01475315 -0.16159163 0.20578627
0.03517193 -0.17573121 -0.032352053 -0.072874986 0.038020007 0.06883085 0.12857756 0.2613183
0.25766265 0.05540705 0.27495107 -0.17611901 -0.035905547 0.00941443 -0.1200694 -0.048439965
-0.10960041 0.025914686 0.070297964 0.0024049093 0.06257861 0.12265011 -0.029703764 0.19862956
-0.10268825 -0.03603945 0.09266703 0.25971478 -0.25642404 -0.014779193 -0.052107684 0.0877695
-0.060413983 -0.20652 -0.06818076 0.18707539 -0.0024993175 0.06345179 0.18907401 0.054009035
0.1494668 0.03320019 0.162803 -0.2159851 0.026615847 -0.032079335 0.14472608 -0.100812234
0.22394268 -0.09202268 0.07137605 -0.03755433 -0.025670508 0.059942372 0.037413247 0.12400832
-0.067997105 -0.14821672 -0.015054047 0.0990781 0.03066492 -0.19578438 -0.014959088 0.0681671
-0.14840963 -0.11129301 0.19682837 -0.075391665 -0.12650695 -0.11985797 0.20032963 0.3594267
0.44500569 0.23821001 0.04347674 -0.20932156 -0.015035384 -0.12146972 -0.10248277 -0.23024426
0.0055043683 -0.041441977 -0.22488976 -0.029287 0.034205444 -0.041232456 0.05962448 0.41777068
-0.17403412 -0.014583434 0.25984555 0.14901164 -0.16510755 -0.24873188 0.43932027 -0.27008453
0.08794378 -0.35742915 0.210036 -0.011216782 -0.23792672 -0.0020034865 -0.15692435 0.13937137
0.3563154 -0.06656141 0.11945774 -0.017585801 0.08822723 -0.12580878 -0.05595773 -0.009198864
-0.1763591 0.0135613615 -0.061983287 0.06640984 -0.07505876 -0.14837165 0.22894363 0.31422642
0.0155329015 0.05898185 0.09304007 0.18765412 -0.21640632 -0.17867278 0.16326602 0.055559076
-0.33131573 -0.028982917 0.6469072 0.35121223 -0.20347154 -0.18226261 0.19838636 -0.20978653
0.409038 0.049779184 0.20745905 0.06573265 -0.20146182 0.23799632 0.16884802 0.21386698
0.23162162 -0.015037678 -0.2450801 -0.09895016 -0.077674344 0.18704817 0.15531854 0.4777206
-0.17270434 -0.10903421 -0.22859515 0.084768854 -0.2731566 0.17481484 0.04959037 -0.16177772
-0.025804073 -0.24228339 0.17199627 0.15721872 -0.07937663 -0.21877626 0.111311495 0.32207438
0.18616165 -0.007072435 0.34385857 -0.040929954 -0.033602875 -0.025769247 0.08712679 0.031313464
0.249411 0.03408267 -0.2093346 -0.097130224 -0.07176973 0.009555139 0.04377237 -0.18111557
00000000: ad59 7ebe be81 54be 7832 06bd 458b dc3d
00000010: d415 51be fa61 6fbe 8900 2dbe 0d98 e1bb
00000020: 4735 19be f623 24be 7f2b de3d 3de9 cc3d
00000030: 6d83 6e3e 8d67 7bbd 4d4d 4f3e 2b56 de3e
00000040: 676e 563b 93bb 4d3e 2f72 213e f43e d4bd
00000050: 7bea 39be a9d7 70be 98f4 803d ae4b c13d
00000060: aa8b 8b3d 2ea5 0ebe 502b ef3c a2db a6bd
00000070: 686f 82be 8cab a53d 0455 d7bd a13d ce3e
00000080: f963 833d f9bc bcbe 4a3b 043e 0f6b 0ebd
00000090: 115a 6c3d 1ba5 1cbd 33df 523e ec0f 00be
000000a0: ef4d 6f3e 5561 033d 2cb1 8c3e 0956 b4bd
000000b0: 3429 1fbe 945f fbbd 79e4 f8bd 92c5 353e
000000c0: 740b eb3d 9141 c53c 7da3 d13d cd5c 5ebe
000000d0: f5c3 8a3d e153 57bd b4a0 2f3e eb96 ec3d
000000e0: 3ee5 a3bd 56da b3bd c257 acbd 2b71 d8bd
000000f0: 27b8 e6bd 15be 59be c6a8 643e 7de6 9cbd
00000100: 7029 02be b873 5bbe 5c96 3fbd 3755 223e
00000110: 99a0 b1bc 32b7 713c 4778 25be a3b9 523e
00000120: 7110 103d e2f2 33be 9683 04bd 7b3f 95bd
00000130: deba 1b3d 30f7 8c3d d6a9 033e 83cb 853e
00000140: 5cec 833e 81f2 623d 63c6 8c3e 8b58 34be
00000150: b211 13bd fb3e 1a3c f2e6 f5bd fc68 46bd
00000160: 2e76 e0bd 094b d43c 61f8 8f3d af9b 1d3b
00000170: 3729 803d fb2f fb3d 4f55 f3bc 8c65 4b3e
00000180: 384e d2bd 1a9e 13bd 36c8 bd3d 56f9 843e
00000190: 034a 83be 6e24 72bc de6e 55bd 7fc0 b33d
000001a0: a774 77bd fb79 53be 5ba2 8bbd b190 3f3e
000001b0: 97cb 23bb 03f3 813d 9e9c 413e 9438 5d3d
000001c0: d30d 193e ecfc 073d d4b5 263e 332b 5dbe
000001d0: 7a09 da3c 9f65 03bd 1333 143e a576 cebd
000001e0: 3b51 653e 6376 bcbd 9b2d 923d 92d2 19bd
000001f0: f54a d2bc 2286 753d a23e 193d 13f8 fd3d
00000200: 1142 8bbd 20c6 17be 40a5 76bc 75e9 ca3d
00000210: 0035 fb3c b37b 48be f616 75bc 319b 8b3d
00000220: b2f8 17be 97ed e3bd 608d 493e f266 9abd
00000230: 0a8b 01be 1878 f5bd 3623 4d3e c706 b83e
00000240: c9d7 e33e 53ed 733e ab14 323d 6458 56be
00000250: f956 76bc 1ec5 f8bd 7de2 d1bd 27c5 6bbe
00000260: fd5d b43b 10bf 29bd 8049 66be 4aeb efbc
00000270: 021b 0c3d 5de3 28bd cc38 743d 0ae6 d53e
00000280: 0036 32be 5bef 6ebc 7a0a 853e 8296 183e
00000290: f411 29be 92b3 7ebe 96ee e03e 8548 8abe
000002a0: de1b b43d f400 b7be ad13 573e 98c6 37bc
000002b0: 10a3 73be ed4c 03bb c7b0 20be 5eb7 0e3e
000002c0: f96e b63e 5951 88bd 42a6 f43d 1910 90bc
000002d0: 7ab0 b43d 04d4 00be ef33 65bd d5b6 16bc
000002e0: 7b97 34be 7930 5e3c 30e2 7dbd e201 883d
000002f0: 68b8 99bd bdee 17be 3370 6a3e 49e2 a03e
00000300: b67d 7e3c f496 713d cb8b be3d 6728 403e
00000310: 9e99 5dbe fff5 36be 352f 273e ea91 633d
00000320: 37a2 a9be 956d edbc b69b 253f 17d2 b33e
00000330: d85a 50be 0da3 3abe cb25 4b3e 48d2 56be
00000340: 6e6d d13e 42e5 4b3d 2570 543e d79e 863d
00000350: 024c 4ebe 4fb5 733e 7fe6 2c3e f2ff 5a3e
00000360: 382e 6d3e 9860 76bc 47f6 7abe 62a6 cabd
00000370: ba13 9fbd 8e89 3f3e d30b 1f3e cb97 f43e
00000380: 68d9 30be 544d dfbd d914 6abe 4b9b ad3d
00000390: 2fdb 8bbe a902 333e 461f 4b3d 0fa9 25be
000003a0: 1063 d3bc 2319 78be ca1f 303e f2fd 203e
000003b0: 3790 a2bd e206 60be 48f7 e33d efe6 a43e
000003c0: 29a1 3e3e e3bf e7bb 3b0e b03e 2ba6 27bd
000003d0: 2ba3 09bd 071a d3bc 886f b23d 8c42 003d
000003e0: 9965 7f3e 459a 0b3d cf5b 56be 36ec c6bd
000003f0: 02fc 92bd 288d 1c3c a84a 333d 5c76 39be

lstm.bias_ih_l0 f4 [128]
-1.0784708 -0.5670008 -0.83781207 -0.8520561 -1.0157214 -0.6739599 -0.9234044 -0.706463
-1.1446627 -0.887698 -0.8537929 -0.9068678 -0.68759346 -0.7815084 -0.78155625 -0.90174955
-0.6161532 -0.606539 -0.64306927 -0.7737443 -0.49915168 -0.75559765 -0.86176413 -0.8361716
-1.0357937 -1.2536378 -0.94326866 -1.0021791 -0.85982275 -1.0324599 -1.0489326 -0.81017876
-0.7896215 -0.48218983 -0.52702975 -0.5922684 -0.45991027 -0.6631613 -0.7531524 -0.42605576
-0.68024963 -0.59787154 -0.7467541 -0.5839762 -0.52954894 -0.7295095 -0.5109877 -0.5608256
-0.5080678 -0.3536756 -0.36161792 -0.7800847 -0.28383487 -0.44796002 -0.41955426 -0.5621294
-0.46534398 -0.77609223 -0.5289228 -0.6723779 -0.65191174 -0.7618257 -0.6960828 -0.8000216
-0.11672592 -0.002348193 -0.09333152 -0.008845154 0.10537765 0.1074844 -0.1378786 0.0957554
0.12527603 0.1075931 0.15195473 0.013440079 -0.001213717 -0.02003804 0.11808977 0.013422579
-0.08690152 -0.019645026 0.028570134 -0.03005384 -0.042976893 0.099070944 0.066661835 -0.020043323
-0.09459813 -0.10848711 0.069524735 -0.037198484 -0.11862269 0.07641565 -0.037775718 -0.04964175
-0.90995276 -0.62631667 -0.82503045 -0.9818373 -0.8641147 -0.9412625 -0.97650117 -0.8280576
-1.1182426 -0.93200445 -0.90555054 -0.87686986 -0.6329382 -0.6412118 -0.77185357 -0.98347586
-0.8081893 -0.64602715 -0.7425403 -0.735121 -0.7639511 -0.6649068 -0.7111548 -0.9172408
-1.0617706 -1.2651415 -0.9132007 -0.98508567 -0.9842627 -1.0106965 -1.0682056 -0.815185
00000000: 550b 8abf f726 11bf da7a 56bf 5920 5abf
00000010: 2903 82bf a388 2cbf 3b64 6cbf c2da 34bf
00000020: 4f84 92bf 2d40 63bf 2c92 5abf 7d28 68bf
00000030: 2006 30bf ef10 48bf 1214 48bf 0fd9 66bf
00000040: 37bc 1dbf 2446 1bbf 30a0 24bf 1b14 46bf
00000050: cf90 ffbe d96e 41bf 939c 5cbf 580f 56bf
00000060: e394 84bf 3477 a0bf 0e7a 71bf 6847 80bf
00000070: 581d 5cbf a527 84bf 6c43 86bf e067 4fbf
00000080: a224 4abf 96e1 f6be 6ceb 06bf e79e 17bf
00000090: 5c79 ebbe f0c4 29bf 98ce 40bf fb23 dabe
000000a0: d724 2ebf 1c0e 19bf 472b 3fbf 777f 15bf
000000b0: 8590 07bf 22c1 3abf 17d0 02bf 4492 0fbf
000000c0: bb10 02bf f814 b5be fc25 b9be a2b3 47bf
000000d0: ce52 91be 045b e5be d1cf d6be b6e7 0fbf
000000e0: 9141 eebe fbad 46bf 7c67 07bf f520 2cbf
000000f0: b0e3 26bf 0207 43bf 7b32 32bf 37ce 4cbf
00000100: 000e efbd 24e4 19bb 9924 bfbd 44eb 10bc
00000110: 3dd0 d73d c820 dc3d 0c30 0dbe 681b c43d
00000120: 5c48 003e c559 dc3d 059a 1b3e c733 5c3c
00000130: 9615 9fba d126 a4bc 0dd9 f13d 60ea 5b3c
00000140: 6df9 b1bd 9bee a0bc ea0b ea3c 7833 f6bc
00000150: 8a08 30bd b5e5 ca3d 0086 883d e531 a4bc
00000160: aabc c1bd 7d2e debd fc62 8e3d 705d 18bd
00000170: 74f0 f2bd cf7f 9c3d b6ba 1abd 2655 4bbd
00000180: aaf2 68bf 4a56 20bf 3235 53bf b059 7bbf
00000190: 9f36 5dbf 94f6 70bf fbfb 79bf 95fb 53bf
000001a0: 9322 8fbf d897 6ebf 29d2 67bf 8b7a 60bf
000001b0: 3d08 22bf 7526 24bf 3298 45bf 13c5 7bbf
000001c0: 7ee5 4ebf 0962 25bf 1f17 3ebf e430 3cbf
000001d0: 4d92 43bf 5537 2abf 3e0e 36bf 4bd0 6abf
000001e0: 19e8 87bf 28f0 a1bf 85c7 69bf 932e 7cbf
000001f0: a4f8 7bbf 815e 81bf f6ba 88bf f7af 50bf

lstm.bias_hh_l0 f4 [128]
-0.93213975 -0.44841602 -0.9545591 -1.047593 -0.8511889 -0.94117916 -0.93227226 -0.70730656
-1.0832111 -0.7157202 -0.9533955 -0.94984806 -0.5079895 -0.8706557 -0.91104126 -0.9165954
-0.7300908 -0.6171882 -0.64480084 -0.8437884 -0.5872847 -0.93324816 -0.7983897 -0.9317478
-0.8679684 -1.0878506 -0.92641413 -1.0428771 -1.0639237 -1.1147296 -1.0159025 -1.0748639
-0.6345154 -0.45600227 -0.67220527 -0.46491808 -0.73500043 -0.5438447 -0.5911624 -0.48568478
-0.8189796 -0.57068795 -0.4926041 -0.54192775 -0.34002608 -0.45113057 -0.47438878 -0.7939639
-0.6186116 -0.40198505 -0.3632323 -0.55911493 -0.3742836 -0.7156247 -0.47602996 -0.7703513
-0.52122146 -0.6967352 -0.5389078 -0.6321571 -0.80390334 -0.704879 -0.63328165 -0.72393435
0.11691364 0.00089531654 0.092837185 0.009222409 -0.105204135 -0.10747201 0.13802937 -0.095534585
-0.12572119 -0.10778301 -0.15172389 -0.013623475 0.0012248361 0.021456704 -0.1180152 -0.013362845
0.08708004 0.019278778 -0.04939484 0.030098941 0.043134153 -0.09842884 -0.0665055 0.01984019
0.09483591 0.109048195 -0.06922158 0.038137656 0.11866758 -0.07639424 0.037689436 0.04965295
-0.97246283 -0.5255245 -0.96888614 -0.9894918 -0.91906303 -0.85120285 -1.0384731 -0.71793824
-1.1010201 -0.71967024 -1.005267 -0.97652656 -0.5852216 -0.8989164 -1.0046477 -0.93019986
-0.8530001 -0.7267149 -0.71562564 -0.95015836 -0.47985637 -0.8146 -0.72836447 -1.0047834
-0.96400756 -0.96907145 -0.98965997 -1.0163924 -0.8913595 -1.0334003 -0.9083523 -0.9710608
00000000: b6a0 6ebf c996 e5be fc5d 74bf 8717 86bf
00000010: 84e7 59bf 1ef1 70bf 65a9 6ebf 0b12 35bf
00000020: a9a6 8abf 7039 37bf ba11 74bf 3e29 73bf
00000030: 9a0b 02bf 4be3 5ebf 003a 69bf ffa5 6abf
00000040: 3be7 3abf 0c00 1ebf ab11 25bf 8402 58bf
00000050: 4a58 16bf 5ae9 6ebf 4463 4cbf 0687 6ebf
00000060: 2d33 5ebf b03e 8bbf 7a29 6dbf ff7c 85bf
00000070: a72e 88bf 76af 8ebf 1809 82bf 2495 89bf
00000080: 9a6f 22bf 2179 e9be a515 2cbf be09 eebe
00000090: fd28 3cbf 6839 0bbf 6b56 17bf adab f8be
000000a0: a6a8 51bf 9b18 12bf 9b36 fcbe c7bb 0abf
000000b0: e617 aebe 96fa e6be 16e3 f2be 3841 4bbf
000000c0: 545d 1ebf fcd0 cdbe 96f9 b9be 2822 0fbf
000000d0: 1aa2 bfbe 2e33 37bf 33ba f3be be35 45bf
000000e0: c56e 05bf 3d5d 32bf ddf5 09bf 0cd5 21bf
000000f0: 9ccc 4dbf f372 34bf bf1e 22bf c353 39bf
00000100: 6b70 ef3d adb3 6a3a 6c21 be3d 9619 173c
00000110: 4475 d7bd 491a dcbd 9257 0d3e a3a7 c3bd
00000120: 0ebd 00be 57bd dcbd 825d 1bbe ff34 5fbc
00000130: ae8a a03a f8c5 af3c f4b1 f1bd d6ef 5abc
00000140: 0557 b23d 87ee 9d3c 3e52 4abd 0e92 f63c
00000150: 70ad 303d 0f95 c9bd 0934 88bd e587 a23c
00000160: 5439 c23d a954 df3d 0bc4 8dbd 3b36 1c3d
00000170: fd07 f33d 9574 9cbd 3d60 1a3d e460 4b3d
00000180: 53f3 78bf c688 06bf ec08 78bf 564f 7dbf
00000190: b747 6bbf 6ee8 59bf b0ec 84bf cdca 37bf
000001a0: 3aee 8cbf 4f3c 38bf 97ac 80bf a5fd 79bf
000001b0: 15d1 15bf 631f 66bf 4c98 80bf 9421 6ebf
000001c0: 375e 5abf fd09 3abf 3e33 37bf 943d 73bf
000001d0: bcaf f5be a089 50bf 1876 3abf be9c 80bf
000001e0: 33c9 76bf 1115 78bf 5b5a 7dbf 2519 82bf
000001f0: 2330 64bf 7646 84bf c789 68bf 7197 78bf

fc.weight f4 [1, 32]
0.001179254 -0.005276382 0.0010513972 0.00022188433 -0.00036875604 0.00071581284 0.0018888663 -0.0007352231
0.0007818254 0.001170559 0.001412541 0.0005592842 -0.00024187447 -0.0063734627 -0.0010971953 -0.00034101342
-6.212616e-05 -0.00088173314 0.06469905 0.00033949487 2.9613959e-05 0.00030582462 0.00029919413 0.00012712591
-0.001190611 -0.0020141264 0.00010051088 0.00066552695 -0.0017398191 -0.00088297477 0.0013609156 -0.0014450205
00000000: 3391 9a3a 80e5 acbb 09cf 893a 9fa9 6839
00000010: 9955 c1b9 63a5 3b3a d693 f73a fdbb 40ba
00000020: 6af3 4c3a 716d 993a 0325 b93a ed9c 123a
00000030: af9f 7db9 7bd8 d0bb c4cf 8fba 0cca b2b9
00000040: ba49 82b8 1c24 67ba ef80 843d 3bfe b139
00000050: 7e6b f837 1657 a039 28dd 9c39 1a4d 0539
00000060: 470e 9cba 6fff 03bb 5ec9 d238 c276 2e3a
00000070: a40a e4ba 6f77 67ba c060 b23a d866 bdba
