ml_models/lstm_products/forecast_model_lstm_Rice.pth (torch, 21409 bytes, 5 tensors)

lstm.weight_ih_l0 f4 [128, 1]
000000 2e d5 a2 be 37 5c 1f 3f eb c2 f7 3f 9e b9 4d 3e
       -0.31803268 0.62250084 1.9356359 0.20090339
000010 5a 37 80 bf f5 64 a5 bf c9 35 50 bf f6 00 15 bf
       -1.0016892 -1.2921435 -0.8133207 -0.5820459
000020 29 04 fd be 26 3a 76 bf 0f cd 6c 3f 1f 91 bc bd
       -0.49417236 -0.9618248 0.92500395 -0.09207367
000030 b7 f8 c1 bf e9 15 be be 22 9d 21 bf 86 2e 32 bf
       -1.5154027 -0.3712609 -0.6313039 -0.6960224
000040 70 4a 1a bd c6 71 83 3e 74 3b 53 bf f2 4d d4 be
       -0.037668645 0.2567274 -0.82512593 -0.41465718
000050 c5 9c 1c bf 11 06 11 bf 2e 1a 2e bf ce 7d 74 3f
       -0.6117671 -0.5664988 -0.680087 0.9550446
000060 1a da 16 bf e5 b5 e6 be 16 65 1e 3c b5 96 f2 be
       -0.58926547 -0.4506065 0.009667655 -0.47380605
000070 b0 87 92 3e dd 89 61 be c6 12 3f bf ad e6 2e bf
       0.28619146 -0.22025247 -0.7463802 -0.68320733
000080 b3 87 45 be 8d 04 97 3e c3 a9 e4 bf 46 8b c9 3d
       -0.19290046 0.2949566 -1.7864307 0.098410174
000090 19 99 54 bf 42 c7 3f bf c9 e7 62 bf a5 55 90 be
       -0.8304611 -0.7491342 -0.88634926 -0.28190342
0000a0 ec e0 af be e9 07 3d bf 57 14 00 3f bc f6 52 be
       -0.3435129 -0.73840195 0.50031036 -0.20601934
0000b0 7e 07 4f bf 3a cd cc be a7 ea b3 bf 2b dd cb be
       -0.8087081 -0.40000325 -1.4055985 -0.39817175
0000c0 b2 b4 1e be 7c 15 6d be 6b 3e 4a bf ee 5a 98 bd
       -0.15498617 -0.23152727 -0.7900149 -0.074392185
0000d0 49 39 1b be 07 4b ca be 54 51 1b bf 22 3e c5 be
       -0.15158571 -0.39510366 -0.6067097 -0.38523966
0000e0 4a 2d 54 bf 94 d4 01 bf 79 82 fd bd 1d bd 8b be
       -0.82881606 -0.50714993 -0.12378401 -0.2729272
0000f0 1c 92 76 bf c8 27 19 bf 28 8a a9 be 4b dc 12 bf
       -0.96316695 -0.59826326 -0.33113217 -0.5736739
000100 a7 de cc be 50 03 d2 bf ac 17 74 40 2d 84 eb 3e
       -0.4001362 -1.6407261 3.8139448 0.4599928
000110 33 25 0f bf 61 df 22 be 92 d9 f8 3c bd fe 57 be
       -0.55916137 -0.15905525 0.030377183 -0.21093269
000120 34 70 6d 3e 78 50 e3 be 98 12 8b bf d3 ae 10 3e
       0.23187333 -0.4439733 -1.0865049 0.1412919
000130 a6 06 98 be 08 0c 17 bf fc 27 70 3f b5 87 11 3d
       -0.29692572 -0.59002733 0.9381101 0.03552981
000140 3b 63 e4 be de 08 34 bf a7 a5 8b be 9a f3 e2 3e
       -0.44606957 -0.7032603 -0.2727482 0.44326478
000150 8d 56 d3 3d 30 6d 95 3e 8d 2b 13 3f 8c 75 bf bf
       0.103192426 0.29184866 0.5748833 -1.4957747
000160 b5 34 be be b4 c3 a0 3e 40 d3 ca be eb c1 8e 3d
       -0.37149587 0.3139931 -0.39614296 0.06970581
000170 a1 ec 68 3f fa 00 18 be 4c 4a 80 3d 96 1e ae bd
       0.9098607 -0.14844123 0.06264171 -0.085019276
000180 62 fb c5 be 1c 64 46 3f 65 06 26 3f ac fa 0b 3e
       -0.38668352 0.77496505 0.6485351 0.13669842
000190 1e 21 90 bf 2f 09 69 bf 58 f0 35 bf b1 02 2f bf
       -1.1260107 -0.9102964 -0.7106986 -0.6836348
0001a0 38 4a 40 bf 0a 3d 20 bf 76 b7 06 3f cb 06 41 be
       -0.7511325 -0.6259314 0.5262369 -0.18850248
0001b0 5e b0 45 bf b7 1c c9 be e8 43 f8 be 5f 0d 1a bf
       -0.7722224 -0.3927972 -0.48489308 -0.6017665
0001c0 29 bd 0f 3e bc 92 5d 3c 82 ff 2a bf e0 0a 27 bf
       0.14037003 0.013523754 -0.66796124 -0.6525097
0001d0 28 29 20 be 6c 50 0f bf e0 10 7a bf b2 49 3d be
       -0.156407 -0.5598209 -0.97682 -0.18485144
0001e0 f5 a1 22 bf 13 7f 2e bf fa eb 9f bd 90 0a af be
       -0.63528377 -0.6816265 -0.07808681 -0.34187746
0001f0 9d 5b d6 bd 3b 6b ab be c8 65 4f bf 6c 77 59 bf
       -0.104666926 -0.33480248 -0.8101468 -0.8494785

lstm.weight_hh_l0 f4 [128, 32]
000000 5d 19 32 3d e3 d7 5a 3e 56 6b 04 3e 8d c4 8a be
       0.04348122 0.21371417 0.1293157 -0.2710308
000010 ee ad 95 bc 59 35 ad bc 73 54 30 bd da 9e ef bd
       -0.018271413 -0.021143602 -0.043049287 -0.117002204
000020 6c 48 01 be 69 43 19 be 28 d9 6e 3e 65 f0 4e bb
       -0.12625283 -0.14967121 0.23325026 -0.0031576392
000030 96 d6 c2 bc 9b 98 04 3e aa 07 09 be 6c 14 b8 bd
       -0.023783963 0.1294884 -0.1338183 -0.0898827
000040 ce 01 69 3e a4 21 01 be 94 21 17 3e 31 78 45 bd
       0.22754595 -0.12610489 0.14758903 -0.048210327
000050 3d 73 82 3d 2f 6a 6b 3c 06 4e ce 3d ec 08 a3 bd
       0.06369636 0.014368578 0.100734755 -0.07960686
000060 b7 80 83 bd 87 e5 11 bc 99 0b 02 3e 1b 55 03 3e
       -0.06421035 -0.008904821 0.12699737 0.12825434
000070 90 68 86 3e 73 d6 28 bd 2a dc b0 bd 9c 01 ad 3d
       0.2625165 -0.04122014 -0.08635743 0.084475726
000080 99 b0 dd bb 7c 46 4a bd 37 dd 14 3d 57 2e c4 be
       -0.006765437 -0.049383625 0.03634378 -0.38316604
000090 50 66 37 be 2e a5 d9 3d a9 bb 8f 3c 94 67 1c 3d
       -0.17910123 0.10627209 0.017545538 0.038184717
0000a0 3d a1 fd 3b 7c b2 3d be 0f 5d df 3e 63 7e 94 bd
       0.0077401684 -0.18525118 0.43625686 -0.07250669
0000b0 ef e2 1b 3e bd f1 3a 3e f0 94 2c 3d 66 c2 8c bd
       0.15223287 0.18256278 0.042134225 -0.06873016
0000c0 92 33 08 3e 9d dc aa 3e a0 5b 34 be 9c 39 fe 3b
       0.13300923 0.3337144 -0.17613077 0.0077583324
0000d0 1d e6 c6 3b be 88 cb 3d 15 02 7e 3d 77 fe 6e 3e
       0.006069912 0.09938191 0.062013704 0.23339258
0000e0 fc f9 e1 3d 83 86 19 bd bd ba 8b 3e b7 5a 57 3d
       0.11034009 -0.037481796 0.27290908 0.052576747
0000f0 68 42 9e bb b2 ee 7d 3e 9a 16 70 be 2c 3f 10 3e
       -0.0048296936 0.24798086 -0.23446122 0.14086598
000100 22 35 b0 3e 53 85 d4 3d 83 94 c9 be 20 45 90 be
       0.34415537 0.10376992 -0.39371118 -0.28177738
000110 1a 2a 17 3d ea fa 98 bd 8f 84 35 3e b2 11 9b be
       0.036905386 -0.07469733 0.17726348 -0.30286938
000120 29 e8 09 be 3b ba 53 be 7a 11 5b 3e 8c eb 12 be
       -0.13467468 -0.2067651 0.21393386 -0.14347667
000130 4e bf 89 3e 59 7e fd 3d 90 fa 4b bd ee 46 a6 3d
       0.26903766 0.123776145 -0.049799502 0.081189975
000140 56 52 01 3d e1 5d a2 3a 3e af 4d 3e 14 b3 8f be
       0.031572662 0.0012387597 0.20086381 -0.28066313
000150 f9 60 0c be 40 32 5e be 93 f4 1e 3e cc 8d e0 3e
       -0.13708867 -0.21698856 0.15522985 0.43858182
000160 bb 7e 1f 3d 9d bd d4 3d a9 a5 80 3d 3f 9a 69 be
       0.03893922 0.10387728 0.06281597 -0.22812746
000170 6a 19 f7 be 7e 5f 30 3d a4 2a 00 bd f1 25 9c bd
       -0.48261577 0.04305982 -0.031290665 -0.07624424
000180 ae 5c a2 be 20 b1 b6 3e 3e 35 4d bc e1 29 f8 be
       -0.31711334 0.3568201 -0.012524901 -0.4846945
000190 bc 6d 8c be f4 fa bb bd 5a 01 8e 3d e1 68 25 3e
       -0.2742747 -0.09178725 0.069338515 0.1615329
0001a0 eb 10 72 bd 16 5d 0e be e2 d6 f3 3e e0 0c 4d be
       -0.059098165 -0.13902697 0.4762488 -0.20024443
0001b0 8d 17 ac 3d f0 68 91 bd 24 e3 ca bd 42 b4 93 be
       0.084029295 -0.07100093 -0.09906605 -0.28848463
0001c0 c9 c6 e5 3e 3c 14 06 bd 15 3a cb bd 1b 11 ea bd
       0.44878224 -0.03273414 -0.09923188 -0.11429044
0001d0 36 e0 43 bc 1a fe 55 be 68 2a 57 3d b8 17 5d 3e
       -0.0119553115 -0.20897713 0.052530676 0.21591079
0001e0 61 96 9f 3e a2 2b 3d 3e aa a3 9f 3e 26 11 86 3e
       0.31169418 0.18473676 0.31179553 0.26184958
0001f0 37 4b 8f 3d 99 60 ec 3d 76 bc dd bc 29 af ce bb
       0.06996768 0.11541862 -0.027067404 -0.006307502
000200 66 e7 ab 3d bb 76 4c be 8b bb b5 3d a7 1d 30 be
       0.08393745 -0.19967167 0.088736616 -0.17198811
000210 5e bb bd bd 04 3c 57 3e 15 6a 95 3d ae 81 92 3d
       -0.09264253 0.21018988 0.07295624 0.07153641
000220 aa fd 86 ba de 87 5b bd 63 85 16 3e 27 95 b5 bd
       -0.0010298986 -0.05359637 0.1469932 -0.08866339
000230 77 c6 b3 3d c9 47 f9 3b e2 3f 48 3e 0a 48 91 3d
       0.087780885 0.0076074344 0.1955562 0.070938185
000240 42 d3 cd 3d 39 51 98 bd c9 30 0a 3e fa 33 ae 3d
       0.1005006 -0.07437367 0.13495173 0.085060075
000250 42 ef e9 bd 15 83 9d bd 94 0a b0 3d 98 a6 37 bc
       -0.11422588 -0.076910175 0.085957676 -0.011209153
000260 75 44 65 3e 0b f7 51 3e df d6 16 bd ad cf 0d 3e
       0.22389396 0.20504396 -0.03682601 0.13848753
000270 05 5a bf bd 10 3e 09 3e 82 7c 53 3d 15 95 6f 3d
       -0.09343342 0.13402581 0.05163241 0.058491785
000280 0c 57 9c bd e7 7c 96 3d c7 a7 15 bd db 02 07 bd
       -0.076337904 0.07348042 -0.036536958 -0.032961708
000290 a2 b8 00 be 40 da a8 bd 9c fe 72 3e 42 b0 cf bd
       -0.12570432 -0.08244753 0.23729938 -0.101410404
0002a0 95 9a 36 be 90 e5 66 bd 90 66 67 3e 7e 2c 0b 3b
       -0.17832406 -0.05637127 0.22597718 0.0021236236
0002b0 17 2c 76 3d ea 5a 54 bd 22 4a 0b 3e a0 cf fd bd
       0.06010064 -0.051844515 0.13602498 -0.12393117
0002c0 30 9b ae 3d be 89 2d 3e 4a 8d f8 3d a8 d2 fd bb
       0.085256934 0.16947076 0.12136324 -0.0077460594
0002d0 d9 1d fd bd 0a 01 1a be 76 92 56 3d 9e cc 9d bd
       -0.123592086 -0.15039459 0.05238577 -0.07705043
0002e0 ea ab 67 bc 44 49 af 3d 96 6f 27 be 13 e3 87 3d
       -0.014140109 0.08558896 -0.1635116 0.06635108
0002f0 9d 09 d1 3d d3 fc bc 3d 12 e2 6c bd 00 64 95 3d
       0.10206912 0.0922791 -0.057832785 0.07294464
000300 27 45 f1 3d 70 d7 17 bd 06 51 9f 3d 44 32 02 be
       0.11780768 -0.03707069 0.07779126 -0.12714487
000310 47 7b f6 3d e6 a5 89 3c c4 fc 70 3e 5e a9 34 3d
       0.12035232 0.01680274 0.23533922 0.044106834
000320 9c ad df 3c 5f 07 c4 3d ab 65 03 3e 6c 89 68 3d
       0.027304463 0.095717184 0.12831752 0.05677168
000330 f6 19 81 3e 3b 57 f5 3c a6 5f d6 3d c5 df f3 bc
       0.2521512 0.029948821 0.10467462 -0.029769788
000340 ca 6f 07 bc 6f 52 73 be e6 50 ba 3d c1 3f c2 bd
       -0.008266399 -0.23761915 0.090974614 -0.09484816
000350 ff b7 25 3d 44 91 8a be eb ca e3 bd bc 91 fb 3d
       0.040458675 -0.27063954 -0.11122688 0.12283656
000360 70 51 6e bd a0 e9 47 bd 81 b5 5c bd 7e f4 5c bd
       -0.058183134 -0.048806787 -0.053884033 -0.053944103
000370 7a 77 ef 3d 3f de f6 3d d3 ec c7 3e fa 35 5a 3e
       0.1169271 0.12054109 0.3904787 0.21309653
000380 5b 5b ea 3c 3a c4 de 3c 5c 10 63 bd 2e 82 30 be
       0.028608015 0.027193177 -0.055435523 -0.1723716
000390 bf 07 94 be 27 b0 5a 3e 54 40 43 3e 16 b7 2b be
       -0.2891216 0.2135626 0.19067508 -0.1676906
0003a0 f5 36 90 bd bc 47 16 3c 52 74 b0 3e 4d 25 f5 3c
       -0.07041732 0.009172376 0.34463745 0.029925013
0003b0 f3 ea 6b 3e d1 4b 4d 3e 58 28 81 bd 6a d0 c9 3d
       0.23038845 0.20048453 -0.06306523 0.09854205
0003c0 4e 8b 55 3d a1 4b 23 3d 6f 49 37 be 2c 15 34 3d
       0.052134804 0.039867047 -0.17899106 0.043965504
0003d0 0e 8a f6 bd a3 53 4a 3c 05 18 5a 3e 86 6c 20 3e
       -0.120380506 0.012349042 0.21298225 0.15666398
0003e0 95 cb 80 bd 02 6c c6 3d dc 78 22 bc 74 ad b4 3d
       -0.0628883 0.096885696 -0.00991651 0.08822146
0003f0 70 ce 5f 3e 0d 4a b7 3d d3 b3 05 3e 21 2c 79 bc
       0.21856093 0.08949671 0.13056879 -0.015208275

lstm.bias_ih_l0 f4 [128]
000000 e6 59 c6 be 4a b5 37 bf ab be a4 bf ca b9 44 bf
       -0.38740462 -0.71761 -1.2870687 -0.7684599
000010 f9 10 41 bf 9d 0a ee be 68 7c 5c bf 32 3a 6c bf
       -0.75416523 -0.46492472 -0.8612733 -0.922763
000020 83 ba 32 bf 8b c5 1a bf c2 4c 31 bf 44 c3 4a bf
       -0.69815844 -0.60457677 -0.6925775 -0.792042
000030 06 3a 06 bf 0a 24 67 bf cb 43 78 bf b1 62 1d bf
       -0.52432287 -0.90289366 -0.96978444 -0.61478716
000040 c9 fa 71 bf f3 e9 4b bf ad 35 2a bf a7 43 25 bf
       -0.9452329 -0.79653853 -0.6648815 -0.64556354
000050 af dc d5 be 7e af 07 bf 06 05 05 bf 2c 79 a0 bf
       -0.4176993 -0.53002155 -0.5196079 -1.2536979
000060 07 48 11 bf c9 0a 4f bf d3 0c 2a bf 17 ad 78 bf
       -0.5675053 -0.8087583 -0.6642582 -0.97139114
000070 f8 01 64 bf 0d d2 33 bf e2 a4 81 bf 3e 61 2f bf
       -0.89065504 -0.7024239 -1.0128443 -0.68507755
000080 48 b9 b2 be c8 1c fd be 1f 28 19 bf 28 a1 0e bf
       -0.34906983 -0.4943602 -0.59826845 -0.55714655
000090 c6 fc 97 be 59 9e a6 be 4c a0 12 bf e5 57 0f bf
       -0.29685038 -0.32542685 -0.57275844 -0.5599349
0000a0 c8 37 a9 be 02 75 26 bf d5 bb cc be 39 78 e1 be
       -0.3305037 -0.6502229 -0.39987054 -0.44037035
0000b0 e5 9d 97 be f2 61 d1 be aa 67 0e bf 66 2c 20 bf
       -0.2961265 -0.4089504 -0.5562693 -0.62567747
0000c0 4d 3d 0b bf 34 d1 45 bf ca 1d c5 be fd 6b 0f bf
       -0.5439041 -0.77272344 -0.3849929 -0.5602415
0000d0 72 62 bb be 95 90 0b bf 14 b4 f1 be a2 b4 15 bf
       -0.36598545 -0.5451749 -0.472077 -0.5847875
0000e0 42 fb 36 bf d0 6d 27 bf 45 5e 12 bf 81 75 fc be
       -0.7147714 -0.65401936 -0.57175094 -0.49308398
0000f0 76 c0 33 bf b6 76 28 bf d5 29 15 bf 46 e1 26 bf
       -0.7021555 -0.6580614 -0.58266956 -0.6518749
000100 81 3a b1 3c 72 72 4b bd b8 7d 9e bd 26 c5 20 3e
       0.021634342 -0.04966969 -0.07738823 0.15700206
000110 f6 cf 95 bc f5 21 a3 3c e7 d6 ab 3d f7 b4 0b 3e
       -0.01828764 0.019913653 0.08390599 0.13643251
000120 cb 11 e1 3d e6 9d 9c bb df 92 08 3e fe 0b e1 bb
       0.10989722 -0.004779565 0.13337277 -0.0068678847
000130 df 0f 67 3d a3 89 7a 3d 87 56 b4 bd a6 e9 b9 bd
       0.05641162 0.061166417 -0.08805566 -0.09077768
000140 77 95 54 bd 99 5f 00 be 04 bd 2c 3d 86 9f a1 bd
       -0.051900353 -0.12536468 0.042172447 -0.07891755
000150 fb c7 84 3c 1e a9 b7 3d 9b 61 35 bd 40 ef 08 be
       0.01620864 0.089678034 -0.044282537 -0.13372517
000160 98 b6 6e 3d 8b f1 af 3d b0 44 ef bd 09 cc 8e bd
       0.058279604 0.085909925 -0.11683023 -0.0697251
000170 2d 31 f5 3d 58 98 be bd 8b 84 88 3c 02 9e 2d 3d
       0.1197227 -0.09306401 0.016664764 0.042387016
000180 46 06 ad be 0a 6e 46 bf 36 c5 7e bf b6 8a 45 bf
       -0.3379385 -0.77511656 -0.9951967 -0.7716478
000190 b0 ab 21 bf 1c 98 19 bf 5c e5 5a bf bd 15 3b bf
       -0.631526 -0.59997725 -0.85506225 -0.73080045
0001a0 f5 2e 33 bf 2d 0e 3f bf e0 c9 0b bf 3e af 33 bf
       -0.69993526 -0.74631006 -0.5460491 -0.70189273
0001b0 f1 20 00 bf 24 b1 5e bf f9 60 65 bf 48 09 45 bf
       -0.50050265 -0.86989045 -0.89601094 -0.7696729
0001c0 bf 62 57 bf b0 db 65 bf 6d d2 3a bf 5b 20 21 bf
       -0.8413505 -0.8978834 -0.72977334 -0.62939996
0001d0 f4 02 17 bf 26 31 24 bf 77 2d 3a bf da af 8f bf
       -0.5898888 -0.64137495 -0.72725624 -1.1225541
0001e0 b8 e6 37 bf ee 5c 60 bf 7c 8a e5 be 4a b1 6c bf
       -0.71836424 -0.876418 -0.44832218 -0.9245802
0001f0 23 32 85 bf 20 a3 43 bf 28 dc 89 bf 9d a6 1a bf
       -1.0405926 -0.76420784 -1.0770311 -0.6041048

lstm.bias_hh_l0 f4 [128]
000000 dd 0e 29 bf 73 03 6f bf e5 41 81 bf f0 5f 5a bf
       -0.66038305 -0.9336464 -1.0098234 -0.8530264
000010 06 3e 0b bf 2e 4a 16 bf 08 46 33 bf 1d e8 40 bf
       -0.54391515 -0.5870694 -0.70028734 -0.75354177
000020 7b 41 37 bf 40 bc 27 bf 3c a4 09 bf 1c dd 37 bf
       -0.7158429 -0.6552162 -0.53766227 -0.7182176
000030 29 6c eb be ca 80 55 bf d1 1a 51 bf d5 88 6b bf
       -0.45980957 -0.8339964 -0.81681544 -0.92005664
000040 a2 06 77 bf 94 34 54 bf 4c fe 73 bf 76 6a ee be
       -0.96494496 -0.8289273 -0.953099 -0.46565598
000050 df 3e 18 bf 06 43 34 bf cd b6 26 bf 22 0e 95 bf
       -0.59470934 -0.7041477 -0.6512268 -1.1644938
000060 c0 17 31 bf 5b 37 36 bf c2 b3 08 bf d9 78 4c bf
       -0.69176865 -0.71178216 -0.5339929 -0.798719
000070 b8 73 77 bf 30 61 46 bf 36 a1 74 bf dc 9d 3b bf
       -0.9666095 -0.77492046 -0.9555849 -0.7328775
000080 0f 03 09 bf 2a 50 ed be 7d 84 0f bf 66 30 32 bf
       -0.5352029 -0.46350223 -0.56061536 -0.696051
000090 d1 ec b8 be 11 16 c3 be ec dc 2b bf 29 44 07 bf
       -0.36118177 -0.38102773 -0.67133975 -0.5283838
0000a0 90 31 b7 be 65 b8 3a bf ef da ca be f0 82 c6 be
       -0.3578 -0.72937614 -0.39620158 -0.38771772
0000b0 96 0b f0 be 53 79 2f bf 1e 16 e5 be 0f 27 29 bf
       -0.4688384 -0.685445 -0.44743437 -0.66075224
0000c0 a8 58 0b bf b9 5e 01 bf 75 e3 ea be fa c9 95 be
       -0.54432154 -0.5053516 -0.4587666 -0.29255658
0000d0 78 de bc be 53 10 d7 be 76 cc fc be f0 98 27 bf
       -0.3688848 -0.42004642 -0.4937474 -0.6546774
0000e0 00 d5 26 bf a2 7a c9 be ff cc 03 bf fd de 21 bf
       -0.6516876 -0.39351374 -0.51484674 -0.6323088
0000f0 e9 77 e9 be b4 82 35 bf e9 8f 4a bf f8 ad 16 bf
       -0.45599297 -0.7090256 -0.7912584 -0.58859205
000100 58 b1 b6 bc 4a 13 59 3d 43 0b 7d 3d 12 ac 21 be
       -0.022301361 0.05299691 0.061778318 -0.15788296
000110 a9 b0 54 3c 49 1c 81 bc 26 d6 ac bd 9a ed 0e be
       0.012981572 -0.015760558 -0.08439283 -0.13957825
000120 13 d5 e1 bd f5 5a 5e 3a fa 30 06 be 62 dd cb 3b
       -0.11026969 0.00084821816 -0.1310462 0.0062214592
000130 44 f2 59 bd 4b cb 8c bd 19 35 a7 3d 57 9d be 3d
       -0.053209558 -0.068747126 0.081644244 0.09307354
000140 b5 df 57 3d 0a 59 02 3e d1 f2 2d bd 5e ea aa 3d
       0.052703578 0.12729278 -0.042467896 0.08345483
000150 ab 9e 52 bc 4a d6 c6 bd 16 7d 26 3d e3 34 15 3e
       -0.012855212 -0.09708841 0.040646635 0.14570956
000160 b9 5e 7c bd a2 9d b4 bd 84 4d e6 3d 0f a1 8d 3d
       -0.061613772 -0.088191286 0.11245254 0.06915485
000170 df 47 01 be c8 84 b9 3d 86 8c 8b bc ce 1b 2b bd
       -0.12625073 0.09058529 -0.01703478 -0.041774563
000180 8c 86 0b bf 1d f6 2c bf a9 05 98 bf af 23 6b bf
       -0.5450218 -0.6756304 -1.1876727 -0.91851324
000190 d1 33 19 bf e4 56 32 bf 83 f5 54 bf 97 c3 45 bf
       -0.5984469 -0.69663835 -0.8318712 -0.7725157
0001a0 9c 04 52 bf d4 77 3e bf 19 98 12 bf f3 71 2e bf
       -0.82038283 -0.74401593 -0.5726333 -0.6814262
0001b0 12 92 d1 be e0 b8 70 bf f2 02 7e bf be a5 65 bf
       -0.40931755 -0.94032097 -0.99223244 -0.8970603
0001c0 4f 82 49 bf 26 bf 5e bf 05 fe 57 bf 9c 36 02 bf
       -0.7871446 -0.8701042 -0.8437198 -0.5086458
0001d0 fa a9 d6 be 50 aa 23 bf 26 84 12 bf 3b 9e 93 bf
       -0.41926557 -0.6393175 -0.5723289 -1.1532663
0001e0 2e 50 12 bf 66 b5 24 bf 2a fb 47 bf 71 f2 5e bf
       -0.57153594 -0.6433929 -0.7811762 -0.87088686
0001f0 54 c7 7b bf a0 46 46 bf 7d 23 6d bf 31 6d 3b bf
       -0.98351026 -0.77451515 -0.92632276 -0.7321349

fc.weight f4 [1, 32]
000000 be dc 9f 3b 45 a9 b4 3c 23 cc 90 bd ee 06 18 bc
       0.0048786094 0.02205337 -0.07070186 -0.009278996
000010 79 43 3c 3b 4c b1 9e ba e2 e8 9c b8 84 c6 90 3a
       0.002872674 -0.0012107282 -7.4820375e-05 0.001104549
000020 85 06 cc ba f3 07 e4 3a 3f db b1 3c cd 1a 86 ba
       -0.0015565908 0.0017397389 0.02171099 -0.0010231376
000030 20 da 2e ba 43 8e bf 3a 6f aa 99 bb ec 80 ea ba
       -0.00066700764 0.0014614541 -0.0046895067 -0.0017891205
000040 3b ce cc 3b b6 04 50 3c bb f1 87 3a 38 7b 7e bb
       0.0062501705 0.012696436 0.0010371724 -0.0038830768
000050 62 a4 17 bb 54 3a ba 39 30 49 92 bb d6 89 12 3d
       -0.0023138751 0.00035520142 -0.004464291 0.03577598
000060 f4 b9 17 3b e2 49 3f bb da a6 3e 3b 30 c9 2a ba
       0.0023151608 -0.0029188325 0.002909115 -0.00065149646
000070 3c 46 20 bc 4a 75 48 39 b0 53 22 ba 82 44 00 ba
       -0.00978237 0.0001911718 -0.000619228 -0.0004893021
