ml_models/lstm_products/forecast_model_lstm_Laptop.pth (torch, 21433 bytes, 5 tensors)

lstm.weight_ih_l0 f4 [128, 1]
000000 09 cd d5 bd 5e d9 26 bf 13 6b ea be 0b 34 50 bf
       -0.10439498 -0.65175426 -0.45784816 -0.8132941
000010 6e da 20 3f 01 13 10 bf 04 75 0a bf 8b e9 a0 3f
       0.628333 -0.56279 -0.540848 1.2571272
000020 66 f0 fc be 73 77 9d bf 38 22 93 be cd 0e ab 3f
       -0.4940216 -1.2302078 -0.28737044 1.3363892
000030 d2 7d 58 bf 2c 2e 22 bf 94 dd 59 3f 70 ea 50 3e
       -0.84566987 -0.633517 0.85103726 0.20401931
000040 a4 18 4f 40 03 dd c3 be 65 a3 62 bf 1d 0b 63 3e
       3.235879 -0.38254556 -0.8853057 0.22172208
000050 46 c2 c3 be 64 84 53 bf 13 35 27 bf 7d a6 84 3f
       -0.38234156 -0.8262389 -0.6531536 1.0363308
000060 86 2f d9 be 6b 2b 1f 3c b4 f9 f9 40 58 10 d3 be
       -0.4241907 0.0097149415 7.8117313 -0.41223407
000070 61 2e ea be 84 41 ba bf 05 a4 34 bf e5 b9 4b 3e
       -0.4573851 -1.4551244 -0.70562774 0.19895132
000080 bf 33 8e bf a3 d0 cc be 3f fe 42 bf 36 c1 ae be
       -1.1109542 -0.40002927 -0.761692 -0.34131783
000090 94 9c 24 bf b4 7f 11 bf 92 c9 a6 be 8d 51 3c bf
       -0.6430142 -0.56835485 -0.3257566 -0.73561937
0000a0 41 e1 be be 53 48 e1 be ae 23 08 bf 55 c8 b7 bf
       -0.3728123 -0.44000491 -0.5317944 -1.4358011
0000b0 8f 6e de be 5b 8e c5 be db c9 43 bf 60 86 98 bf
       -0.43443725 -0.3858517 -0.7647988 -1.1916008
0000c0 29 b9 53 c0 99 3b 3e bf 84 db a4 be b7 a7 f5 be
       -3.3081763 -0.7430969 -0.32198727 -0.4797952
0000d0 14 cf d2 be 4a 7c 12 be d1 06 0b 3b b7 68 8a bf
       -0.41173613 -0.14305225 0.002121378 -1.0813206
0000e0 d8 1f b9 be a8 7f 45 be 21 e3 3b c0 8b 64 c6 be
       -0.36157107 -0.19286978 -2.9357378 -0.38748583
0000f0 f2 4f 0b bf dd 75 35 bf c1 b9 d1 be 24 03 c3 be
       -0.5441886 -0.7088297 -0.4096203 -0.38088334
000100 df 6c eb be e7 4e 9a be 01 86 86 3e f8 d3 a4 bd
       -0.459815 -0.30138323 0.26274112 -0.08048242
000110 c4 4c 47 3f b9 f1 19 3e 7b f9 f7 bd d7 f1 8e bf
       0.7785151 0.15033616 -0.121081315 -1.1167554
000120 7a 4e 53 3d 3b 54 8f bb a3 c1 a9 3e 39 dc a1 bf
       0.051588513 -0.0043740547 0.33155546 -1.2645332
000130 2a a5 8b bd 96 93 cd be 0a b9 ae 3f 0d 73 ad bf
       -0.06818612 -0.40151662 1.365022 -1.3550736
000140 0a 32 42 c0 f7 68 5a 3e cd 09 37 be 9c 64 12 3f
       -3.0343041 0.21329103 -0.17874832 0.5718477
000150 34 5b 58 be d2 05 03 3e 93 76 81 bd a4 bd c0 bf
       -0.21128541 0.12795189 -0.06321444 -1.5057874
000160 7b d7 e0 bc 02 cd bb be af 0e 96 c0 33 51 bb 3d
       -0.0274465 -0.36679846 -4.6892924 0.09146347
000170 29 be 4a bd 35 e0 8f bd 77 84 6e be 0a 74 e9 be
       -0.049497757 -0.07025186 -0.23292719 -0.45596343
000180 50 ea 68 bf 7a 34 e7 be 71 ec 27 bf 4d f8 00 bf
       -0.9098253 -0.45157224 -0.65595156 -0.50378877
000190 e7 b1 5b be e3 b5 68 bf 00 7a f5 be 68 8e d6 be
       -0.21454583 -0.9090254 -0.4794464 -0.41905522
0001a0 44 9e d0 be 8c 7b ca be 26 e6 7b be 40 74 24 be
       -0.40745747 -0.39547384 -0.24599513 -0.16059971
0001b0 01 7c f7 be 49 a0 ee be 3b 6c c5 bf 60 cc 93 bf
       -0.48336795 -0.46606663 -1.5423654 -1.1546745
0001c0 b8 91 2e bf 61 05 e0 be 32 83 f8 be af da e0 bd
       -0.681911 -0.43754104 -0.48537594 -0.109792106
0001d0 ff e2 f0 be 91 ee 18 bf fe 5a aa be b5 a3 96 bf
       -0.47048184 -0.59739023 -0.33272547 -1.176871
0001e0 f6 2d 72 be da ef 6e be 58 c9 d1 be f9 2e 5f be
       -0.23650345 -0.23333684 -0.40973926 -0.21795262
0001f0 a5 4d e0 be d4 d1 1b bf 9d c1 6a bf a3 dd 0b bf
       -0.43809238 -0.6086705 -0.9170168 -0.54635066

lstm.weight_hh_l0 f4 [128, 32]
000000 06 75 67 3e b8 3a b2 bc 0a 65 9e 3d 0e c0 cf 3c
       0.22603235 -0.021756515 0.077341154 0.025360133
000010 d8 9a d3 be e5 5e 5e bd 63 75 a1 3e b8 60 c0 3e
       -0.41329074 -0.054289717 0.3153487 0.3757379
000020 5b 51 78 3e f2 1a 1e be bf a6 bf bd d4 64 10 3f
       0.24249785 -0.15439966 -0.09357976 0.5640385
000030 f5 c0 91 3c 92 6c 9f be 4c d1 1e 3e 1b e3 24 be
       0.017792204 -0.3113752 0.15509528 -0.16102259
000040 ec c3 14 3f 6d a3 b5 3c db 6c ad be ee e2 8a be
       0.58111453 0.022172654 -0.33872113 -0.2712626
000050 a5 1e b5 3e 9b 7b 9f 3d 66 07 a1 be f9 a5 71 bd
       0.35374942 0.07787248 -0.31450957 -0.058996174
000060 4c dd 40 3c 35 a8 b0 3e 4e 55 92 bd 36 80 ce 3e
       0.011771511 0.34503332 -0.07145177 0.40332192
000070 8b 92 d0 3d be 1e b2 3c 28 ff 22 3d b9 04 82 3e
       0.10184201 0.021743175 0.039794117 0.25394228
000080 74 d4 30 bd 27 04 bf 3d 00 07 8f 3e bd 57 21 bd
       -0.04317136 0.09326964 0.27935028 -0.039390314
000090 bb 9e dc bd fa cc 49 bd c3 7f 2c bc 46 dc 81 be
       -0.10772463 -0.049267747 -0.010528508 -0.25363368
0000a0 f7 29 c7 bd 4c d0 82 be 12 ce 43 3d fd ff 26 be
       -0.09724801 -0.25549543 0.047803946 -0.1630859
0000b0 16 72 c7 3d 8b 89 2c be 5c f3 8d 3e b8 d9 d9 be
       0.09738557 -0.16849343 0.2772473 -0.4254892
0000c0 33 f2 be 3c 24 5a 5d 3e a2 2f 74 be f0 d1 46 be
       0.023308849 0.21616417 -0.23846295 -0.19416022
0000d0 7a 4f 29 bd 3a ef a0 3e 18 63 0a bd 11 ff ff be
       -0.04133556 0.31432515 -0.03378591 -0.49999288
0000e0 51 2f 9c be 49 46 32 3e 9d 8b 10 bf 89 9b af 3d
       -0.3050485 0.17409624 -0.5646303 0.08574588
0000f0 11 d6 e8 bc 33 41 6f 3e 80 0c f0 3c 02 c2 66 3e
       -0.028422387 0.23364715 0.029302835 0.22534946
000100 99 c1 20 3e ed 71 06 bd 3b f9 ea 3d 25 88 7d be
       0.15698852 -0.03282349 0.11473318 -0.24758966
000110 75 ab 18 3d 95 43 fc 3d f5 f2 d9 3d 36 eb 94 bd
       0.03727289 0.12317578 0.106420435 -0.072714254
000120 3f 3b bf 3d 9d 34 b2 be 0f 95 b5 bd ef c7 05 3e
       0.09337472 -0.34805766 -0.08866321 0.1306455
000130 c7 a3 bc bc 17 b2 fb bd 23 a0 55 3e 1f 20 39 be
       -0.023027314 -0.12289827 0.20861869 -0.1807866
000140 99 c4 0f 3d 6f f9 03 3d 3e 1b 7e be 12 3a b2 3d
       0.0350996 0.0322203 -0.2481508 0.08702482
000150 8d 4e 38 3e c5 30 08 be c7 40 4e be 32 3b 7e be
       0.17998715 -0.13299854 -0.20141898 -0.24827269
000160 f3 29 c0 bd 6d 19 3b 3e 9f 4f 34 be 2a d9 9f 3d
       -0.09383001 0.18271418 -0.17608498 0.07805093
000170 a2 df 94 b9 dd e6 39 bc ef 00 37 be 2e 21 21 3d
       -0.0002839538 -0.011346546 -0.1787145 0.039338283
000180 7b 79 57 bd be 3c f2 3d 15 d4 cb 3d cf 76 e7 bc
       -0.052606087 0.11827992 0.09952561 -0.028254895
000190 dd f7 0b 3d 1a 07 50 3e 20 79 04 3e 70 5c 58 bd
       0.034171928 0.20315209 0.1293683 -0.05282253
0001a0 71 07 82 bd 9e 48 d6 bd 3b 4d 00 be 01 9b b3 bb
       -0.063490756 -0.104630694 -0.12529461 -0.0054811244
0001b0 c2 38 64 3d 26 69 2f be 19 50 40 3e 52 20 81 be
       0.05571819 -0.17129955 0.18780555 -0.2521997
0001c0 73 c8 f4 3d 30 a9 36 3e 44 5f 98 be 91 e2 11 3e
       0.11952295 0.17837977 -0.29760182 0.14246584
0001d0 2c fb bf 3c 3d 27 4f 3e aa b0 1a be b2 34 ec be
       0.023435198 0.20229812 -0.15106454 -0.46133953
0001e0 73 1d cb bd 9a 6e d7 3d 03 17 98 be 13 6f 75 3d
       -0.09917726 0.105191424 -0.29705057 0.05992038
0001f0 de 2a 4f bd 41 b3 92 bd 54 9f 47 bd 1e c7 32 3d
       -0.05057799 -0.07163096 -0.04873593 0.043646924
000200 28 8e bb 3e 36 a5 9d be 00 b7 03 3e 75 50 9d be
       0.36631894 -0.30790108 0.12862778 -0.30725446
000210 1c d3 f5 bd 91 c9 de 3c a5 9d 6a 3e af b3 21 3e
       -0.120031565 0.027195724 0.22911699 0.157912
000220 f7 45 48 3e b9 06 ad be 31 cd b3 bd e5 74 58 3e
       0.1955794 -0.3379419 -0.087793715 0.21138342
000230 d3 e0 ea bd 7f 03 a0 be 3f 95 7a be 0b 9a 96 bd
       -0.11468663 -0.31252667 -0.24470995 -0.073536
000240 3d be 6e bd 21 90 41 3e d9 a6 a5 bd 32 30 2b be
       -0.058286894 0.18902637 -0.08088464 -0.16717604
000250 ee 1f a5 3e 3b 43 11 3e 7e ea 68 3d 33 cc 0e 3e
       0.32250923 0.14185803 0.056864254 0.13945083
000260 02 9b 6f bd af 9b e3 3e 76 9b d2 bc 83 11 30 bd
       -0.058497436 0.44454715 -0.025708895 -0.04298545
000270 46 4c 08 be ab 3d 31 bd be 7d b4 bd c5 a3 cd 3e
       -0.13310346 -0.0432717 -0.08813046 0.4016401
000280 6a 19 22 3e 8e 0b 7e 3e 9e d8 be bd ed 74 91 3d
       0.15830007 0.24809095 -0.0931866 0.0710238
000290 2e 6c 9f 3d d9 10 90 3e 76 d9 2d be 06 5f b5 3c
       0.077843055 0.28137854 -0.16977486 0.022140037
0002a0 c0 7e e4 bc 63 9a ea 3d c6 d1 23 3d 40 1c ee bd
       -0.02789247 0.11455228 0.039994977 -0.11626482
0002b0 cd d9 b1 bd 32 07 63 bd d3 35 c9 3d 94 c2 bb be
       -0.0868412 -0.055426784 0.09824719 -0.3667189
0002c0 0c ad 47 3d 1f 39 d8 bd 0a ad c3 be 57 d8 89 3d
       0.048749015 -0.1055777 -0.38217956 0.06730717
0002d0 9f fa 0b 3e ca 4f 2a 3e 9e b3 a0 bd 89 ee 5a be
       0.13669823 0.16632 -0.07846759 -0.21380056
0002e0 ba 3b 84 be 30 12 7e bd bc 7f 40 be ce e1 52 bc
       -0.25826818 -0.062029064 -0.18798727 -0.012871219
0002f0 9d a4 ec bd 91 2e 8a bd 8b 9b 0e be bf 00 04 3f
       -0.11554835 -0.06747163 -0.13926522 0.5156364
000300 53 1c 37 3d d6 ea 81 3d a4 ed 3c 3d 2b 7d 28 be
       0.044704746 0.063436195 0.04612507 -0.16453998
000310 4b f9 ef 3c b3 d7 40 3e 82 dc 89 bc 71 59 91 bd
       0.029293677 0.18832283 -0.01682878 -0.07097138
000320 76 f8 40 3e ca 98 b8 be b0 6f 8d bd 39 d9 82 3d
       0.1884478 -0.3605407 -0.06906068 0.06389088
000330 48 98 59 3d 45 e1 b9 be ce 6a 94 bd f0 1d 7b be
       0.053123742 -0.3630468 -0.07246934 -0.24523139
000340 7e 64 ae bd 0f e1 49 3e f3 30 4c be 9d 97 1b bd
       -0.08515261 0.1971476 -0.19940548 -0.037986387
000350 69 84 34 3e 83 59 5f 3e 5f 8d fd bd a9 85 13 be
       0.17628635 0.2181149 -0.1238048 -0.14406456
000360 be 03 33 3d 7e 6a 6c 3e 97 6b 2f be 6a e8 ea bd
       0.04370474 0.23087499 -0.17130886 -0.11470111
000370 42 26 67 3d 8c a7 8b 3e c8 d4 1a 3d 79 3d 4f 3e
       0.05643297 0.27276266 0.03780058 0.20238294
000380 38 e0 c6 3e b4 1c a4 3d 3a 6d 65 bc b2 56 2d be
       0.3884294 0.08013287 -0.014003092 -0.16927603
000390 b8 12 4a be 66 e3 77 bd 18 14 4e 3e 56 52 26 3e
       -0.19733703 -0.0605196 0.20124853 0.16242346
0003a0 e8 0f 31 3e 9c 39 19 be cf cb 09 be 07 1f ec 3d
       0.17291224 -0.14963382 -0.13456653 0.115293555
0003b0 eb 81 3b be 67 11 7d be 0a 11 ae be df 5f e7 3d
       -0.18311279 -0.2471367 -0.33997375 0.11297583
0003c0 6a 99 89 3e a5 63 2f bc 2c 0f 32 bd 24 67 43 be
       0.26874858 -0.010704909 -0.0434715 -0.19082314
0003d0 1a 40 89 3e fc 67 00 3d 6b 6e 18 be 18 b7 be 3d
       0.26806718 0.031349167 -0.14885871 0.09312266
0003e0 84 94 e1 bd e9 eb 3c 3e 29 05 05 3e be 4b 85 3d
       -0.11014655 0.18449368 0.1299025 0.06508587
0003f0 5b e9 07 bd 62 4b 6c 3e 25 a0 74 3d c9 65 ef 3e
       -0.03318153 0.23075631 0.05972304 0.46757343

lstm.bias_ih_l0 f4 [128]
000000 cf 61 8f bf 5a 30 84 bf 89 2c 74 bf 18 5b 7a bf
       -1.1201724 -1.0327256 -0.95380455 -0.9779525
000010 ec a7 99 bf 40 88 6b bf 35 61 80 bf dd a4 95 bf
       -1.2004371 -0.92004776 -1.0029665 -1.1690937
000020 a4 c4 87 bf 56 60 1f bf 94 aa 79 bf f3 5d b5 bf
       -1.0606885 -0.6225637 -0.97525907 -1.4169296
000030 fb 3f 7f bf 72 3d 11 bf 6c 4e d9 be 9a 67 30 bf
       -0.99707 -0.56734383 -0.42442644 -0.68908083
000040 3d 3e d9 bf 65 ba 70 bf e4 a3 20 bf 89 08 6f bf
       -1.6972119 -0.94034415 -0.6275008 -0.933724
000050 85 06 67 bf cc 14 88 bf b5 bd 98 bf fc 35 a9 be
       -0.90244323 -1.0631347 -1.1932894 -0.33049
000060 1f 4a 59 bf a1 a1 82 bf c2 32 b5 bf f2 df 2c bf
       -0.84878725 -1.0205575 -1.4156115 -0.67529213
000070 20 42 7f bf 39 5e 17 bf e5 7c 06 bf f4 87 8d bf
       -0.99710274 -0.5912815 -0.52534324 -1.1057115
000080 14 d2 e6 be d5 df 69 bf 3a 14 1e bf 66 5d 37 bf
       -0.45082152 -0.91357166 -0.61749613 -0.7162689
000090 e1 e9 e0 be 3f 32 38 bf cd 00 c3 be 61 25 c5 be
       -0.43928435 -0.7195167 -0.38086548 -0.3850508
0000a0 db 84 36 bf 36 1c 1b bf d5 dc fb be 1c f9 b9 be
       -0.7129647 -0.6058992 -0.4919192 -0.36322868
0000b0 95 ed 20 bf cc 19 f7 be 1c 5e 6a be f8 76 38 be
       -0.6286252 -0.4826187 -0.22887462 -0.18014133
0000c0 a9 6a 4f 3f 28 2b 35 bf 4a 70 13 bf ba 50 18 bf
       0.81022125 -0.70768976 -0.57593215 -0.5949818
0000d0 1d b5 04 bf f7 d6 fe be d3 a6 0c bf f3 92 b7 be
       -0.51838857 -0.4977338 -0.54942054 -0.358543
0000e0 4b 95 38 bf 70 b2 12 bf 0a 5d a0 3f ee 09 46 bf
       -0.72102803 -0.57303524 1.2528393 -0.773589
0000f0 30 de 33 bf f1 96 10 bf 59 b0 96 be cf 72 e7 be
       -0.70260906 -0.5648032 -0.29431418 -0.4520478
000100 6d 09 27 3e 02 0d 2d 3e be 39 81 bd af a8 33 3d
       0.1631219 0.16899493 -0.063098416 0.04386204
000110 c6 6d 83 bd b2 a8 c7 3d b6 a1 62 bd 7b cc 3a 3c
       -0.06417422 0.09748973 -0.05533 0.011401291
000120 c8 c0 20 bd f9 4c a8 bb a1 71 b2 3d 14 5b 9c 3d
       -0.03924635 -0.005136129 0.08713079 0.07634559
000130 23 aa a5 bd 19 82 d2 bd a8 06 90 bd 97 ec bd 3d
       -0.08089092 -0.102787204 -0.070325196 0.092736416
000140 97 a8 50 3d 95 c1 a1 bd bb 28 1d 3d 05 d6 f0 bd
       0.05094203 -0.07898251 0.03836892 -0.11759571
000150 48 ac 5b bd 7b 3f 8b bb a5 a3 48 be 34 e8 d9 3c
       -0.053631097 -0.004249511 -0.19593675 0.02659998
000160 e6 40 42 3d e6 26 e0 bd 52 7c d7 bd de 40 fe 3d
       0.047425173 -0.10944919 -0.10521759 0.12414716
000170 e3 c1 10 be 31 b6 d5 bd 1f bd a9 3d 64 3f c3 3d
       -0.14136462 -0.10435141 0.08288025 0.09533575
000180 c9 8c 7f bf e0 49 8b bf e8 95 5d bf 0d f4 57 bf
       -0.99824196 -1.088192 -0.86556864 -0.84356767
000190 de 34 84 bf 09 60 41 bf 5b a5 71 bf 21 4f 6b bf
       -1.0328634 -0.75537163 -0.9439294 -0.91917616
0001a0 b8 6b 7b bf 24 33 64 bf ee 3d 94 bf d9 b8 b8 bf
       -0.9821124 -0.89140534 -1.15814 -1.4431411
0001b0 8f 86 66 bf 5e 0b 03 bf 25 6d 44 bf 86 59 2e bf
       -0.9004907 -0.5118922 -0.7672904 -0.6810535
0001c0 62 28 d9 bf 69 c4 91 bf 50 4f 2e bf c4 a0 91 bf
       -1.6965449 -1.1388065 -0.6808977 -1.1377187
0001d0 e8 10 52 bf d8 82 5e bf 84 b2 8c bf 34 a6 1a bf
       -0.82057047 -0.869184 -1.0991979 -0.60409856
0001e0 ee 6f 57 bf a5 87 6c bf 02 da 82 bf 35 72 6c bf
       -0.84155166 -0.9239448 -1.0222781 -0.92361766
0001f0 68 20 97 bf ea 83 17 bf 1b 1a 18 bf 71 e6 8c bf
       -1.1806765 -0.5918566 -0.59414834 -1.1007825

lstm.bias_hh_l0 f4 [128]
000000 07 c8 90 bf f0 4d a5 bf df 9e 84 bf cb 66 83 bf
       -1.1311044 -1.291441 -1.0360984 -1.0265745
000010 5a 2f 9a bf 27 55 4b bf 5d 67 80 bf 70 21 87 bf
       -1.20457 -0.7942681 -1.0031544 -1.0557079
000020 e8 3b 8d bf e0 a5 58 bf d7 72 91 bf 0d fe b1 bf
       -1.1033907 -0.84628105 -1.1363171 -1.3905655
000030 4f d3 82 bf 75 11 1b bf b3 a9 24 bf e4 cc b6 be
       -1.0220736 -0.6057351 -0.6432144 -0.35703194
000040 22 80 bf bf e0 58 81 bf 2a ac 4e bf 4f 98 6e bf
       -1.4960978 -1.0105247 -0.8073145 -0.93201154
000050 c3 3e 76 bf fa a9 7b bf b9 ac 68 bf 77 a5 01 bf
       -0.96189517 -0.9830624 -0.90888554 -0.50643104
000060 65 b5 94 bf 41 d8 67 bf 89 8d c3 bf ca 62 75 bf
       -1.1617857 -0.9056435 -1.5277568 -0.95853865
000070 08 ea 68 bf 02 08 44 bf c6 a3 2d bf 4e 0f 90 bf
       -0.90982103 -0.7657472 -0.67828023 -1.1254671
000080 5f 48 40 bf c1 62 5c bf b8 f5 2b bf 44 12 43 bf
       -0.7511043 -0.86088187 -0.6717181 -0.76199746
000090 b9 17 0c bf 2d 5f 28 bf bb a4 25 bf 25 15 e7 be
       -0.547237 -0.65770227 -0.64704484 -0.4513332
0000a0 bd bb 42 bf 3c c5 15 bf e0 ee 41 bf 2a cf 99 be
       -0.76067716 -0.5850408 -0.7575512 -0.30040866
0000b0 c5 ee 0d bf a1 cf 81 be 18 3c b6 be 67 ff 2d be
       -0.5544246 -0.2535372 -0.35592723 -0.1699196
0000c0 7a 2a 68 3f 0f 71 3b bf f4 b6 13 bf af f0 2c bf
       0.90689814 -0.7321939 -0.5770104 -0.67554754
0000d0 50 c7 37 bf ab aa 05 bf 21 52 12 bf 6f 3d 82 be
       -0.717885 -0.52213544 -0.5715657 -0.25437495
0000e0 06 44 12 bf 44 ae 15 bf c6 62 90 3f 1b 05 30 bf
       -0.57135046 -0.58469033 1.1280143 -0.6875779
0000f0 3a 22 39 bf 5e ef 03 bf a2 db c7 be e5 15 27 bf
       -0.7231785 -0.5153712 -0.39034754 -0.65267783
000100 71 7b 1e be 8c 9a 2d be d5 13 ca bc 7f b7 25 bd
       -0.15476777 -0.16953486 -0.02466766 -0.0404582
000110 9f ee 71 3d d8 7c f1 bd b4 d8 cd 3d d9 3e fa bb
       0.059065457 -0.1179139 0.100510985 -0.0076368866
000120 88 b4 19 3d 27 b8 f7 bb 37 d4 dc bd ce 7f ac bd
       0.037525684 -0.0075597945 -0.10782664 -0.08422814
000130 fd 2f b2 3d c5 c6 a6 3d 65 cb 75 3d 69 8e a8 bd
       0.08700559 0.08143381 0.060008425 -0.082302876
000140 1e 8c db bd af 70 57 3c 3a 44 c1 bd 40 91 d6 3d
       -0.107200846 0.013149424 -0.09436841 0.10476923
000150 cd 8a 92 3d 45 c1 4a 3c 0e c9 f7 3d 93 56 65 bc
       0.071553804 0.012375181 0.12098895 -0.013997692
000160 ee 69 b0 bd c0 1c 07 3e f2 38 d9 3c a5 40 5a bd
       -0.086139545 0.13194561 0.026516411 -0.053284306
000170 ae f6 ec 3d c5 a3 b7 3d cf c2 43 bd 28 b6 b8 bd
       0.11570488 0.089667834 -0.047793206 -0.090191185
000180 ae 04 92 bf 36 ef a7 bf 8f df 8b bf b3 f6 5b bf
       -1.1407678 -1.3119876 -1.09276 -0.8592331
000190 5a 6c 87 bf e7 3e 7e bf 18 ab 4a bf b9 c9 9e bf
       -1.0579941 -0.9931473 -0.7916732 -1.2405311
0001a0 c3 7a 6f bf ee 46 29 bf 97 f7 84 bf a3 59 9b bf
       -0.93546695 -0.66123855 -1.0388058 -1.213673
0001b0 e0 c1 8c bf da d0 10 bf 26 e3 38 bf 03 8e e4 be
       -1.0996666 -0.5656868 -0.722216 -0.44639596
0001c0 7e 79 d9 bf 03 30 89 bf 02 fa 4d bf 92 87 6b bf
       -1.6990201 -1.0717777 -0.80459607 -0.9200374
0001d0 1b 90 62 bf ee 5d 86 bf 1a 43 97 bf 66 53 05 bf
       -0.8850114 -1.0497415 -1.1817353 -0.5208038
0001e0 e7 1c 89 bf aa 89 55 bf c5 0a 7d bf 33 60 55 bf
       -1.0711945 -0.83413184 -0.9884456 -0.83349913
0001f0 bd 9e 7b bf ac 70 2a bf ce 23 15 bf 87 f5 9f bf
       -0.9828909 -0.66578174 -0.5825776 -1.2496804

fc.weight f4 [1, 32]
000000 f7 4e b0 3a 8a 54 ef 3a 87 6a 47 bd 16 1c e7 ba
       0.0013451268 0.0018259448 -0.048685577 -0.0017632272
000010 20 95 76 3b 98 d6 4b bc 31 19 cd 3c 85 54 80 bb
       0.0037625507 -0.0124413 0.025036426 -0.0039163255
000020 2f f2 16 3b 60 8e e8 bb 2f 2e 1a bc 93 95 41 3a
       0.0023032536 -0.0070970505 -0.009410425 0.0007384654
000030 e2 fa 18 3b cc 2a 36 bc be f9 a5 39 44 f9 ce 3a
       0.0023342897 -0.011118602 0.00031657325 0.001579084
000040 07 46 d5 3d 27 ea ec bc 15 e1 1d bd 79 23 47 bb
       0.10413747 -0.028920246 -0.038544733 -0.0030386134
000050 83 a7 e2 3b 49 86 79 3b 60 53 38 bd 12 07 85 3b
       0.0069169416 0.0038074425 -0.045001388 0.0040596807
000060 77 a2 de bc 69 46 4e 3c a2 71 8d 3e cb 3a 2a 3d
       -0.027177079 0.012590029 0.27625757 0.041559976
000070 8b 94 31 bc 47 0e 37 bb fa fa c2 3c 51 87 bd ba
       -0.010838638 -0.0027932094 0.023801316 -0.0014459883
