ml_models/lstm_products/forecast_model_lstm_Guava_Girl_Dress.pth (torch, 21553 bytes, 5 tensors)

lstm.weight_ih_l0 f4 [128, 1]
0.88997996 -0.21969654 0.31724748 -0.7724483 -0.23082645 -0.6688439 -0.6162223 0.8264479
0.28947002 -1.0182511 -0.58829224 -0.32486653 0.97271574 -1.1839771 -0.72483754 -0.5233638
-1.0607826 -1.0587147 -0.8901341 -0.41602153 -0.2609595 -0.2437319 -0.4916761 -1.3501467
-1.2653477 8.061506 0.37329823 0.30186814 0.29542926 -0.98822135 -1.2260156 -0.9456347
-1.065417 -0.6465251 -1.193568 -0.53441256 -1.1574957 -0.4494338 -0.52189404 -0.85296583
-0.7834283 -0.9663332 -0.5974903 -0.17209142 -0.95233 -0.6634804 -0.59170467 -0.36260635
-0.9529422 -0.52247745 -0.4959497 -0.74405843 -0.24409106 -0.5418585 -0.9540073 -0.8444952
-0.81543076 -3.845575 -0.96780175 -1.3146329 -0.8304974 -0.88431555 -0.9160621 -0.9819451
0.8826873 -0.6867103 0.7075143 0.20025153 0.36788097 -0.05072013 -0.05199208 -0.8034992
0.48010573 -0.22503528 -0.24498723 0.13619652 0.9141378 -0.23168084 -0.114375405 0.105940074
-0.02268521 0.08467632 0.037489902 -0.3277002 -0.26200232 -0.062867135 -0.2681633 -0.15151158
0.01289284 4.976778 0.9413334 -0.75461876 -0.91294044 0.06052723 0.07545549 -0.34605718
0.4036371 -0.9288414 -0.2716978 -0.7350398 -0.5679616 -0.7623947 -0.3471491 0.2323897
0.1073961 -1.2218578 -0.16701445 -0.2932695 0.2583324 -0.79678994 -0.4023353 -0.8290362
-1.0710175 -0.853593 -0.62068695 -0.8131656 -0.06772028 -0.6019815 -0.64483976 -0.9488124
-0.88587713 -0.32654804 -1.1941096 -0.04823117 -1.1722859 -0.54404914 -0.77373123 -0.69599634
00000000: bad5 633f 21f8 60be 436e a23e 2cbf 45bf
00000010: c55d 6cbe 5b39 2bbf bfc0 1dbf 1792 533f
00000020: 6a35 943e 0d56 82bf 529a 16bf e854 a6be
00000030: e603 793f 908c 97bf f48e 39bf 2cfb 05bf
00000040: b9c7 87bf f783 87bf d4df 63bf c600 d5be
00000050: 7c9c 85be db94 79be f8bc fbbe 9bd1 acbf
00000060: eaf6 a1bf eefb 0041 f220 bf3e 768e 9a3e
00000070: 8142 973e 13fc 7cbf 14ee 9cbf 1e15 72bf
00000080: 965f 88bf ab82 25bf d6c6 98bf 43cf 08bf
00000090: d228 94bf 301c e6be d99a 05bf f85b 5abf
000000a0: c28e 48bf 9d61 77bf 20f5 18bf bc38 30be
000000b0: e6cb 73bf dad9 29bf f579 17bf 8aa7 b9be
000000c0: 05f4 73bf 15c1 05bf 1eed fdbe 9d7a 3ebf
000000d0: 02f3 79be 3db7 0abf d339 74bf d630 58bf
000000e0: 12c0 50bf e71d 76c0 dbc1 77bf e445 a8bf
000000f0: 7a9b 54bf 8162 62bf 0c83 6abf c160 7bbf
00000100: cbf7 613f 3fcc 2fbf a81f 353f bd0e 4d3e
00000110: e55a bc3e e9bf 4fbd a6f5 54bd 20b2 4dbf
00000120: 6bd0 f53e a66f 66be efdd 7abe 1a77 0b3e
00000130: ef04 6a3f be3d 6dbe a73d eabd 1cf7 d83d
00000140: 55d6 b9bc c76a ad3d 038f 193d 52c8 a7be
00000150: 2b25 86be 7cc0 80bd b34c 89be da25 1bbe
00000160: 7e3c 533c c441 9f40 3afb 703f b22e 41bf
00000170: 77b6 69bf 67eb 773d 6888 9a3d 682e b1be
00000180: 86a9 ce3e 8dc8 6dbf f91b 8bbe 912b 3cbf
00000190: ee65 11bf 4d2c 43bf 87bd b1be 91f7 6d3e
000001a0: 7df2 db3d d665 9cbf d605 2bbe 6b27 96be
000001b0: 2544 843e 6dfa 4bbf e4fe cdbe b73b 54bf
000001c0: 1a17 89bf 1285 5abf 57e5 1ebf 9f2b 50bf
000001d0: eeb0 8abd 761b 1abf 3814 25bf 5fe5 72bf
000001e0: d8c8 62bf 4e31 a7be 95d8 98bf 0c8e 45bd
000001f0: 770d 96bf ce46 0bbf 4013 46bf d12c 32bf

lstm.weight_hh_l0 f4 [128, 32]
-0.28905642 -0.26344475 -0.09020023 0.1486728 -0.35333666 -0.23982075 -0.18726856 0.21728207
-0.20129687 -0.057238605 -0.31109968 -0.32290897 -0.26119822 -0.02387488 0.15059395 -0.35847297
-0.06452601 -0.05598619 0.20067208 -0.1807067 0.37674442 -0.12515782 -0.0124978805 -0.27457276
0.05834738 0.03613972 0.04884169 0.3942203 -0.045513887 0.16332462 -0.03992499 0.015351348
0.022657823 0.010674595 -0.17038979 0.2550893 -0.22477414 -0.31250364 0.0020643407 0.12810627
-0.12888648 0.30709565 -0.2926576 -0.11246899 -0.4301758 -0.12806699 -0.2838224 -0.2251755
-0.08073866 -0.05233848 -0.053468626 0.13946822 0.14832525 0.10183763 0.06998474 -0.23126462
0.20671128 -0.06157375 0.026494699 -0.05110124 -0.28170922 0.03628312 0.14983138 0.0073564295
-0.074423835 -0.30524233 -0.4844568 0.08068442 -0.36023152 -0.047598712 -0.44060785 0.27802396
-0.20724562 0.10278714 -0.25995103 -0.46055496 -0.56729007 0.006261578 0.0783801 -0.4783029
-0.14630318 0.20885742 0.35370898 -0.056214966 0.52354366 -0.061331455 0.23307246 -0.008887911
0.4315867 0.20658965 0.3140008 0.15206115 -0.02311935 0.43300706 -0.06845938 -0.10147511
0.07375813 -0.035119366 -0.060354117 0.09802334 0.20694204 0.025156915 0.16628508 0.17332484
-0.09779021 0.23916338 -0.09336441 0.016368013 -0.14424472 -0.084993005 0.013114695 0.04828345
-0.0028553435 0.07360421 0.012769038 -0.059236396 0.055231296 0.14514665 -0.07975851 -0.27238992
0.15054953 -0.038627476 0.1588016 -0.12580939 -0.03450662 -0.10548371 0.0503305 0.06584869
0.020027809 -0.30123812 0.0775889 0.14058092 -0.27861568 -0.21082208 -0.03623603 0.20161885
0.020089269 -0.061250824 -0.20099938 -0.16249093 0.037323643 -0.11516096 0.06330371 -0.30809712
0.016247917 -0.06696945 0.07984752 0.08340621 0.24355926 -0.014331932 0.033949178 -0.079462186
0.02088431 -0.07160778 -0.02985565 -0.08287949 -0.21939458 -0.13441488 0.25802818 -0.13223812
-0.09474912 0.051991258 0.08027989 0.43114078 0.043539736 0.15744624 0.05404541 0.19127913
-0.10506535 0.0731728 -0.24133441 0.090574935 0.10198594 0.062065423 -0.24265304 -0.1567544
-0.11373536 0.26820788 0.2441449 -0.16705328 0.24950732 0.22424804 -0.19736817 -0.120463334
-0.13533472 0.006096961 0.24445924 0.117005475 -0.24140458 0.019844618 -0.07093684 0.2633784
0.12087075 -0.37818044 -0.19836618 0.66084146 -0.054208558 -0.44139874 -0.09930737 0.42438823
-0.35293537 0.2656942 -0.6833103 -0.42158967 -0.2744375 0.054695625 -0.15723273 -0.3660016
-0.36824593 0.29804268 0.3904751 0.07971727 0.48164538 0.33065662 -0.22925688 -0.51914775
0.1937186 0.5505239 0.5579857 0.34427017 -0.7362697 0.27035028 -0.035218716 -0.28499156
-0.12214268 -0.34852353 -0.18634108 -0.025156427 -0.31692848 -0.1162824 -0.26465625 0.313011
-0.18277875 0.11496104 -0.29376835 -0.65245485 -0.4965924 -0.2153275 -0.24145792 -0.35125995
-0.18141119 -0.10070829 0.19064973 0.06858303 0.5873919 -0.083187155 -0.057551306 -0.011265341
0.13218722 -0.058778837 0.2299058 0.2182074 -0.29446363 0.12863526 0.08904148 0.40371498
00000000: 34ff 93be 3be2 86be e6ba b8bd af3d 183e
00000010: 8be8 b4be 9293 75be 54c3 3fbe 317f 5e3e
00000020: c420 4ebe 0773 6abd 7548 9fbe 5354 a5be
00000030: c6bb 85be 4195 c3bc 4d35 1a3e c589 b7be
00000040: 3626 84bd c651 65bd fb7c 4d3e 2d0b 39be
00000050: a5e4 c03e 5f29 00be e9c3 4cbc cd94 8cbe
00000060: aafd 6e3d 3e07 143d 390e 483d 3ed7 c93e
00000070: c56c 3abd 923e 273e 6388 23bd 3884 7b3c
00000080: e69c b93c 7fe4 2e3c a97a 2ebe 119b 823e
00000090: 312b 66be 7a00 a0be e449 073b 4a2e 033e
000000a0: d1fa 03be a43b 9d3e 38d7 95be 2456 e6bd
000000b0: 0140 dcbe fe23 03be 2b51 91be 6894 66be
000000c0: 505a a5bd e060 56bd eb01 5bbd c2d0 0e3e
000000d0: 93e2 173e 3f90 d03d 2954 8f3d a2d0 6cbe
000000e0: 1fac 533e c234 7cbd 690b d93c 894f 51bd
000000f0: 313c 90be 9c9d 143d 666d 193e 340e f13b
00000100: 866b 98bd b948 9cbe b90a f8be e03d a53d
00000110: 4470 b8be def6 42bd 5a97 e1be 2859 8e3e
00000120: 3238 54be 1082 d23d 4d18 85be dccd ebbe
00000130: ec39 11bf ec2d cd3b bf85 a03d 1ee4 f4be
00000140: 80d0 15be b8de 553e 5819 b53e aa41 66bd
00000150: f506 063f b136 7bbd 8caa 6e3e 9a9e 11bc
00000160: eff8 dc3e 3d8c 533e b6c4 a03e ebb5 1b3e
00000170: cb64 bdbc 1ab3 dd3e 6e34 8cbd 2fd2 cfbd
00000180: 810e 973d 53d9 0fbd e135 77bd 76c0 c83d
00000190: 9de8 533e e015 ce3c a346 2a3e 117c 313e
000001a0: 3c46 c8bd 3fe7 743e d735 bfbd 3616 863c
000001b0: e3b4 13be d010 aebd 05df 563c dec4 453d
000001c0: b720 3bbb cebd 963d 3a35 513c dda1 72bd
000001d0: 363a 623d 53a1 143e 6e58 a3bd b176 8bbe
000001e0: a829 1a3e d837 1ebd e39c 223e 2dd4 00be
000001f0: d056 0dbd d807 d8bd 5b27 4e3d aedb 863d
00000200: 5c11 a43c e23b 9abe eee6 9e3d 72f4 0f3e
00000210: b7a6 8ebe bee1 57be 3b6c 14bd 2c75 4e3e
00000220: 4092 a43c 25e2 7abd c8d2 4dbe 0664 26be
00000230: ade0 183d 82d9 ebbd 60a5 813d e8be 9dbe
00000240: 5a1a 853c 4727 89bd 1987 a33d e0d0 aa3d
00000250: 9967 793e 7bd0 6abc 4b0e 0b3d 12bd a2bd
00000260: 9315 ab3c 1aa7 92bd d693 f4bc b9bc a9bd
00000270: f9a8 60be 0ea4 09be 451c 843e 6e69 07be
00000280: d40b c2bd c9f4 543d c869 a43d 7cbe dc3e
00000290: b956 323d 9639 213e b85e 5d3d adde 433e
000002a0: 812c d7bd 9fdb 953d 5e20 77be 5a7f b93d
000002b0: 01de d03d 5038 7e3d 0a7a 78be 3a84 20be
000002c0: 16ee e8bd 8b52 893e 1f01 7a3e 0410 2bbe
000002d0: d97e 7f3e 47a1 653e e21a 4abe 7bb5 f6bd
000002e0: 2f95 0abe 04c9 c73b 8653 7a3e 91a0 ef3d
000002f0: c332 77be 2e91 a23c 5547 91bd 89d9 863e
00000300: 158b f73d dea0 c1be 8120 4bbe e82c 293f
00000310: cb09 5ebd 04ff e1be aa61 cbbd 6a49 d93e
00000320: f2b3 b4be 1209 883e 6ced 2ebf 9ada d7be
00000330: 1283 8cbe 8508 603d 9e01 21be 9064 bbbe
00000340: bb8a bcbe 0d99 983e 5aec c73e cf42 a33d
00000350: 399a f63e d34b a93e 51c2 6abe dee6 04bf
00000360: 2b5e 463e 22ef 0c3f 27d8 0e3f 2e44 b03e
00000370: 2c7c 3cbf 5a6b 8a3e 8041 10bd 6aea 91be
00000380: f125 fabd ad71 b2be 32d0 3ebe da14 cebc
00000390: 7344 a2be 7825 eebd 0681 87be fa42 a03e
000003a0: 5a2a 3bbe b270 eb3d ce68 96be 4807 27bf
000003b0: 5c41 febe d07e 5cbe bf40 77be 58d8 b3be
000003c0: dbc3 39be 2640 cebd af39 433e 4275 8c3d
000003d0: 515f 163f 075e aabd ebba 6bbd 4492 38bc
000003e0: 165c 073e 14c2 70bd 6d6c 6b3e c371 5f3e
000003f0: f0c3 96be f6b8 033e 615b b63d bbb3 ce3e

lstm.bias_ih_l0 f4 [128]
-1.1333493 -0.5892826 -0.9861818 -0.77544206 -0.81465954 -0.79204744 -0.9765752 -1.1323224
-0.9505016 -1.0914875 -0.62164646 -0.8957872 -1.0064378 -0.83800733 -0.99980026 -0.883135
-1.0027361 -0.773742 -0.6035558 -0.75679904 -1.0780911 -0.56722593 -1.0832753 -0.7653386
-0.761513 -1.5276816 -0.62441397 -1.0951704 -0.5152691 -1.2400676 -0.8292405 -0.78158516
-0.44762263 -0.34526995 -0.73106927 -0.52818835 -0.44265673 -0.5919705 -0.83690983 -0.79479915
-0.41705966 -0.5625692 -0.44439495 -0.48271048 -0.6263417 -0.5841711 -0.61218196 -0.575999
-0.65021783 -0.56422704 -0.7323865 -0.67271054 -0.54542744 -0.3097482 -0.49495757 -0.34344545
-0.6447095 1.3058083 -0.36386287 -0.5779592 -0.32455906 -0.73024267 -0.69736737 -0.5743562
0.11924951 -0.0060418085 -0.12710026 -0.009114785 0.07210386 -0.099480316 -0.049659 -0.016026262
0.026100708 -0.006249558 0.04797547 -0.04495738 0.07989342 0.0017850529 0.04588563 0.024735495
0.12709028 0.02813079 0.029527877 -0.028491948 0.07559415 -0.09345917 -0.0097743925 -0.05757195
0.0055878237 0.011967179 -0.018075151 0.12604888 0.042925257 -0.08774784 0.07153822 0.08576429
-1.0384451 -0.49231538 -1.0426793 -0.6281823 -1.0443704 -0.5756893 -1.1758493 -1.0862021
-0.8838164 -1.0752269 -0.64828926 -1.0235734 -1.093356 -0.95024484 -1.0289447 -0.7421973
-0.9238007 -0.6860966 -0.8063163 -0.7375233 -0.9886134 -0.5531235 -0.96406305 -0.6964993
-0.89327985 -1.0971861 -0.6661268 -1.032011 -0.45180088 -0.9764529 -0.84319234 -0.72421116
00000000: 9711 91bf 39db 16bf 6976 7cbf 5f83 46bf
00000010: 878d 50bf 9fc3 4abf d500 7abf f1ef 90bf
00000020: 1354 73bf ddb5 8bbf 3924 1fbf 4f52 65bf
00000030: f4d2 80bf a687 56bf e9f2 7fbf 2315 62bf
00000040: a859 80bf f513 46bf a282 1abf 95bd 41bf
00000050: e4fe 89bf b835 11bf c4a8 8abf 3bed 43bf
00000060: 84f2 42bf 128b c3bf 98d9 1fbf 8b2e 8cbf
00000070: ade8 03bf 89ba 9ebf 1b49 54bf f715 48bf
00000080: cb2e e5be 39c7 b0be 5b27 3bbf 5a37 07bf
00000090: e7a3 e2be 618b 17bf b93f 56bf f577 4bbf
000000a0: d888 d5be 8904 10bf bc87 e3be d425 f7be
000000b0: ee57 20bf 3d8c 15bf f5b7 1cbf ac74 13bf
000000c0: ad74 26bf 2f71 10bf af7d 3bbf c236 2cbf
000000d0: 22a1 0bbf 5197 9ebe 146b fdbe 15d8 afbe
000000e0: af0b 25bf ba24 a73f 3c4c babe 22f5 13bf
000000f0: 9b2c a6be 2ff1 3abf ab86 32bf 0209 13bf
00000100: 1639 f43d 5dfa c5bb 9226 02be 2e56 15bc
00000110: 30ab 933d 56bc cbbd 3c67 4bbd 8249 83bc
00000120: 27d1 d53c 18c9 ccbb ed81 443d 3b25 38bd
00000130: 299f a33d 70f8 e93a 92f2 3b3d 18a2 ca3c
00000140: f423 023e 8b72 e63c 72e4 f13c f267 e9bc
00000150: 1bd1 9a3d 8567 bfbd c624 20bc 91d0 6bbd
00000160: 101a b73b fd11 443c 5712 94bc f512 013e
00000170: 65d2 2f3d 24b5 b3bd a182 923d 30a5 af3d
00000180: c5eb 84bf c310 fcbe 8476 85bf 8ed0 20bf
00000190: eead 85bf 6060 13bf 3b82 96bf ac08 8bbf
000001a0: cb41 62bf 09a1 89bf 49f6 25bf 7404 83bf
000001b0: 17f3 8bbf 3f43 73bf 76b4 83bf a400 3ebf
000001c0: 347e 6cbf 07a4 2fbf bf6a 4ebf 54ce 3cbf
000001d0: c515 7dbf 8099 0dbf d6cc 76bf c74d 32bf
000001e0: fdad 64bf 9870 8cbf 4987 2abf f018 84bf
000001f0: 7252 e7be d1f8 79bf 74db 57bf e765 39bf

lstm.bias_hh_l0 f4 [128]
-1.0077976 -0.55915207 -1.3270687 -0.5992579 -0.99229264 -0.6383166 -0.94222003 -1.0315998
-0.9493349 -0.9789318 -0.3738621 -0.9282637 -0.85924906 -0.85109794 -0.8634873 -0.5950865
-1.1236808 -0.66509503 -0.804702 -0.6558851 -1.0601993 -0.71592194 -0.8986463 -0.7998526
-0.76938736 -1.6100656 -0.47350785 -1.2615615 -0.54933333 -1.1078477 -1.0357012 -0.68012875
-0.6309705 -0.3278581 -0.5221379 -0.6132746 -0.45373535 -0.49523196 -0.91365665 -0.58237207
-0.7080837 -0.5378036 -0.30216575 -0.69592434 -0.430973 -0.60264194 -0.61011946 -0.50199145
-0.61870563 -0.56187963 -0.4906776 -0.68240964 -0.4976269 -0.39398846 -0.59894025 -0.370253
-0.4654558 1.329989 -0.1907504 -0.57442 -0.2254229 -0.74018675 -0.74662447 -0.61791646
-0.057521723 -0.013382016 0.15851763 0.012867318 -0.05729732 0.095307544 0.051383168 -0.043398906
0.005999484 0.0012395394 -0.04585751 0.050400104 -0.026049659 -0.006285178 -0.049958993 -0.02113302
-0.1311668 -0.022751393 -0.026654733 0.0204028 -0.093014985 0.09020774 0.0058475244 0.05925013
-0.0053037275 0.066335134 0.035835866 -0.16242658 -0.06436285 0.08749455 -0.06461251 -0.08950356
-0.90449333 -0.4457619 -1.2594734 -0.65022975 -0.9910341 -0.8596254 -0.97901195 -0.96901596
-0.8420728 -1.1530966 -0.4496287 -0.9707286 -0.95052683 -1.0180632 -0.94067943 -0.74690497
-1.1687055 -0.97788304 -0.8443679 -0.8571071 -0.8976935 -0.5402412 -0.96299386 -0.78749055
-0.9583313 -1.1315141 -0.5977141 -1.1339903 -0.6140377 -1.2916741 -0.9345532 -0.71978873
00000000: 83ff 80bf 9724 0fbf 63dd a9bf f768 19bf
00000010: e406 7ebf b768 23bf 5535 71bf 760b 84bf
00000020: 9d07 73bf 469b 7abf da6a bfbe b1a2 6dbf
00000030: bff7 5bbf 8ee1 59bf 810d 5dbf 9757 18bf
00000040: c6d4 8fbf ab43 2abf f300 4ebf 16e8 27bf
00000050: 9cb4 87bf a946 37bf af0d 66bf 24c3 4cbf
00000060: 92f6 44bf a116 cebf 9f6f f2be d97a a1bf
00000070: 1ca1 0cbf f4cd 8dbf db91 84bf eb1c 2ebf
00000080: 4887 21bf 04dd a7be d4aa 05bf 90ff 1cbf
00000090: 0050 e8be 0b8f fdbe 67e5 69bf 5616 15bf
000000a0: f944 35bf 7fad 09bf 78b5 9abe 1928 32bf
000000b0: 7ea8 dcbe be46 1abf ca30 1cbf 8382 00bf
000000c0: 7e63 1ebf 58d7 0fbf 183a fbbe 66b2 2ebf
000000d0: f4c8 febe dbb8 c9be 2654 19bf cd91 bdbe
000000e0: 3950 eebe 143d aa3f 1354 43be 300d 13bf
000000f0: 43d5 66be e17c 3dbf c822 3fbf c62f 1ebf
00000100: e69b 6bbd 3e40 5bbc 7252 223e 71d1 523c
00000110: 98b0 6abd 9a30 c33d 2877 523d 0dc3 31bd
00000120: 5297 c43b 0a78 a23a 16d5 3bbd 5770 4e3d
00000130: 1866 d5bc e5f3 cdbb cda1 4cbd 281f adbc
00000140: 9750 06be 2161 babc 075b dabc c623 a73c
00000150: a47e bebd d6be b83d 979c bf3b 44b0 723d
00000160: e4ca adbb b7da 873d a1c8 123d 2753 26be
00000170: abd0 83bd 5830 b33d 9053 84bd a44d b7bd
00000180: e08c 67bf e73a e4be 6d36 a1bf 7575 26bf
00000190: 69b4 7dbf 6910 5cbf 87a0 7abf 6e11 78bf
000001a0: 1592 57bf ab98 93bf bc35 e6be ab81 78bf
000001b0: ba55 73bf e54f 82bf 5ed0 70bf 2a35 3fbf
000001c0: 2498 95bf 8b56 7abf 7f28 58bf 5f6b 5bbf
000001d0: 3ecf 65bf 3f4d 0abf c486 76bf fb98 49bf
000001e0: 3355 75bf 74d5 90bf cb03 19bf 9826 91bf
000001f0: 9331 1dbf 9455 a5bf e13e 6fbf 1344 38bf

fc.weight f4 [1, 32]
0.05940521 -0.017048532 0.032625932 0.0013320096 0.021187918 -0.006686806 0.00072951615 -0.047899872
0.034072787 -0.0055392594 -0.002153539 0.00434794 0.06676297 -0.0020666828 -0.0052717784 0.0019080295
-0.0065955874 0.0048508686 0.008356266 -0.0041627316 -0.008994871 -0.0016904289 -0.0006881881 -0.0036057152
0.0018429259 -0.29286548 0.024624867 -0.038919795 -0.02103878 -0.00047905158 0.0060675777 -0.004141999
00000000: e152 733d 5da9 8bbc c5a2 053d d396 ae3a
00000010: 4992 ad3c ff1c dbbb 003d 3f3a a832 44bd
00000020: e88f 0b3d ad82 b5bb 6422 0dbb 2a79 8e3b
00000030: 06bb 883d 2f71 07bb e2be acbb d916 fa3a
00000040: cc1f d8bb 09f4 9e3b b8e8 083c 8667 88bb
00000050: 395f 13bc 6291 ddba 8667 34ba dd4d 6cbb
00000060: 558e f13a 77f2 95be 17ba c93c 5d6a 1fbd
00000070: 8559 acbc 3729 fbb9 88d2 c63b 9bb9 87bb
