ml_models/lstm_products/forecast_model_lstm_Wireless_Earbuds.pth (torch, 21553 bytes, 5 tensors)

lstm.weight_ih_l0 f4 [128, 1]
0	0xbf87df67	-1.0615052
1	0xbe7b0e8e	-0.24517271
2	0xbfe1c56d	-1.7638375
3	0xbe6f70d6	-0.23382887
4	0x3ecc606a	0.39917308
5	0xbe3baba0	-0.18327188
6	0x3f359b2f	0.70939916
7	0xbf26053e	-0.6485175
8	0xbf84c3a7	-1.0372208
9	0x3dc3d67d	0.09562395
10	0x3fcd3ea3	1.603474
11	0xbd3b9693	-0.045797896
12	0xbf510e3a	-0.81662333
13	0xbf3b66c8	-0.73203707
14	0xbdcae7d6	-0.099075004
15	0xbf396875	-0.72425014
16	0xbeefcda7	-0.46836588
17	0xbfb318fc	-1.3992
18	0xbf8888a3	-1.0666698
19	0xbf327a7b	-0.6971814
20	0xbe866abe	-0.26253313
21	0xbe2bc812	-0.1677554
22	0xbf76683c	-0.962528
23	0xbedf1eff	-0.43578336
24	0xbefbe871	-0.49200776
25	0x3fb66a8f	1.4251269
26	0x411d6346	9.836737
27	0xbf1919d8	-0.5980506
28	0xbf75c3c0	-0.96001816
29	0xbf01bfa3	-0.5068304
30	0xbe6b925c	-0.2300505
31	0xbeac37a3	-0.33636197
32	0xbf7cfb7b	-0.9882123
33	0xbe140621	-0.14455463
34	0xbf4c26a6	-0.7974647
35	0xbf5bf68e	-0.8592309
36	0xbf0d820e	-0.5527657
37	0xbe53365a	-0.20626202
38	0xbf0f5130	-0.5598326
39	0xbf217a00	-0.6307678
40	0xbf1fe7d9	-0.62463146
41	0xbfb393d6	-1.4029491
42	0xc0023f71	-2.0351222
43	0xbf22c837	-0.63586754
44	0xbf19fe49	-0.60153633
45	0xbef31abe	-0.4748134
46	0xbef8e92c	-0.48615396
47	0xbeaceb41	-0.33773234
48	0xbf68b780	-0.90905
49	0xbf5722fe	-0.8403777
50	0xbf6c8410	-0.9238901
51	0xbf05a85d	-0.52210027
52	0xbb9ec628	-0.0048453994
53	0xbfd5c060	-1.6699333
54	0xbf5147df	-0.8175029
55	0xbf0bafc5	-0.5456508
56	0xbec38872	-0.38190037
57	0xc0016c39	-2.0222304
58	0xc01e8b10	-2.4772377
59	0xbe336cc7	-0.17521964
60	0xbf121d1a	-0.57075655
61	0xbf818879	-1.0119773
62	0xbeaeda39	-0.34150866
63	0xbdff9ae5	-0.12480716
64	0xbf0bb3c4	-0.54571176
65	0x3e79da6f	0.24399732
66	0x3b762e5a	0.0037564249
67	0x3f05b6a5	0.5223182
68	0x3f2d488b	0.67688817
69	0xbe482d73	-0.19548588
70	0xbf1b241b	-0.6060197
71	0xbea88831	-0.32916406
72	0xbd06dfb2	-0.032928176
73	0xbebd95de	-0.37028402
74	0x402626e7	2.5961244
75	0xbece0b31	-0.40242913
76	0xbece62eb	-0.40309843
77	0xbbb23697	-0.0054386365
78	0xbe4e2b81	-0.20133783
79	0xbe5dc53b	-0.21657269
80	0xbf499f03	-0.7875826
81	0x3bfef88f	0.0077810953
82	0x3daf3e33	0.085567854
83	0x3ded64d5	0.11591498
84	0xbcb8f7ae	-0.02257904
85	0xbf398c7f	-0.72480005
86	0x3ea33544	0.31876576
87	0x3ecf7135	0.40516058
88	0xbd349aed	-0.04409306
89	0xbf264d74	-0.64961934
90	0xc09a209b	-4.81648
91	0xbc73e635	-0.014886429
92	0x3d5d3db8	0.054013938
93	0x3f0d4264	0.5517943
94	0x3e8c3ed6	0.2739169
95	0xbdca7a7d	-0.09886644
96	0xbf922328	-1.1416979
97	0xbe79274b	-0.24331395
98	0xbf76b043	-0.96362704
99	0xbf14e90d	-0.5816811
100	0xbfa673b8	-1.3004065
101	0xbddf3f93	-0.10900798
102	0xbf3e9ca3	-0.7445776
103	0xbf2c1098	-0.6721282
104	0xbf540a56	-0.8282827
105	0x3c336f65	0.0109518515
106	0xbfaf85e6	-1.3712738
107	0xbf07747e	-0.5291213
108	0xbefa64ec	-0.48905122
109	0xbe7442f9	-0.23853673
110	0xbe9d71ba	-0.3075083
111	0xbec38af5	-0.38191953
112	0xbf8a9e4f	-1.0829562
113	0xbf6962f4	-0.91166615
114	0xbf8b81dc	-1.0899005
115	0xbf147d73	-0.5800392
116	0xbdaac70d	-0.08338747
117	0xbedf2f47	-0.43590757
118	0xbf455e21	-0.77096754
119	0xbc9964de	-0.018724855
120	0xbf064f3f	-0.5246467
121	0x3e80c61d	0.25151148
122	0xbe93e794	-0.28887618
123	0xbebcd760	-0.36883068
124	0xbf5ec4e7	-0.870192
125	0xbf67c2db	-0.905317
126	0xbe578d8c	-0.2105009
127	0xbe9a4fed	-0.30139104

lstm.weight_hh_l0 f4 [128, 32]
0	0xbe09355e	-0.13399264
1	0xbdac5d52	-0.08416237
2	0xbd1d03d7	-0.03833374
3	0xbe32b319	-0.17451133
4	0x3c183c15	0.009291668
5	0x3e340771	0.17580964
6	0xbc74466f	-0.014909371
7	0xbcc072e9	-0.023492293
8	0x3b2d13a1	0.0026409405
9	0x3d9ba8e3	0.07600572
10	0xbecc9b83	-0.39962396
11	0x3d9ebb8b	0.07750615
12	0xbe8b770d	-0.27239266
13	0x3caa835d	0.020814592
14	0x3e3fd9ac	0.18735379
15	0xbdc7d1f0	-0.09756839
16	0xbe9b463f	-0.3032703
17	0x3d1350c5	0.0359657
18	0x3e868e6d	0.26280537
19	0xbdccda40	-0.100025654
20	0xbcb57414	-0.022150077
21	0x3dee034c	0.116217226
22	0x3f0f3cf6	0.55952394
23	0xbd89432c	-0.06702265
24	0xbdd26738	-0.10273594
25	0x3e2f4f42	0.17120078
26	0x3ef0de54	0.47044623
27	0x3eb65c5a	0.35617334
28	0xbe1f9e09	-0.1558763
29	0x3e3ae1b8	0.18250167
30	0xbdd07ed3	-0.1018044
31	0x3ee298c0	0.44257164
32	0x3e70cd18	0.23515737
33	0xbde9e4df	-0.11420607
34	0x3e171d7b	0.1475734
35	0x3cc6a5e7	0.02424903
36	0x3e1a9a33	0.15097885
37	0x3dfd93c0	0.12381697
38	0x3da98545	0.08277372
39	0x3de9e4dd	0.11420605
40	0xbd9659c0	-0.07341337
41	0x3df4ec66	0.11959152
42	0xbf7e514d	-0.99342805
43	0xbe2eb9f7	-0.17063127
44	0xbd54f24d	-0.05198889
45	0xbddf25a9	-0.10895855
46	0x3e79d723	0.24398474
47	0xbe3b407c	-0.18286318
48	0xbe6c9ae6	-0.23105964
49	0x3db5c2ea	0.088750675
50	0xbc242fd4	-0.010021169
51	0x3d0a5169	0.033769045
52	0x3e4dbe6f	0.20092176
53	0xbcc9c36d	-0.02462932
54	0x3dce7a73	0.10081949
55	0x3e3e4108	0.18579495
56	0x3dfe5002	0.12417604
57	0x3f444f19	0.76683193
58	0xbdc9cb1b	-0.098531924
59	0xbc352bca	-0.011057803
60	0x3cc3a26b	0.023881158
61	0x3d527938	0.051385134
62	0xbe923afa	-0.2856062
63	0xbe0f4e16	-0.13994631
64	0xbdde02cc	-0.10840377
65	0x3e5ae491	0.21376254
66	0x3db292a3	0.08719375
67	0xbdd06878	-0.10176176
68	0xbdedb1a4	-0.11606148
69	0x3ca3cbe3	0.019994682
70	0xbe2cefed	-0.168884
71	0xbdeed8e5	-0.11662463
72	0xbe0fd824	-0.14047295
73	0xbdd694f5	-0.1047763
74	0x3dd6ece5	0.10494403
75	0xbe172514	-0.14760238
76	0xbe955f2c	-0.29174173
77	0xbd998ae3	-0.07497194
78	0xbd96947d	-0.07352541
79	0xbddb5944	-0.107103854
80	0x3c09de1f	0.008414774
81	0xbe41a2f1	-0.18909813
82	0xbdb34e68	-0.08755189
83	0xbce4277f	-0.027850864
84	0xbdc64393	-0.096808575
85	0x3e305a16	0.17221865
86	0x3e570ff7	0.21002184
87	0x3e7026aa	0.23452249
88	0x3dc5b2ee	0.09653269
89	0x3e6d09ca	0.23148265
90	0xbc8d1ab8	-0.017224655
91	0x3e22bf60	0.15893316
92	0xbe13e6ab	-0.14443462
93	0xbcea58ad	-0.028606737
94	0xbd394df1	-0.045240346
95	0xbe112a7a	-0.1417636
96	0xbdb6ac70	-0.089196086
97	0x3eeda7fd	0.46417227
98	0xbd470f18	-0.04859838
99	0xbe4008c0	-0.18753338
100	0x3dddc695	0.10828892
101	0xbd33ac1f	-0.04386532
102	0xbd1db6f2	-0.03850455
103	0xbe5a0f69	-0.21294941
104	0xbde2b256	-0.11069171
105	0x3e09ac37	0.13444601
106	0xbde977b2	-0.11399783
107	0x3db69e7a	0.08916946
108	0x3e17b5d7	0.1481546
109	0xbe726511	-0.23671366
110	0x3e1533f9	0.14570607
111	0x3cf27e82	0.02960134
112	0xbe0753b8	-0.1321553
113	0xbd108c80	-0.03529024
114	0xbd925f12	-0.071470395
115	0x3d73ac61	0.059490565
116	0xbdfdc43a	-0.12390943
117	0x3beaf4ba	0.007170287
118	0xbc58681c	-0.013208415
119	0xbd013e29	-0.03155342
120	0xbd66e7a9	-0.056373272
121	0x3e97c787	0.29644415
122	0x3ea5c1cd	0.3237442
123	0x3da4cbbd	0.080466725
124	0xbdf531ea	-0.11972411
125	0x3d9b0312	0.07568945
126	0xbd990ee0	-0.0747354
127	0x3d7add36	0.06124612
128	0xbe14af41	-0.14519979
129	0x3d871496	0.06595723
130	0x3d93367e	0.07188128
131	0xbe213e5e	-0.15746447
132	0xbd2be5a8	-0.041967064
133	0x3d21f5ab	0.039540928
134	0xbe1e18c5	-0.15439136
135	0xbe1c1d1f	-0.15245484
136	0xbe50133e	-0.2031984
137	0x3e4abfb5	0.19799693
138	0xbe4130da	-0.18866292
139	0xbe110148	-0.14160645
140	0xbd86fe23	-0.065914415
141	0x3e008ef1	0.12554528
142	0x3eac80bd	0.3369197
143	0x3dc50c4a	0.096214846
144	0x3de42e72	0.11141671
145	0x3d96785b	0.07347175
146	0xbd00c266	-0.031435393
147	0xbe476f94	-0.19476157
148	0xbd7c081d	-0.061531175
149	0x3e4676e0	0.19381285
150	0x3d44f117	0.048081484
151	0x3e92b76d	0.28655568
152	0xbcb78ceb	-0.022406062
153	0x3f0bef41	0.5466195
154	0x3dbd6019	0.09246845
155	0x3d9becba	0.076135114
156	0xbe0d3466	-0.1378952
157	0x3dd27f3a	0.10278173
158	0x3dcec857	0.100968055
159	0x3e0ce90e	0.13760778
160	0x3dba4921	0.090959795
161	0x3deecec9	0.11660535
162	0xbd52bccc	-0.051449582
163	0x3d82febe	0.063962445
164	0x3e2a35da	0.16622105
165	0xbe388009	-0.18017592
166	0xbdcb78b5	-0.099351324
167	0xbe28880d	-0.16458149
168	0x3d647c5d	0.055782665
169	0x3e37c209	0.17945112
170	0xbf61d9ba	-0.8822285
171	0x3db3f616	0.087871715
172	0x3dbbfc55	0.09178988
173	0x3e5d7602	0.21627048
174	0x3e4b6f22	0.19866613
175	0xbe68b73b	-0.22726147
176	0xbddb2192	-0.106997624
177	0x3e061e1f	0.13097428
178	0xbba220fe	-0.0049477806
179	0xbd876abf	-0.06612157
180	0xbbbe419b	-0.0058061606
181	0x3de3ce8c	0.1112338
182	0x3dfec2db	0.124395095
183	0x3d96445b	0.073372565
184	0x3de6a443	0.11261799
185	0x3f39fd56	0.72652185
186	0x3e6ee42f	0.23329233
187	0xbd63763b	-0.055532675
188	0xbcdd591b	-0.027020028
189	0xbe5be5e6	-0.21474418
190	0xbe1e98bc	-0.15487951
191	0x3d93a387	0.07208925
192	0x3e4e5c40	0.20152378
193	0x3db7b86b	0.08970722
194	0x3e1641a7	0.14673482
195	0x3d5b14f7	0.05348679
196	0x3e0c9193	0.13727407
197	0xbd5060c8	-0.050873548
198	0x3ceb0e1d	0.028693253
199	0xbd9f8bce	-0.077903375
200	0xbdbdc46e	-0.092659816
201	0x3e5c3129	0.21503128
202	0xbe8dbb7b	-0.276821
203	0x3d32aebd	0.043623675
204	0xbe2214ea	-0.1582829
205	0x3bbf050c	0.005829459
206	0x3e9f158c	0.31071126
207	0xbe13fd6a	-0.14452139
208	0xbe5414b3	-0.20711021
209	0x3d69017a	0.056886174
210	0x3c5cd8d9	0.013479435
211	0x3c9e72e0	0.019341886
212	0xbd31f87c	-0.043449864
213	0x3cd17cc8	0.025572196
214	0xbe2c0b22	-0.16801122
215	0xbca4baf1	-0.020108672
216	0x3e2ae3f5	0.16688521
217	0x3ec631fc	0.3871001
218	0x3e2278c2	0.15866378
219	0xbde0f858	-0.10984868
220	0x3d7d0ee7	0.06178179
221	0xbdb25aff	-0.087087624
222	0xbdf187c4	-0.11793473
223	0xbd624a52	-0.05524666
224	0x3e2c7331	0.16840817
225	0x3df99447	0.12186485
226	0x3e2e0344	0.16993433
227	0xbda96e91	-0.08273042
228	0x3e88f0f0	0.2674632
229	0xbdd67458	-0.104714096
230	0xbd88d847	-0.06681877
231	0x3aec8587	0.0018045165
232	0x3dd67806	0.104721114
233	0x3e91c299	0.2846878
234	0xbed409a5	-0.41413608
235	0x3c1867a1	0.009302051
236	0x3d964c0b	0.07338723
237	0x3c9195a5	0.017771551
238	0x3e59b0f5	0.2125891
239	0x3e26cafe	0.16288373
240	0xbd00c163	-0.031434428
241	0xbca9262b	-0.020648083
242	0x3e261521	0.16218998
243	0xbe01deba	-0.1268262
244	0xbce01f8a	-0.027358789
245	0x3def2059	0.11676092
246	0xbd8f087e	-0.06984042
247	0x3dca84fe	0.098886475
248	0xbe3887b9	-0.18020524
249	0x3e89cb3b	0.26912865
250	0x3dcd30ed	0.100190975
251	0x3d1497b4	0.036277488
252	0xbdbfd05c	-0.09365913
253	0x3cd3b885	0.025844822
254	0x3bfb0dcc	0.007661557
255	0x3dea0c1a	0.114280894

lstm.bias_ih_l0 f4 [128]
0	0xbf96f72a	-1.1794178
1	0xbf31398e	-0.69228446
2	0xbf6377b9	-0.8885456
3	0xbf6835f1	-0.9070731
4	0xbf03c8e3	-0.51478404
5	0xbf705cb2	-0.9389144
6	0xbf3719b2	-0.7152358
7	0xbf66616d	-0.8999241
8	0xbf80eb18	-1.0071745
9	0xbf87bb69	-1.0604068
10	0xbf5a9065	-0.8537658
11	0xbf93a144	-1.1533589
12	0xbf9afcb6	-1.2108371
13	0xbf6bd3a8	-0.92119837
14	0xbf92f707	-1.1481637
15	0xbf3d3d97	-0.73922104
16	0xbf40a694	-0.7525418
17	0xbf4b1bdc	-0.79339385
18	0xbf97bece	-1.1855104
19	0xbf3564d2	-0.70856965
20	0xbf4de8fe	-0.8043364
21	0xbf71ef97	-0.9450621
22	0xbf7462fa	-0.95463526
23	0xbf3cceef	-0.73753256
24	0xbf716e22	-0.94308674
25	0xbfd2de8e	-1.6474168
26	0xbfc35bcf	-1.5262393
27	0xbf9d77d9	-1.23022
28	0xbf87da04	-1.0613408
29	0xbf80e851	-1.0070897
30	0xbf7844b4	-0.9697983
31	0xbf456a35	-0.77115184
32	0xbf460a70	-0.77359676
33	0xbee14b22	-0.44002634
34	0xbed61bb4	-0.4181801
35	0xbf31c578	-0.6944194
36	0xbe8a5600	-0.27018738
37	0xbeea7131	-0.45789483
38	0xbea717a9	-0.3263524
39	0xbf1b77d2	-0.60729706
40	0xbf03f3d5	-0.51543933
41	0xbf070c2c	-0.5275295
42	0xbe89b165	-0.26893154
43	0xbf1bf590	-0.60921574
44	0xbf73a71a	-0.9517685
45	0xbf5a2690	-0.8521509
46	0xbf1f3106	-0.6218418
47	0xbf1cbc94	-0.6122525
48	0xbf34e8a8	-0.70667505
49	0xbf0b6466	-0.5445007
50	0xbf55a9e3	-0.8346235
51	0xbf0ecea8	-0.5578408
52	0xbf3b71a7	-0.73220295
53	0xbf2697b0	-0.65075207
54	0xbf035d8b	-0.5131461
55	0xbede87b3	-0.43462905
56	0xbf237fa2	-0.6386663
57	0xbf00a5cc	-0.50252986
58	0x3fbbba29	1.4666187
59	0xbf3a49fa	-0.7276913
60	0xbf326412	-0.69683945
61	0xbf3fc444	-0.7490885
62	0xbf3b6c0f	-0.7321176
63	0xbefe8c44	-0.4971639
64	0xbd8484f9	-0.06470675
65	0xbe093bf4	-0.13401777
66	0x3c8e11aa	0.017342407
67	0xbdaaa47d	-0.08332155
68	0x3da9d26e	0.082920894
69	0x3ae8a24e	0.0017748566
70	0xbcb0d241	-0.021584632
71	0xbd4cc378	-0.0499911
72	0x3d05fcc9	0.032711778
73	0xbe062e23	-0.13103537
74	0xbda335e2	-0.07969262
75	0xbce56caf	-0.028005926
76	0xbc361060	-0.011112303
77	0x3cef63e7	0.029222442
78	0x3e15c2d2	0.146251
79	0x3a3730a1	0.0006988142
80	0xbcbaacd1	-0.022787483
81	0x3cba2432	0.022722337
82	0x3df3b2ee	0.118993625
83	0xbbe0ed14	-0.0068641994
84	0xbd0e7b49	-0.034785543
85	0xbdbf3fc8	-0.09338337
86	0xbda27c61	-0.0793388
87	0xbd40a113	-0.047028612
88	0x3b6f7922	0.0036540707
89	0x3de46089	0.11151225
90	0xbd09988a	-0.03359274
91	0x3da78491	0.08179582
92	0x3de354d7	0.11100166
93	0x3d8ea29f	0.06964611
94	0x3d9f2ccf	0.077722184
95	0xbe00b6a7	-0.12569676
96	0xbf739836	-0.9515413
97	0xbf408b2e	-0.7521237
98	0xbf3ed840	-0.7454872
99	0xbf881fd4	-1.0634713
100	0xbf341dc7	-0.70357937
101	0xbf4a91c0	-0.79128647
102	0xbf406844	-0.75159097
103	0xbf612219	-0.87942654
104	0xbf8af066	-1.0854614
105	0xbf79e0ec	-0.9760883
106	0xbf644c0c	-0.8917854
107	0xbf90d7d1	-1.1315862
108	0xbfad66e9	-1.3547031
109	0xbf8b58ce	-1.0886476
110	0xbf6d216f	-0.9262914
111	0xbf0a098f	-0.53920835
112	0xbf567009	-0.837647
113	0xbf71da89	-0.94474083
114	0xbfa8f6c6	-1.3200309
115	0xbf5726e7	-0.84043735
116	0xbf879f04	-1.0595403
117	0xbf9217b9	-1.141349
118	0xbf7cdc30	-0.9877348
119	0xbf327f16	-0.6972517
120	0xbf7363b4	-0.9507401
121	0xbfb78f81	-1.4340669
122	0xbf8df009	-1.1088878
123	0xbf8ce781	-1.1008149
124	0xbf733520	-0.9500294
125	0xbf65bb18	-0.8973861
126	0xbf86e71e	-1.0539281
127	0xbf6191e9	-0.88113266

lstm.bias_hh_l0 f4 [128]
0	0xbf866ff8	-1.050292
1	0xbf3f4c0b	-0.7472541
2	0xbf45105f	-0.76978105
3	0xbf6ae247	-0.9175152
4	0xbf3199b0	-0.69375134
5	0xbf2153bb	-0.6301839
6	0xbf7c34a4	-0.98517823
7	0xbf848280	-1.0352325
8	0xbf5b3d13	-0.85640067
9	0xbf66d335	-0.90166026
10	0xbf77bcde	-0.96772563
11	0xbf8f1bd6	-1.118037
12	0xbf9850d1	-1.1899663
13	0xbf6ad9d8	-0.91738653
14	0xbf6100ef	-0.8789205
15	0xbf44a171	-0.7680884
16	0xbf7dee72	-0.99191964
17	0xbf8a0d5d	-1.0785328
18	0xbf904e57	-1.1273907
19	0xbf198f9f	-0.59984773
20	0xbf87a054	-1.0595803
21	0xbf9db8dc	-1.232204
22	0xbf81d13f	-1.0141982
23	0xbf3375b8	-0.701015
24	0xbf8cf783	-1.1013035
25	0xbfd2b50b	-1.64615
26	0xbfd22757	-1.6418256
27	0xbf9d5798	-1.2292356
28	0xbf8a42e5	-1.0801665
29	0xbf90d065	-1.1313597
30	0xbf843f4b	-1.0331815
31	0xbf171528	-0.59016657
32	0xbf2a2b93	-0.6647274
33	0xbf21965c	-0.63120055
34	0xbf2a31ee	-0.66482437
35	0xbee43e78	-0.4457891
36	0xbec8f8cf	-0.39252326
37	0xbf0ce900	-0.5504303
38	0xbf10b204	-0.5652163
39	0xbf24b76b	-0.64342374
40	0xbf371c14	-0.7152722
41	0xbf020e46	-0.5080303
42	0xbe9edd55	-0.31028238
43	0xbedac1a0	-0.4272585
44	0xbf839e24	-1.0282636
45	0xbf173e5d	-0.59079534
46	0xbf302281	-0.6880265
47	0xbef0ffc1	-0.47070125
48	0xbf0174be	-0.5056876
49	0xbf299581	-0.6624375
50	0xbf70ca8d	-0.9405907
51	0xbef52daa	-0.478864
52	0xbf0fd5d6	-0.5618566
53	0xbf0542ba	-0.5205494
54	0xbf245211	-0.64187723
55	0xbed94d9c	-0.42442024
56	0xbf20abc8	-0.6276212
57	0xbebe72f8	-0.3719709
58	0x3fb16ac1	1.3860704
59	0xbf701c54	-0.93793225
60	0xbf46501a	-0.77465975
61	0xbf3bf79e	-0.7342471
62	0xbf37879f	-0.71691316
63	0xbf0e666c	-0.55625033
64	0x3d83bf36	0.06432955
65	0x3e081715	0.13290055
66	0xbc88043f	-0.016603587
67	0x3da6546f	0.08121573
68	0xbdab8e9d	-0.08376811
69	0x3a71d585	0.00092252373
70	0x3cb0f11f	0.02159935
71	0x3d4edfc5	0.050506372
72	0xbd0a695a	-0.033791877
73	0x3e090b66	0.13383254
74	0x3dc3e0e6	0.0956438
75	0x3cea7834	0.02862177
76	0x3c28b54b	0.01029713
77	0xbcefd263	-0.029275125
78	0xbe1412d3	-0.14460306
79	0x3a118c81	0.0005552248
80	0x3cb71661	0.022349538
81	0xbcc0963e	-0.023509141
82	0xbdf35246	-0.11880927
83	0x3be9249c	0.00711496
84	0x3d0e4336	0.034732066
85	0x3dbdaea9	0.092618294
86	0x3da2507a	0.07925506
87	0x3d4250c6	0.047440313
88	0xbb49af23	-0.0030774556
89	0xbdbd408d	-0.09240828
90	0xbdd89a2d	-0.10576282
91	0xbda8d01d	-0.082428195
92	0xbdb320dc	-0.08746502
93	0xbd8ec08c	-0.06970319
94	0xbda49864	-0.08036879
95	0x3e009646	0.12557325
96	0xbf87b66e	-1.0602548
97	0xbf0dd307	-0.5540013
98	0xbf4e0f5d	-0.8049219
99	0xbf4bbac0	-0.7958183
100	0xbf278d02	-0.65449536
101	0xbf24fa5e	-0.6444453
102	0xbf81cdb1	-1.0140897
103	0xbf5969a8	-0.84926844
104	0xbf4aba04	-0.7919009
105	0xbf55f582	-0.8357774
106	0xbf8d052a	-1.1017201
107	0xbf8a1aa2	-1.0789378
108	0xbfafbc9b	-1.3729433
109	0xbf998ee5	-1.1996733
110	0xbf863bc0	-1.0486984
111	0xbf4c9fad	-0.79931146
112	0xbf54b429	-0.830874
113	0xbf4b7048	-0.794682
114	0xbf964a6b	-1.174146
115	0xbf322f18	-0.6960311
116	0xbf581c3f	-0.844181
117	0xbf7a4a38	-0.977695
118	0xbf5014de	-0.8128184
119	0xbf44e0f2	-0.7690574
120	0xbf91ac2e	-1.138067
121	0xbfbd912d	-1.4809929
122	0xbf884646	-1.0646446
123	0xbf8f5983	-1.1199192
124	0xbf59b3aa	-0.8503977
125	0xbf757839	-0.9588657
126	0xbf80c7f4	-1.0061021
127	0xbf5df32d	-0.8669918

fc.weight f4 [1, 32]
0	0x3acf0466	0.0015794158
1	0x39551295	0.00020320185
2	0xb862bef9	-5.4060456e-05
3	0xba54aa80	-0.00081125647
4	0xba1dfd4c	-0.0006026819
5	0xba659500	-0.00087578595
6	0x398bcb7d	0.00026663757
7	0xb9a000e2	-0.00030518236
8	0xba47abfd	-0.0007616876
9	0x3b08402e	0.0020790207
10	0xbc7b2ae4	-0.01533005
11	0xb97ffa95	-0.00024412044
12	0x3b17e9e3	0.0023180179
13	0xba2a890e	-0.0006505408
14	0x399ee895	0.00030309396
15	0x39372ead	0.00017469628
16	0x3ac606a8	0.0015108185
17	0xb9bf0895	-0.00036436753
18	0x3a5e89fd	0.000848919
19	0xba913248	-0.0011077607
20	0xbacfd8b6	-0.0015857432
21	0x3b783a13	0.0037876412
22	0x3a37685f	0.00069964485
23	0xba135a2f	-0.00056210434
24	0x39783e8b	0.00023674422
25	0xbdb8e767	-0.090285115
26	0x3ed86fcf	0.42272803
27	0x3919d309	0.00014669834
28	0x3cf2ab14	0.029622592
29	0xbaa277d9	-0.0012395337
30	0x3aabe2f0	0.0013113897
31	0x3a93b4cc	0.0011269092
