ml_models/lstm_products/forecast_model_lstm_Smartphone.pth (torch, 21481 bytes, 5 tensors)

lstm.weight_ih_l0 f4 [128, 1]
0.64282715 -0.11244052 -0.6093074 -0.29030287 -0.0032911976 -0.30349806 -0.11442043 1.6951861
-0.4873559 -0.7570649 -0.19315052 0.5340773 6.959658 0.328167 2.4509969 0.0006765304
-1.1271038 1.050953 3.3302417 -0.63027924 -0.18216719 -0.04635188 -0.20329668 -0.55034614
-0.40379518 0.10106271 0.3045212 -0.15559387 -0.18525633 -0.49477315 -0.3131482 -0.19668081
-0.810585 -0.9986256 -0.82352716 -0.33776698 -0.74585426 -0.38015643 -0.40359682 -0.5032457
-0.7663327 -0.3364186 -0.7267836 -0.0568628 -1.7620604 -0.704933 -1.0126047 -0.38959283
-0.3212073 -0.6329908 -1.1397457 -0.33112308 -0.48490158 -0.5604613 -0.33196655 -0.17076072
-0.56318825 -0.47091222 -0.2967979 -0.76570904 -0.43000454 -0.3703395 -0.5438787 -0.12036846
1.310116 0.8777504 0.26956853 0.17502776 -0.587231 0.37302926 0.38347244 1.3777322
-0.01462733 -0.12804447 -0.30266786 -0.51704127 -4.6547914 -1.3294854 2.1518881 -0.6661687
0.13344246 1.6790435 3.2666256 0.10394685 0.25227505 -0.4040359 -0.2814663 0.044900656
0.1888107 -0.35577655 0.41343814 0.5236702 0.30425876 0.12670255 0.9104973 0.28304183
-0.9042178 -0.8783334 -0.51271766 -0.3188608 -0.25061 -0.35341066 -0.22682513 -0.49401337
-0.38145292 -0.36306557 -0.4038128 -0.040622625 -0.61722875 -0.7032079 -0.8195721 -0.7967669
-0.52674717 -0.8541883 0.0076160436 -0.56267947 -0.20905222 -0.35745546 -0.20157428 -0.20710056
-0.49035063 -0.5923175 -0.29454198 -0.48661196 -0.03076682 -0.010800879 -0.60021365 -0.15777387
00000000: 5290 243f 3747 e6bd 92fb 1bbf 94a2 94be
00000010: 22b1 57bb 1964 9bbe 4255 eabd dcfb d83f
00000020: b686 f9be 01cf 41bf 40c9 45be 4ab9 083f
00000030: 85b5 de40 8105 a83e 22dd 1c40 3059 313a
00000040: f044 90bf a185 863f ae22 5540 fb59 21bf
00000050: 098a 3abe 78db 3dbd 012d 50be 7ce3 0cbf
00000060: 3ebe cebe f7f9 ce3d 34ea 9b3e 0054 1fbe
00000070: d6b3 3dbe e852 fdbe f654 a0be b266 49be
00000080: 8082 4fbf eda5 7fbf add2 52bf cbef acbe
00000090: 4ef0 3ebf dda3 c2be 3ea4 cebe b6d4 00bf
000000a0: 612e 44bf 0f3f acbe 7d0e 3abf f8e8 68bd
000000b0: 328b e1bf 7d76 34bf 089d 81bf b678 c7be
000000c0: 4975 a4be af0b 22bf 30e3 91bf f788 a9be
000000d0: 0545 f8be 647a 0fbf 85f7 a9be e6db 2ebe
000000e0: 1b2d 10bf 681b f1be e5f5 97be 8205 44bf
000000f0: 8e29 dcbe 249d bdbe a23b 0bbf bd83 f6bd
00000100: e2b1 a73f 40b4 603f e304 8a3e 7a3a 333e
00000110: c554 16bf b1fd be3e 8056 c43e 8759 b03f
00000120: 78a7 6fbc 171e 03be 48f7 9abe d15c 04bf
00000130: 0df4 94c0 942c aabf 89b8 0940 088a 2abf
00000140: 24a5 083e e6ea d63f 6510 5140 16e2 d43d
00000150: 322a 813e cbdd cebe 5a1c 90be c0e9 373d
00000160: 9857 413e 5828 b6be 2aae d33e 400f 063f
00000170: cec7 9b3e 50be 013e 5a16 693f dcea 903e
00000180: d17a 67bf 75da 60bf 7741 03bf b941 a3be
00000190: f44f 80be 3ef2 b4be d944 68be 52ef fcbe
000001a0: cc4d c3be bbe3 b9be 8dc0 cebe e963 26bd
000001b0: b402 1ebf 6f05 34bf 7acf 51bf eaf8 4bbf
000001c0: e7d8 06bf 16ac 5abf 0190 f93b c30b 10bf
000001d0: c911 56be 6704 b7be 7d69 4ebe 2b12 54be
000001e0: 3d0f fbbe 1fa2 17bf 35ce 96be 3425 f9be
000001f0: b30a fcbc 2cf6 30bc 9aa7 19bf 798f 21be

lstm.weight_hh_l0 f4 [128, 32]
-0.046269126 0.23605563 0.17145506 0.036045272 0.40054387 -0.059578486 -0.34508407 -0.28341424
0.010264311 0.03340242 0.18594585 0.07310475 0.12751009 0.015981114 0.057288323 0.05929744
-0.31540072 -0.040990055 0.2531752 0.08583206 -0.28443897 0.09061804 0.106215596 0.13679735
-0.07981285 0.29847035 -0.29766443 -0.057837646 -0.1519808 0.30063662 0.0888841 -0.04082464
0.1619985 0.3140571 -0.0595172 0.006554737 0.15991268 -0.07627502 -0.18121557 -0.18982552
-0.090639554 -0.21087222 0.2934735 0.23638232 0.0470404 -0.016006824 0.15175149 -0.109535135
-0.03186174 -0.1736593 0.19614252 0.33636528 -0.23871689 0.2670215 0.03895749 0.008288322
0.08575533 0.09830928 -0.19298904 0.044583432 0.017285096 0.30463788 0.19502522 -0.015859783
0.11476943 0.070791334 -0.21536228 -0.09462635 -0.08360774 -0.20413838 -0.11576976 -0.06602751
0.1068441 -0.077070706 0.084250964 0.3030344 0.08633758 -0.10574966 0.026476573 -0.17674041
-0.22926226 0.040533654 0.08177498 0.24040487 -0.18657295 0.09019793 0.08700029 0.0074523855
-0.082521066 0.22009423 -0.064464904 0.007573419 -0.019612022 0.038497843 0.2086037 -0.059766185
0.1721065 0.283688 0.07900233 -0.17984033 0.090121485 -0.10139636 -0.12810667 -0.17583053
-0.01474268 0.045597993 0.26872423 0.07698585 -0.13783552 0.010311591 0.088551715 0.090691954
-0.094504826 0.07573473 0.23063631 0.23126064 -0.23161861 0.2216166 -0.023437032 0.032509588
-0.17070118 0.21551928 -0.075675525 0.20859297 -0.20402771 0.26340076 0.092594646 -0.23191129
0.05056339 0.009177017 -0.08417471 0.09245966 -0.050745126 -0.092472315 -0.12020753 -0.26427883
-0.036594644 0.0046787052 0.16124587 0.029201811 -0.04278992 -0.13264227 -0.097994484 -0.012198706
0.02288601 -0.13857502 0.21570788 0.2187432 -0.18679649 0.04049225 0.016893646 0.1589003
0.07457313 -0.12686162 -0.09737059 -0.117696024 0.13456906 0.22831164 0.23587331 -0.08282402
0.1911319 0.2232322 0.037955686 -0.12863876 -0.023763059 -0.0151866255 -0.26758805 0.042320047
0.13447613 0.057351246 0.48585248 0.2697422 -0.07689505 -0.3171234 0.24053693 -0.20601173
0.019677464 0.05176066 0.2180651 0.30737793 0.0044895383 0.22876105 0.11985262 0.1532934
0.19036916 -0.09537383 -0.29654875 0.074776225 0.11493452 0.4119539 0.35206932 -0.13895749
0.2303838 0.24736995 -0.0026260498 -0.2873041 -0.12867472 0.0010221836 -0.1274291 0.14841075
-0.10824418 -0.16750135 0.49368387 0.20987986 -0.05064401 -0.3016774 -0.0060844645 0.024620341
-0.0046461998 -0.16977519 0.511062 0.08975892 -0.14950383 0.4859575 0.2827089 0.1507795
0.2295542 -0.17391704 -0.10598198 0.03550024 -0.060592923 0.30329266 0.26911476 -0.027216319
0.032237615 0.09281566 0.23571314 -0.05245391 0.3717881 0.064602576 -0.22966883 -0.4031946
0.04344933 -0.17136085 0.60350066 0.26741517 -0.055520076 -0.027282136 -0.2727556 -0.070615366
-0.09591975 0.05926403 0.14733694 0.23386629 -0.017255748 0.1912675 0.057549786 -0.049491774
-0.36735785 0.36758906 -0.06343667 0.16426377 0.0066145565 0.3252386 -0.00033116716 -0.32440057
00000000: b284 3dbd 91b8 713e ea91 2f3e 35a4 133d
00000010: 1614 cd3e 9208 74bd dcae b0be ac1b 91be
00000020: a42b 283c fad0 083d 9768 3e3e f1b7 953d
00000030: 0192 023e d3ea 823c 29a7 6a3d dfe1 723d
00000040: 347c a1be 30e5 27bd 2ea0 813e b8c8 af3d
00000050: fca1 91be f395 b93d 9087 d93d 9b14 0c3e
00000060: eb74 a3bd 1bd1 983e 7967 98be 2be7 6cbd
00000070: dba0 1bbe 0bed 993e de08 b63d bd37 27bd
00000080: efe2 253e 18cc a03e 4fc8 73bd 1fc9 d63b
00000090: 26c0 233e 1436 9cbd 9390 39be 9f61 42be
000000a0: 3ba1 b9bd e3ee 57be 2942 963e 350e 723e
000000b0: 6fad 403d be20 83bc be64 1b3e f553 e0bd
000000c0: 7581 02bd bed3 31be 96d9 483e 1238 ac3e
000000d0: 3372 74be 0bb7 883e e491 1f3d becb 073c
000000e0: 7ea0 af3d 6056 c93d eb9e 45be 1e9d 363d
000000f0: 7999 8d3c 7ff9 9b3e b1b4 473e 60ec 81bc
00000100: 3c0c eb3d 0cfb 903d ee87 5cbe 76cb c1bd
00000110: 893a abbd a709 51be b218 edbd 6e39 87bd
00000120: 14d1 da3d 3fd7 9dbd c58b ac3d 5327 9b3e
00000130: c2d1 b03d 4793 d8bd 66e5 d83c 70fb 34be
00000140: bac3 6abe 9e06 263d a479 a73d b22c 763e
00000150: fb0c 3fbe b1b9 b83d 352d b23d 2433 f43b
00000160: ce00 a9bd 6260 613e 2d06 84bd 712a f83b
00000170: 64a9 a0bc eaaf 1d3d 359c 553e 63cd 74bd
00000180: b03c 303e 8e3f 913e f9cb a13d 1028 38be
00000190: 9d91 b83d e5a8 cfbd 652e 03be eb0c 34be
000001a0: 488b 71bc f6c4 3a3d 3996 893e c2aa 9d3d
000001b0: c124 0dbe f3f1 283c 9a5a b53d b4bc b93d
000001c0: bf8b c1bd cf1a 9b3d ed2b 6c3e 97cf 6c3e
000001d0: 6e2d 6dbe 76ef 623e 05ff bfbc c628 053d
000001e0: 4acc 2ebe 16b1 5c3e c5fb 9abd 6599 553e
000001f0: a4ec 50be 77dc 863e 43a2 bd3d 277a 6dbe
00000200: 8f1b 4f3d 335b 163c ca63 acbd 7d5b bd3d
00000210: 1fda 4fbd 2062 bdbd 5e2f f6bd 8e4f 87be
00000220: 44e4 15bd d34f 993b a31d 253e a338 ef3c
00000230: 7c44 2fbd 60d3 07be 55b1 c8bd 15dd 47bc
00000240: 717b bb3c 9ce6 0dbe 87e2 5c3e 38fe 5f3e
00000250: 9447 3fbe 34db 253d 8b64 8a3c c3b6 223e
00000260: ccb9 983d 03e8 01be 3b6a c7bd 9d0a f1bd
00000270: 79cc 093e 87ca 693e c688 713e a49f a9bd
00000280: 15b8 433e fb96 643e 6c77 1b3d e1b9 03be
00000290: bfaa c2bc 53d1 78bc 4d01 89be c957 2d3d
000002a0: 1cb4 093e 24e9 6a3d a8c1 f83e a61b 8a3e
000002b0: 277b 9dbd 005e a2be 504f 763e bdf4 52be
000002c0: a232 a13c fc02 543d 754c 5f3e a460 9d3e
000002d0: fa1c 933b 5640 6a3e 4a75 f53d f2f8 1c3e
000002e0: 22f0 423e 5b53 c3bd 3dd5 97be 4724 993d
000002f0: ca62 eb3d 9feb d23e 6e42 b43e df4a 0ebe
00000300: bbe9 6b3e 8c4e 7d3e ce19 2cbb 8619 93be
00000310: 4ec3 03be cafa 853a c67c 02be fdf8 173e
00000320: 20af ddbd 7985 2bbe 22c4 fc3e bfea 563e
00000330: 1870 4fbd 7675 9abe 3060 c7bb 99b0 c93c
00000340: 263f 98bb 8cd9 2dbe f6d4 023f 86d3 b73d
00000350: 8817 19be 6ccf f83e 39bf 903e f165 1a3e
00000360: 4210 6b3e 4f17 32be 150d d9bd b368 113d
00000370: 4930 78bd 2d49 9b3e 69c9 893e c2f4 debc
00000380: 970b 043d 2316 be3d c95e 713e e9d9 56bd
00000390: 035b be3e 5b4e 843d 4e2e 6bbe 866f cebe
000003a0: edf7 313d 3879 2fbe 057f 1a3f a4ea 883e
000003b0: 0569 63bd c97e dfbc 9fa6 8bbe ca9e 90bd
000003c0: 9371 c4bd d7be 723d 7fdf 163e a57a 6f3e
000003d0: ed5b 8dbc a1db 433e 53b9 6b3d e3b7 4abd
000003e0: 5416 bcbe a234 bc3e 16eb 81bd c334 283e
000003f0: ecbe d83b ac85 a63e 81a0 adb9 d517 a6be

lstm.bias_ih_l0 f4 [128]
-0.49294212 -0.82745105 -0.58507955 -0.83160824 -0.8208326 -1.1534039 -1.1532764 -1.137509
-1.1766506 -0.5727907 -0.8942133 -1.0546428 -1.4587016 -0.48885512 -0.7506333 -0.8110652
-0.8976281 -0.92547894 -0.5558693 -1.0756042 -1.1199281 -0.8608859 -0.78213906 -0.9519557
-0.90988773 -1.1420075 -1.1701401 -0.6798926 -1.0340447 -0.5888154 -0.47483417 -0.9654867
-0.19017169 -0.3860596 -0.41100723 -0.37490606 -0.34122404 -0.6730278 -0.77193034 -0.2144396
-0.90127593 -0.57220787 -0.580997 -0.5145934 1.2764695 -0.26592895 -0.22203285 -0.65661365
-0.73755556 -0.3362218 -0.1392159 -0.49792376 -0.7111666 -0.37967768 -0.3760382 -0.71596044
-0.72376186 -0.6130211 -0.70333076 -0.67222005 -0.85654557 -0.31076866 -0.3903206 -0.77776504
-0.018980864 0.03910455 -0.004646093 0.023566635 0.16931629 -0.09808413 -0.07763093 0.09387478
0.13782074 -0.052382335 -0.09186582 0.048810232 0.0045855846 -0.027660824 0.059080128 -0.00088934123
-0.057462443 0.023833752 0.00096432026 -0.10647173 0.046163786 0.06168888 0.039774816 -0.0030713829
-0.07992641 -0.09063586 -0.02674454 0.010717874 0.09991078 0.112731695 -0.029325288 0.055777635
-0.7247984 -0.61313593 -0.6826317 -0.83852863 -0.7839113 -1.0318403 -1.1963868 -1.1863313
-1.3757714 -0.75054806 -0.89081717 -1.1911844 -0.956099 -0.67460465 -0.71205056 -0.9347114
-0.82872367 -1.0559603 -0.34029093 -0.9122904 -1.2536399 -0.7547754 -0.629438 -0.75799733
-1.0643313 -0.9499707 -1.2130353 -0.55573475 -1.1775028 -0.5420395 -0.55053645 -1.0103517
00000000: e962 fcbe d5d3 53bf c6c7 15bf 47e4 54bf
00000010: 1622 52bf bda2 93bf 909e 93bf e599 91bf
00000020: 7d9c 96bf 69a2 12bf 2aeb 64bf 89fe 86bf
00000030: bcb6 babf 384b fabe 8129 40bf f8a1 4fbf
00000040: f5ca 65bf 30ec 6cbf 734d 0ebf 66ad 89bf
00000050: ce59 8fbf 0563 5cbf 443a 48bf 5eb3 73bf
00000060: 67ee 68bf 4d2d 92bf 27c7 95bf 710d 2ebf
00000070: 945b 84bf 9bbc 16bf 771d f3be 232a 77bf
00000080: 5ebc 42be 9ba9 c5be 8a6f d2be b0f3 bfbe
00000090: ebb4 aebe 8d4b 2cbf 3a9d 45bf 0e96 5bbe
000000a0: 05ba 66bf 377c 12bf 38bc 14bf 65bc 03bf
000000b0: 5a63 a33f d727 88be 945c 63be d517 28bf
000000c0: 71d0 3cbf 4425 acbe 9d8e 0ebe ddef febe
000000d0: 040f 36bf 1d65 c2be 1488 c0be 2f49 37bf
000000e0: 7548 39bf f3ee 1cbf 7c0d 34bf 9d16 2cbf
000000f0: 9246 5bbf 121d 9fbe 1ad8 c7be 9c1b 47bf
00000100: c27d 9bbc 182c 203d 413e 98bb d10e c13c
00000110: 4061 2d3e 55e0 c8bd f7fc 9ebd 6c41 c03d
00000120: e120 0d3e dc8e 56bd 2624 bcbd 3ded 473d
00000130: ac42 963b f498 e2bc 01fe 713d ae22 69ba
00000140: bd5d 6bbd 003f c33c 70ca 7c3a da0d dabd
00000150: 3d16 3d3d 7bad 7c3d ebea 223d 4149 49bb
00000160: 75b0 a3bd 4b9f b9bd 5e17 dbbc 069a 2f3c
00000170: 069e cc3d e0df e63d 963b f0bc 1777 643d
00000180: 638c 39bf 7af6 1cbf f3c0 2ebf d0a9 56bf
00000190: 69ae 48bf 5813 84bf 3423 99bf b4d9 97bf
000001a0: 4719 b0bf eb23 40bf 980c 64bf bb78 98bf
000001b0: e7c2 74bf e4b2 2cbf f248 36bf 3f49 6fbf
000001c0: 3c27 54bf b529 87bf 9d3a aebe dd8b 69bf
000001d0: 4677 a0bf f638 41bf d922 21bf 1d0c 42bf
000001e0: 023c 88bf 4831 73bf be44 9bbf a244 0ebf
000001f0: 69b8 96bf 1ac3 0abf f5ef 0cbf 3453 81bf

lstm.bias_hh_l0 f4 [128]
-0.74485505 -0.72447395 -0.7997471 -0.8234722 -0.74844277 -1.1102399 -1.1491971 -1.3593379
-1.3451031 -0.72480464 -0.85390997 -1.1042284 -1.3247892 -0.4483635 -0.69879913 -1.0835878
-1.0007191 -1.0838821 -0.5349751 -0.80307096 -1.0883672 -0.8840777 -0.8232189 -0.8638782
-1.0241293 -1.1397146 -1.314217 -0.75771224 -1.0669514 -0.47276095 -0.504715 -0.9623256
-0.45020303 -0.41345513 -0.3429521 -0.5489085 -0.48717186 -0.5752489 -0.7536599 -0.43300664
-0.99685776 -0.470052 -0.7321279 -0.7175551 1.4375893 -0.24154626 -0.02064768 -0.6121178
-0.7801563 -0.36048964 -0.023674656 -0.56926847 -0.91394675 -0.44195458 -0.6332416 -0.518541
-0.5261033 -0.6218373 -0.7405347 -0.43553096 -0.7197991 -0.37195164 -0.18325686 -0.63856703
0.021469282 -0.038279727 0.005305395 -0.022837672 -0.1704291 0.097555436 0.0796495 -0.09330014
-0.13818182 0.054426376 0.09032683 -0.050422546 0.021263108 0.026922872 -0.0588466 -0.000315992
0.058262013 -0.021140292 -0.0031420183 0.107745245 -0.04582956 -0.06175986 -0.03850218 0.002960903
0.08167007 0.08943587 0.028245974 -0.012580804 -0.10106326 -0.11266062 0.030132663 -0.055106543
-0.67187685 -0.6787453 -0.83346134 -0.7172908 -0.85293037 -1.2854013 -1.0021242 -1.3572541
-1.3802024 -0.5505826 -0.81851274 -1.0383686 -1.0707349 -0.6899494 -0.89647734 -0.9624565
-0.9877413 -0.9758446 -0.62779117 -0.9105885 -0.9984967 -0.86944306 -0.8498519 -0.7624317
-0.76906735 -0.98681885 -1.1212767 -0.5511357 -0.9395838 -0.3741763 -0.5862008 -1.201925
00000000: d2ae 3ebf 2077 39bf 3abc 4cbf 13cf 52bf
00000010: f299 3fbf 571c 8ebf e418 93bf c9fe adbf
00000020: 572c acbf cc8c 39bf d899 5abf 5b57 8dbf
00000030: b192 a9bf e78f e5be 80e4 32bf 01b3 8abf
00000040: 9017 80bf a6bc 8abf 21f4 08bf 0f96 4dbf
00000050: 9e4f 8bbf eb52 62bf 79be 52bf 1f27 5dbf
00000060: ab16 83bf 2be2 91bf 4338 a8bf 6ef9 41bf
00000070: dd91 88bf b90d f2be 0135 01bf f85a 76bf
00000080: 0381 e6be 64b0 d3be 6b97 afbe 4485 0cbf
00000090: 976e f9be 8343 13bf dbef 40bf 0cb3 ddbe
000000a0: 1232 7fbf a8aa f0be bc6c 3bbf b1b1 37bf
000000b0: ed02 b83f e757 77be 5325 a9bc c1b3 1cbf
000000c0: 53b8 47bf 1992 b8be 5af1 c1bc 94bb 11bf
000000d0: 6af8 69bf df47 e2be 1f1c 22bf 1abf 04bf
000000e0: b5ae 06bf bb30 1fbf af93 3dbf eafd debe
000000f0: c144 38bf 7270 bebe b0a7 3bbe 2179 23bf
00000100: 59e0 af3c 34cb 1cbd e1d8 ad3b 1216 bbbc
00000110: f784 2ebe 25cb c73d 471f a33d 2514 bfbd
00000120: 897f 0dbe 31ee 5e3d 46fd b83d df87 4ebd
00000130: f82f ae3c 5b8d dc3c 2209 71bd baab a5b9
00000140: 26a4 6e3d 682e adbc 52ea 4dbb 8aa9 dc3d
00000150: c7b7 3bbd e8f7 7cbd 76b4 1dbd b60b 423b
00000160: a342 a73d 272a b73d 1a64 e73c b71f 4ebc
00000170: 41fa cebd 9cba e6bd c6d8 f63c 66b7 61bd
00000180: 1f00 2cbf 41c2 2dbf b95d 55bf 5fa0 37bf
00000190: a559 5abf 0888 a4bf 9b45 80bf 81ba adbf
000001a0: 79aa b0bf fbf2 0cbf 0d8a 51bf 43e9 84bf
000001b0: d70d 89bf 86a0 30bf 8a7f 65bf 8d63 76bf
000001c0: 9ddc 7cbf f4d0 79bf ecb6 20bf 541c 69bf
000001d0: 7b9d 7fbf d293 5ebf e58f 59bf b92e 43bf
000001e0: 99e1 44bf 29a0 7cbf ff85 8fbf 3b17 0dbf
000001f0: 9088 70bf 0994 bfbe 4111 16bf aed8 99bf

fc.weight f4 [1, 32]
-0.010188017 -0.0081656175 0.0021366684 -0.0017169364 0.007006049 -0.0015698754 -0.0016924343 -0.010623759
-0.00301386 0.0017914728 0.00058665196 0.0040465896 0.3454765 0.01212962 -0.032475922 0.0033512919
-3.6898527e-05 -0.011510398 -0.047501713 -0.003211365 0.00028480354 0.0047536567 0.0005723179 0.0013802333
0.0009255642 0.005705512 -0.001694711 -0.00023155674 -0.0038321447 -0.00087233406 -0.0072928504 9.1732254e-05
00000000: a4eb 26bc 15c9 05bc 5907 0c3b d30a e1ba
00000010: 0093 e53b 47c4 cdba acd4 ddba 460f 2ebc
00000020: 2e84 45bb dacf ea3a 8cc9 193a 4199 843b
00000030: 4ce2 b03e 50bb 463c 7905 05bd 59a1 5b3b
00000040: 7ec3 1ab8 1c96 3cbc 2891 42bd c475 52bb
00000050: af51 9539 90c4 9b3b 9b07 163a f2e8 b43a
00000060: 90a1 723a 4ef5 ba3b 1121 deba 0ace 72b9
00000070: b824 7bbb 59ad 64ba ddf8 eebb 6160 c038
