ml_models/lstm_products/forecast_model_lstm_Sneakers.pth (torch, 21457 bytes, 5 tensors)

lstm.weight_ih_l0 f4 [128, 1]
0	0xbf6b7d51	-0.9198809
1	0xbf6f16e6	-0.93394315
2	0x3de486e9	0.111585446
3	0x3f5c64dd	0.86091405
4	0xbec7565a	-0.3893307
5	0x3f72e798	0.94884634
6	0xbfb6984a	-1.4265225
7	0xbfacd808	-1.3503428
8	0xbf1699ae	-0.58828247
9	0xbe9e244f	-0.30887076
10	0x3f3c012e	0.734393
11	0x3ed5d625	0.41764942
12	0x41019ff6	8.101553
13	0xbf81a6bf	-1.0129012
14	0xbdde6559	-0.10859174
15	0x3fd96371	1.6983472
16	0x3f7518f0	0.95741177
17	0x3e601bd2	0.21885613
18	0x3f8aa967	1.0832947
19	0xbe9c9c4c	-0.30587995
20	0x3db49394	0.08817211
21	0xbeb21953	-0.34784946
22	0xbe836061	-0.2565947
23	0xbf627c86	-0.8847126
24	0xbf55007d	-0.8320387
25	0x3e6b9d19	0.23009147
26	0xbf34a76a	-0.70567954
27	0xbe3c882d	-0.18411322
28	0x3dd0f0cf	0.102021806
29	0x3e17c4fb	0.14821236
30	0xbf5b85bb	-0.8575093
31	0x3db070cd	0.08615265
32	0xbf5be701	-0.8589936
33	0xbf4efe8f	-0.80857176
34	0xbee488a7	-0.44635507
35	0xbe60b109	-0.21942534
36	0xbf461e4c	-0.7738998
37	0xbf59f09b	-0.8513276
38	0xbf8e73a1	-1.1129037
39	0xbf3751b7	-0.7160906
40	0xbf2e9a2b	-0.6820399
41	0xbf4a20d3	-0.78956336
42	0xbecc2952	-0.39875275
43	0xbef47e73	-0.47752723
44	0xc068bd75	-3.6365635
45	0xbf1f5d0b	-0.6225135
46	0xbe770ad9	-0.24125232
47	0xbfa46090	-1.2841969
48	0xbf647a6e	-0.8924931
49	0xbf1a1506	-0.6018833
50	0xbf77aa85	-0.9674457
51	0xbf405b28	-0.75139093
52	0xbe1d63d6	-0.15370116
53	0xbf53e03d	-0.82764035
54	0xbf3eae17	-0.7448439
55	0xbf4903b1	-0.7852126
56	0xbef1914c	-0.47181165
57	0xbee93cff	-0.4555435
58	0xbf9e5c24	-1.2371869
59	0xbf6850d4	-0.90748334
60	0xbf4a25c0	-0.7896385
61	0xbeaf30a0	-0.34216785
62	0xbf878675	-1.0587908
63	0xbf32a782	-0.69786847
64	0xbdf231de	-0.11825918
65	0xbe582ef0	-0.21111655
66	0x3ebbbeb8	0.36668944
67	0x3f65fc3d	0.8983801
68	0xbec8bdc1	-0.3920727
69	0xbf3ffae6	-0.74992216
70	0x3e33a472	0.175432
71	0x3d8422d2	0.06451954
72	0xbd7a9c09	-0.061183963
73	0xbe818fd3	-0.25305042
74	0x3f0beb1d	0.5465563
75	0xbf01ec0f	-0.5075082
76	0x409dd6e1	4.9324803
77	0x3e5fdb36	0.21860966
78	0xbe62b8e4	-0.22140843
79	0x3feefe23	1.8671306
80	0xbf970657	-1.179881
81	0xbeb8cd1e	-0.36093992
82	0x3f9edbfe	1.2410886
83	0xbed3aa93	-0.41341075
84	0xbdcbc4b5	-0.09949628
85	0xbeb7fe25	-0.35936084
86	0x3e94026f	0.28908107
87	0x3dd98562	0.10621144
88	0xbde2cada	-0.11073847
89	0x3edd6f9a	0.43249208
90	0x3e39a9ec	0.18131226
91	0x3eec6c84	0.4617654
92	0x3f374af4	0.71598744
93	0xbead72b7	-0.33876583
94	0xbe99e7ad	-0.30059567
95	0x3f1df1d7	0.61697143
96	0xbf3566cd	-0.70859987
97	0xbf3fd69f	-0.7493686
98	0xbeec2920	-0.46125126
99	0xbf80e650	-1.0070286
100	0xbf054a60	-0.5206661
101	0xbece9abf	-0.40352437
102	0xbfa4af49	-1.2865993
103	0xbef76673	-0.4832035
104	0xbe977df8	-0.29588294
105	0xbf375daa	-0.71627295
106	0xbf5525e4	-0.8326094
107	0xbda974cb	-0.082742296
108	0xbec135fa	-0.37736493
109	0xbf70df5c	-0.9409082
110	0xbe974ac3	-0.29549226
111	0xbf6ba1f3	-0.9204399
112	0xbfb8efc4	-1.4448171
113	0xbe23cb39	-0.15995492
114	0x3ecaf137	0.39637157
115	0xbf256118	-0.6460128
116	0xbe3f6e74	-0.18694478
117	0xbf50c52b	-0.81550854
118	0xbeb991d0	-0.3624406
119	0xbf3c618f	-0.7358636
120	0xbf3b9461	-0.73273283
121	0x3e252454	0.1612714
122	0xbf3d2d2e	-0.73897064
123	0xbf2de968	-0.67934275
124	0xbf0e172c	-0.5550411
125	0x3cdc7479	0.026911007
126	0xbf620ad8	-0.88297796
127	0xbf48dd9b	-0.78463143

lstm.weight_hh_l0 f4 [128, 32]
0	0x3b99403c	0.004676847
1	0xbcabce81	-0.020972492
2	0x3d476511	0.04868037
3	0xbdc59409	-0.09647376
4	0x3e26b3a1	0.1627946
5	0xbddf7b16	-0.10912149
6	0x3e114a04	0.14188391
7	0x3e87b676	0.26506394
8	0xbe5cd9ea	-0.21567503
9	0x3e6ec3c1	0.23316862
10	0xbe2455de	-0.1604838
11	0x3e8dcc05	0.27694717
12	0x3dcfec1f	0.101524584
13	0x3ec728bf	0.38898274
14	0x3e53c67e	0.20681188
15	0x3e35feb7	0.17772947
16	0x3da75dec	0.08172211
17	0x3e09c0d0	0.13452458
18	0xbee53b09	-0.44771603
19	0xbe25930b	-0.16169374
20	0x3d63bd45	0.055600423
21	0xbdcf3f9f	-0.10119557
22	0xbe320221	-0.17383625
23	0xbd721771	-0.059104387
24	0x3c593e50	0.013259485
25	0xbe8bc919	-0.27301863
26	0xbe1d28ad	-0.15347548
27	0xbe325bd8	-0.17417848
28	0x3e47f848	0.19528306
29	0x3ead3509	0.33829525
30	0x3cf89057	0.030342264
31	0x3bc4aca0	0.006002024
32	0x3e368d8a	0.1782743
33	0x3b4e48c4	0.0031476477
34	0x3cf71bbb	0.03016459
35	0xbee731d3	-0.451552
36	0xbd872f0a	-0.06600769
37	0x3e1bd4ab	0.15217845
38	0x3e08af32	0.13348082
39	0x3d60b85e	0.054863326
40	0xbe94626b	-0.28981337
41	0xbd042dbf	-0.03227019
42	0xbdab658b	-0.08368977
43	0x3e13b0f8	0.14422977
44	0xbe271dbd	-0.16319938
45	0xbdb09a40	-0.08623171
46	0xbdeb1606	-0.1147881
47	0x3ca9a151	0.020706804
48	0x3deec47c	0.1165857
49	0xbe7696a9	-0.2408091
50	0xbd92fa2f	-0.07176625
51	0xbe7c3f0b	-0.24633424
52	0xbe26f1da	-0.16303197
53	0x3cd8d29b	0.026467612
54	0xbe2ac6f1	-0.16677453
55	0x3d12c43e	0.035831682
56	0x3f04e571	0.519126
57	0xbe9bbcdf	-0.30417535
58	0xbe4c9e02	-0.1998215
59	0x3d2be7a9	0.041968975
60	0x3e2190a3	0.15777831
61	0xbd993edd	-0.07482693
62	0xbc31c6ff	-0.010850667
63	0x3decebeb	0.11568435
64	0x3e7355a2	0.23763135
65	0xbe6b585b	-0.22982924
66	0xbe4f94b9	-0.20271577
67	0xbe489ea1	-0.19591762
68	0x3d4141c0	0.047181845
69	0x3e165214	0.14679748
70	0xbdb4dbb6	-0.08830969
71	0x3ed20810	0.41021776
72	0xbe63a600	-0.22231293
73	0x3d4872dc	0.048937663
74	0x3ce86b7d	0.028371567
75	0x3d83cb54	0.06435266
76	0xbcc981ee	-0.024598088
77	0x3e53c0ea	0.2067906
78	0xbdd4d5af	-0.103923194
79	0x3e2f0b32	0.17094114
80	0x3dadaf33	0.08480682
81	0xbdace2eb	-0.08441719
82	0xbe1ac023	-0.15112357
83	0xbe4d2d70	-0.20036864
84	0x3eba0697	0.36333153
85	0x3e06b017	0.1315311
86	0xbe9e8df0	-0.30967665
87	0x3e8ac76c	0.27105272
88	0xbcf57919	-0.02996497
89	0xbd998e68	-0.07497865
90	0x3e668caa	0.22514597
91	0xbe04434a	-0.12916294
92	0x3b578826	0.0032887547
93	0x3eb8fd07	0.36130545
94	0x3ebb6e57	0.3660762
95	0x3e9041a3	0.28175077
96	0x3e66fe9d	0.22558065
97	0xbe85d964	-0.26142418
98	0x3db73ab1	0.08946741
99	0x3d392633	0.045202445
100	0x3e07c9e4	0.13260609
101	0xbbd52793	-0.0065049618
102	0x3e9a0031	0.3007827
103	0x3ed64b5d	0.41854373
104	0x3dd1c2b8	0.10242218
105	0x3d9f4071	0.07775963
106	0x3d2bfaec	0.041987345
107	0x3e9f1138	0.31067824
108	0x3ed9e1f2	0.42555195
109	0x3c112b30	0.008860394
110	0x3d4ca965	0.049966235
111	0x3e8b2ded	0.27183476
112	0xbde030a9	-0.10946781
113	0x3e04dd92	0.12975147
114	0xbe4584c7	-0.19288932
115	0xbe5624a9	-0.20912422
116	0x3e3aae5b	0.18230574
117	0xbe9ffadc	-0.31246078
118	0x3ce94bca	0.028478522
119	0xbd2cec09	-0.04221729
120	0xbbc14b42	-0.005898864
121	0xbe557f8e	-0.2084944
122	0xbe01ca67	-0.12674867
123	0xbcc373b2	-0.023858879
124	0x3e8f1150	0.27942896
125	0x3be5b935	0.007010604
126	0xbe9fae47	-0.3118765
127	0x3e72922d	0.23688574
128	0x3e1aca2a	0.15116182
129	0x3d1f2de9	0.038862143
130	0xbe588ffb	-0.21148674
131	0xbe2b7bb4	-0.16746408
132	0xbe4056b7	-0.18783079
133	0x3d9a27f6	0.07527153
134	0xbdf60b20	-0.12013841
135	0x3e50c4e9	0.20387615
136	0x3e09d96e	0.13461849
137	0xbc7a268d	-0.01526798
138	0x3db2411a	0.087038234
139	0x3db8b3ba	0.09018655
140	0x3cd6b617	0.026209874
141	0x3ce7052a	0.028200705
142	0xbe8d6322	-0.27614695
143	0x3e2833fa	0.16426077
144	0xbcb82657	-0.02247922
145	0xbdc3b07e	-0.095551476
146	0xbda0bbe9	-0.07848341
147	0xbe0fa10a	-0.14026275
148	0x3e6a9366	0.2290779
149	0x3dc75f6a	0.09734996
150	0xbe5fec0b	-0.21867387
151	0xbcc6b965	-0.024258325
152	0x3e8c7bbd	0.27438155
153	0xbdc3a837	-0.09553569
154	0x3ca673c7	0.020318879
155	0x3d68c657	0.056829777
156	0x3e6ab4ca	0.22920528
157	0xbbc11036	-0.005891825
158	0xbdb34a5a	-0.08754416
159	0x3e4909cb	0.19632642
160	0x3da3837c	0.07984063
161	0xbcf56d14	-0.029959239
162	0xbe91b10d	-0.28455392
163	0xbececf5d	-0.4039258
164	0xbdb2585c	-0.087082595
165	0x3e04cc6b	0.12968604
166	0xbe2359d5	-0.15952237
167	0x3ce4de80	0.027938128
168	0xbd72448d	-0.059147406
169	0x3dfba6b7	0.12287658
170	0x3c9c4302	0.01907492
171	0x3dbea097	0.09307974
172	0xbe5d2389	-0.21595587
173	0x3daee8f9	0.0854053
174	0xbdce4f96	-0.100737736
175	0xbcd85f9e	-0.026412781
176	0x3dfde3db	0.123969756
177	0xbc0f7f7e	-0.008758424
178	0xbed81431	-0.42202905
179	0x3e249b91	0.16074969
180	0x3d8a270a	0.06745727
181	0x3dd99fb3	0.10626163
182	0xbed21c58	-0.4103725
183	0x3e951be7	0.2912285
184	0x3ec8e37f	0.39236066
185	0xbe8cd24c	-0.27504194
186	0xbe6da9a5	-0.23209246
187	0xbdf29113	-0.11844077
188	0x3a085ed0	0.00052021164
189	0x3df78917	0.12086695
190	0xbcb4b57e	-0.022059198
191	0x3c2bbce4	0.010482047
192	0x3cb6c25a	0.02230947
193	0xbd53078b	-0.051520865
194	0xbd7a2fb2	-0.061080642
195	0xbe05bb29	-0.13059677
196	0x3e810e00	0.25205994
197	0x3d6bb0e6	0.05754175
198	0xbe12e033	-0.14343338
199	0x3d99f568	0.07517511
200	0xbdb71566	-0.08939628
201	0xbe117a96	-0.14206919
202	0xbd8fbf44	-0.07018903
203	0x3dcca339	0.0999207
204	0xbe1ccf9b	-0.1531357
205	0x3b9dac50	0.004811801
206	0x3d03ba37	0.03216001
207	0x3e2246a5	0.15847261
208	0x3da661b6	0.08124106
209	0x3e9d9a68	0.30781865
210	0xbe3e5d88	-0.18590367
211	0xbdb9ecf0	-0.09078395
212	0x3d17cc8c	0.037060305
213	0xbe479ccd	-0.19493409
214	0x3bfa3ff3	0.007637018
215	0xbdf550b7	-0.11978286
216	0x3bcc05f8	0.0062262975
217	0xbe6c0b6f	-0.23051237
218	0x3c65ed91	0.014033691
219	0xbd7a822b	-0.061159294
220	0xbd83cde7	-0.06435757
221	0x3d11adee	0.035566263
222	0xbc75c7cf	-0.015001251
223	0xbbfb5db8	-0.0076710843
224	0x3d046c19	0.032329652
225	0xbc5f5ebc	-0.013633426
226	0xbe5f7e3e	-0.21825501
227	0xbe8bb609	-0.2728732
228	0xbcc527c8	-0.02406682
229	0x3da9599d	0.082690455
230	0x3cec1e87	0.02882315
231	0xbce319f4	-0.027722336
232	0xbc507a58	-0.0127244815
233	0xbe05a533	-0.130513
234	0x3dd5e713	0.104444645
235	0x3e479da3	0.19493727
236	0x3d75da47	0.06002262
237	0x3bdf1083	0.0068073883
238	0x3d82d22e	0.06387745
239	0x3e7b5c8f	0.24547027
240	0xbaf35202	-0.0018563869
241	0x3e94de6a	0.29075938
242	0xbe676bba	-0.22599688
243	0xbdd889e3	-0.10573175
244	0x3e155594	0.14583427
245	0xbd9b6946	-0.07588439
246	0x3db12af2	0.08650769
247	0x3d989cf2	0.0745181
248	0xbe2623a4	-0.16224533
249	0xbeb8d21c	-0.360978
250	0x3dd819d8	0.10551804
251	0xbda51341	-0.08060313
252	0xbc69eda9	-0.014277854
253	0x3e5d19cc	0.21591872
254	0xbe002a19	-0.12516059
255	0x3d6f2f50	0.05839473

lstm.bias_ih_l0 f4 [128]
0	0xbf81aaf8	-1.01303
1	0xbf956212	-1.1670554
2	0xbf783fe5	-0.96972495
3	0xbf60fcb3	-0.8788559
4	0xbf7bb6bb	-0.983257
5	0xbf74bed9	-0.9560371
6	0xbf2ab7bd	-0.6668661
7	0xbf22bad0	-0.63566303
8	0xbfcd2c43	-1.6029133
9	0xbfa23736	-1.2673099
10	0xbf51743d	-0.8181799
11	0xbf9d9032	-1.230963
12	0xbfccb3f7	-1.5992421
13	0xbfc8ae00	-1.56781
14	0xbf7606d7	-0.96104187
15	0xbf19a983	-0.6002428
16	0xbf4fd806	-0.81189
17	0xbf883652	-1.0641577
18	0xbfaf347c	-1.3687892
19	0xbf90cc59	-1.1312362
20	0xbf87153e	-1.0553358
21	0xbf486662	-0.78281224
22	0xbfa937de	-1.3220174
23	0xbf267cda	-0.6503426
24	0xbf94af55	-1.1616007
25	0xbf98a4f7	-1.1925343
26	0xbf8728e6	-1.0559356
27	0xbf835f89	-1.026353
28	0xbf7f6b0b	-0.9977271
29	0xbf98ee71	-1.1947767
30	0xbf36d669	-0.71420914
31	0xbf89c2ae	-1.0762537
32	0xbf3d2882	-0.73889935
33	0xbf31b3fa	-0.6941525
34	0xbf3d1335	-0.7385743
35	0xbefaee58	-0.49009967
36	0xbf06eed7	-0.5270819
37	0xbf29bf2f	-0.6630735
38	0xbed45750	-0.41472864
39	0xbf0b7463	-0.5447447
40	0xbf6ed91f	-0.9330005
41	0xbf50b4dd	-0.81525975
42	0xbedf426c	-0.43605363
43	0xbf5d9250	-0.8655138
44	0x3fa7103d	1.305183
45	0xbf7a88dd	-0.97865087
46	0xbf3f99ae	-0.7484387
47	0xbeb8e0e0	-0.36109066
48	0xbee39fdf	-0.4445791
49	0xbf546c1d	-0.8297747
50	0xbf404e56	-0.7511953
51	0xbeecd814	-0.46258605
52	0xbf3d7bfe	-0.7401732
53	0xbf0170d3	-0.5056278
54	0xbf3f3ce3	-0.7470228
55	0xbf03c092	-0.51465714
56	0xbf74955d	-0.9554041
57	0xbf3fd40f	-0.7493295
58	0xbf2ea92e	-0.682269
59	0xbef369dd	-0.47541705
60	0xbf37e310	-0.71830845
61	0xbf274fe6	-0.6535629
62	0xbf12a5dd	-0.5728434
63	0xbf06857d	-0.52547437
64	0x3c3a31a8	0.011364378
65	0xbd07b107	-0.03312781
66	0xbd8b8527	-0.06812506
67	0x3db70caa	0.08937962
68	0x3df7953d	0.12089012
69	0x3d8a4d1b	0.06752988
70	0x3c91df37	0.017806632
71	0x3d38905e	0.045059554
72	0x3db3620c	0.08758935
73	0xbd91a6f5	-0.07111923
74	0xbb9d66ee	-0.00480353
75	0xbd8177c2	-0.0632167
76	0xbd0c1f6b	-0.03420965
77	0xbc831651	-0.016001852
78	0xbd81c3cc	-0.063361734
79	0xbd2438b6	-0.040093146
80	0xbbb1c7d8	-0.0054254346
81	0xbd899de6	-0.0671957
82	0x3dbb87c4	0.091567546
83	0xbc688a70	-0.014193162
84	0xbc8de9a4	-0.017323323
85	0x3d0764dc	0.03305517
86	0x3d9b1d8d	0.07573996
87	0x3d778dfd	0.060438145
88	0xbc31a58b	-0.010842691
89	0x3deb944b	0.11502894
90	0xbe09ea5c	-0.13468307
91	0xb9e8d853	-0.00044411662
92	0x3ac9f2c4	0.0015407433
93	0x3db0cd75	0.08632938
94	0xbc589ca9	-0.013220944
95	0x3d524a0e	0.051340155
96	0xbf650653	-0.89462775
97	0xbf8785a2	-1.0587656
98	0xbf7c903c	-0.98657584
99	0xbf5aade5	-0.8542159
100	0xbf7d5067	-0.9895081
101	0xbf7d8c4e	-0.9904221
102	0xbf60c8e8	-0.8780656
103	0xbf356f1b	-0.7087266
104	0xbfbb19c6	-1.461724
105	0xbfba8a1f	-1.4573401
106	0xbf81354e	-1.0094392
107	0xbf9fd044	-1.2485433
108	0xbf36aaee	-0.7135457
109	0xbfb9c61e	-1.4513586
110	0xbf5e342e	-0.8679837
111	0xbf4b3f72	-0.79393685
112	0xbf465f02	-0.7748872
113	0xbf8a004f	-1.0781344
114	0xbf98172c	-1.1882071
115	0xbf88d2ef	-1.0689372
116	0xbf97a877	-1.1848286
117	0xbf75ab4f	-0.9596452
118	0xbf94023a	-1.156318
119	0xbf3159a1	-0.6927739
120	0xbf94f9ca	-1.163873
121	0xbf88a03b	-1.0673898
122	0xbf94ea2b	-1.1633962
123	0xbf5c236f	-0.8599157
124	0xbf40f961	-0.7538052
125	0xbf955e92	-1.1669486
126	0xbf6075a8	-0.8767953
127	0xbf84fb64	-1.0389218

lstm.bias_hh_l0 f4 [128]
0	0xbf8f4f7a	-1.1196129
1	0xbf99aafe	-1.2005308
2	0xbf8d9919	-1.1062347
3	0xbf6c59a0	-0.92324257
4	0xbf4d6d9a	-0.80245364
5	0xbf8d6ce9	-1.1048862
6	0xbf735a1b	-0.95059365
7	0xbf5e10a6	-0.86744153
8	0xbfcd93e5	-1.6060759
9	0xbfb2a7ec	-1.3957496
10	0xbf74b3db	-0.9558694
11	0xbf90c00b	-1.1308607
12	0xbfbc6ec6	-1.4721305
13	0xbfb68b48	-1.4261255
14	0xbf824a51	-1.017893
15	0xbf0ee066	-0.55811155
16	0xbf44a8cf	-0.7682008
17	0xbfa512ce	-1.2896364
18	0xbf98711b	-1.1909517
19	0xbf8015ed	-1.0006691
20	0xbf873ed1	-1.0566045
21	0xbf50ae60	-0.81516075
22	0xbf9e74b9	-1.2379371
23	0xbf720c1b	-0.9454972
24	0xbf994c54	-1.1976418
25	0xbf938847	-1.1525964
26	0xbf8abcf4	-1.0838914
27	0xbf54064d	-0.82822114
28	0xbf7b6fa1	-0.9821721
29	0xbf81fa60	-1.0154533
30	0xbf2818b0	-0.6566267
31	0xbf8c975b	-1.098369
32	0xbf0ba5ca	-0.5454985
33	0xbf26d2e9	-0.65165573
34	0xbf3584bc	-0.7090566
35	0xbefc3107	-0.49256155
36	0xbeca89ec	-0.3955835
37	0xbf1fae78	-0.62375593
38	0xbee072c2	-0.43837553
39	0xbecefd9a	-0.40427858
40	0xbf910284	-1.1328893
41	0xbf78bb7d	-0.97161084
42	0xbf01dc4b	-0.50726765
43	0xbf5115a2	-0.81673634
44	0x3fbe5525	1.4869734
45	0xbf7498c2	-0.9554559
46	0xbf3cc1e2	-0.7373334
47	0xbdb13b2e	-0.08653866
48	0xbe772702	-0.24135974
49	0xbf40bcac	-0.7528789
50	0xbf1b5db2	-0.6068984
51	0xbf3990f8	-0.7248683
52	0xbf527e2d	-0.8222378
53	0xbf0cb7bc	-0.54967856
54	0xbf0bdc26	-0.54632795
55	0xbf2b2a1f	-0.66861147
56	0xbf350d05	-0.7072299
57	0xbf287b6a	-0.65813315
58	0xbf55fe9c	-0.8359163
59	0xbf393f0f	-0.72361845
60	0xbf13f82f	-0.57800573
61	0xbf1a34a8	-0.602366
62	0xbf0eaef6	-0.5573572
63	0xbf2d9653	-0.678075
64	0xbc39da20	-0.011343509
65	0x3d0958dd	0.033532012
66	0x3d78bdca	0.060727872
67	0xbe10d8c4	-0.1414519
68	0xbdcf4d39	-0.10122151
69	0xbd35dca3	-0.04439987
70	0xbd006381	-0.031344894
71	0xbcebef1c	-0.02880054
72	0xbdf9d969	-0.12199671
73	0xbcc407a9	-0.023929434
74	0xbc05810a	-0.008148441
75	0x3dae09a0	0.084979296
76	0x3dbc7919	0.09202785
77	0x3d48750e	0.048939757
78	0x3d8232aa	0.0635732
79	0x3ce07562	0.027399722
80	0x3d3a6d76	0.045514546
81	0x3d9c39cc	0.076282114
82	0xbdb3c4a5	-0.08777741
83	0x3c476bb5	0.012171675
84	0x3c8bd416	0.017068904
85	0xbcf0bffa	-0.029388417
86	0xbd9870f6	-0.074434206
87	0xbd5bfeb0	-0.053709686
88	0x3c3081c9	0.010773131
89	0xbe03a6c9	-0.12856592
90	0x3ddd5609	0.108074255
91	0xbb781a6b	-0.0037857543
92	0xbc9d987d	-0.019237751
93	0xbda60a75	-0.08107463
94	0x3ce9237a	0.0284593
95	0xbd5f2427	-0.054477837
96	0xbf70f5c5	-0.94125015
97	0xbf8ce34c	-1.1006866
98	0xbf952a06	-1.165345
99	0xbf47f7d5	-0.78112537
100	0xbf753d8d	-0.95797044
101	0xbf84dd1e	-1.037998
102	0xbf61175a	-0.87926257
103	0xbf39e2f4	-0.7261193
104	0xbfba484a	-1.4553311
105	0xbf9ee122	-1.2412455
106	0xbf6dbfd0	-0.9287081
107	0xbf9f686c	-1.2453742
108	0xbf42914f	-0.76002973
109	0xbfb864b1	-1.4405729
110	0xbf8fc484	-1.1231847
111	0xbf5787dc	-0.8419168
112	0xbf61fbce	-0.8827485
113	0xbf8a0763	-1.0783504
114	0xbfa2dc41	-1.2723466
115	0xbfa36c63	-1.2767452
116	0xbf936979	-1.1516563
117	0xbf7d7b4f	-0.9901628
118	0xbfa3f8dc	-1.2810321
119	0xbf2b3642	-0.66879666
120	0xbfa2a471	-1.2706434
121	0xbfa3e8e7	-1.2805451
122	0xbf73d5e3	-0.9524824
123	0xbf5eca51	-0.8702746
124	0xbf6c30a3	-0.92261714
125	0xbf9e75d2	-1.2379706
126	0xbf418a62	-0.7560178
127	0xbf8a4f5f	-1.0805472

fc.weight f4 [1, 32]
0	0xbc053653	-0.008130628
1	0xb9fdd20e	-0.00048412423
2	0x3c1d7093	0.009609359
3	0x3d32ebe4	0.043681994
4	0xbca8adee	-0.020590749
5	0xbcb043b3	-0.021516657
6	0x3b85a975	0.0040790387
7	0xbc2766a0	-0.010217339
8	0x3c9c204f	0.019058375
9	0x3d35f53f	0.044423338
10	0x3bfda381	0.0077404385
11	0xbccea944	-0.025227197
12	0xbeebb1a5	-0.4603397
13	0xbcabbaa9	-0.02096303
14	0xbb9ac5fd	-0.004723309
15	0x3b7f83cf	0.0038988476
16	0xbd061173	-0.032731485
17	0xbc565b2e	-0.013083262
18	0xbc9580e8	-0.018249944
19	0x38fd2b3e	0.000120720346
20	0xbb69a210	-0.0035649575
21	0xbb7e075b	-0.0038761708
22	0xbb2540fc	-0.0025215736
23	0xbb1b2f87	-0.0023679452
24	0x3b0bf125	0.002135345
25	0x3cb2a284	0.02180601
26	0x3c9db9b0	0.019253582
27	0x3c056a7a	0.008143062
28	0x3c8b5633	0.017008876
29	0xbc22dbce	-0.009940101
30	0xbc91ba73	-0.017789101
31	0x3b24c6ef	0.0025142988
