ml_models/lstm_products/forecast_model_lstm_Kurta.pth (torch, 21421 bytes, 5 tensors)

lstm.weight_ih_l0 f4 [128, 1]
000000 06 c7 66 be b7 e5 c9 3d 74 be 77 3e f1 df d6 be
       -0.22536859 0.09858268 0.24193746 -0.4196773
000010 75 90 0f 41 26 7a f2 be 21 f3 10 3d 22 9d 84 3e
       8.972768 -0.47358817 0.035388116 0.25901133
000020 a4 68 44 bf 08 8a 2d bf f3 e2 1d be 8e a7 2f bf
       -0.7672217 -0.67788744 -0.15418606 -0.68615043
000030 a3 54 87 3f 29 90 3a bf b4 bb 4a bf 29 1c ea bd
       1.0572704 -0.7287622 -0.7919266 -0.114311524
000040 cb 41 22 bf 62 f1 7d 3f 55 c8 e3 be 01 cd 46 be
       -0.6338164 0.99196446 -0.4448878 -0.1941414
000050 73 a0 54 be 70 34 37 bf d5 82 18 bf 33 a8 2c 3c
       -0.20764332 -0.7156439 -0.59574634 0.010538149
000060 b6 10 c4 be 0b ef 39 3e f6 36 a8 be 33 44 2b be
       -0.38294 0.18157594 -0.32854432 -0.16725235
000070 d2 25 5b bf 0a b9 95 bf be 4e 9a 3e f2 c2 e5 3f
       -0.85604584 -1.1697094 0.301382 1.7950118
000080 2c a0 3d bf c1 b5 b9 be 05 6f 4d bf c6 af c0 be
       -0.7407253 -0.3627148 -0.8024753 -0.37634104
000090 f3 96 aa c0 21 f1 e6 be 26 38 5a bf e1 29 60 bf
       -5.3309264 -0.45105842 -0.85241926 -0.875639
0000a0 1c 7b 8a be c1 96 f3 be 49 fb 13 be b8 71 2e bf
       -0.2704705 -0.47575954 -0.14451326 -0.6814227
0000b0 39 22 30 bd 58 f7 9f be ee 5a 27 bf ed af 59 bf
       -0.043001387 -0.31243396 -0.6537312 -0.85034066
0000c0 7e 98 d9 be 0e 20 62 bf 37 49 09 bf dd bd ce be
       -0.42499155 -0.8833016 -0.5362734 -0.4037923
0000d0 d2 fd 01 bf 28 f4 0f bf a3 35 bc be 76 d9 f0 be
       -0.50777924 -0.5623193 -0.36759672 -0.4704091
0000e0 db 07 98 be 63 3f 67 be 90 70 1d bf e2 77 90 be
       -0.29693493 -0.22582774 -0.6149988 -0.28216463
0000f0 12 73 db be 66 de 3a bf 94 c2 af be ed f3 1b bf
       -0.4286123 -0.72995603 -0.3432814 -0.60919076
000100 67 2c cd 3e cd 44 53 3f bc 06 2f 3f d6 c6 d2 bd
       0.4007294 0.82526857 0.6836965 -0.10291831
000110 b0 9d dd c0 bf 77 01 bf 6e 66 10 bf 78 c7 19 3f
       -6.925499 -0.50573343 -0.56406295 0.6006999
000120 fc 4d 1d be 9b d3 05 3e ab 1e bd bd 9c 32 c6 be
       -0.1536178 0.13069002 -0.09234365 -0.38710487
000130 d2 82 c9 3f b6 84 85 be 4a a8 f0 3d d8 b2 36 3f
       1.5743048 -0.26077813 0.117508486 0.71366644
000140 9f bc e3 bd 07 6c ce 3f ed 08 a7 be 71 66 df 3d
       -0.11119961 1.6126717 -0.32623997 0.10908211
000150 58 86 cb 3e c3 20 15 be ca 4f fa bd 3d cf 2a bf
       0.39750934 -0.14563279 -0.1222225 -0.6672247
000160 6a 7d 79 be e1 33 87 be 1c ef 98 3c 40 6b d3 3e
       -0.24364248 -0.26406768 0.018668704 0.41292763
000170 53 07 85 3e 16 6c df be 3d bc 91 3f a3 a3 01 40
       0.2598215 -0.4363715 1.1385571 2.0256126
000180 b4 45 ac bd e8 96 4f be 0d f5 f7 bd a5 6b 14 bf
       -0.08411732 -0.2027241 -0.121072866 -0.5797675
000190 bc 1e 1d be 27 ff 24 bf 31 31 8e be 2f 8c ae be
       -0.15343755 -0.6445183 -0.27771905 -0.34091327
0001a0 c7 59 15 bf 39 e9 05 bf 67 c1 68 be 26 02 0c bf
       -0.58340114 -0.52308995 -0.22730027 -0.5469078
0001b0 ce 57 ad be 8d 16 39 bf 65 44 1a bf fa b1 9f be
       -0.33856052 -0.72300035 -0.6026061 -0.31190473
0001c0 f3 6c cd be 3f 04 23 bf 8a f4 0a bf cc d5 7f bb
       -0.40122184 -0.63678354 -0.54279387 -0.0039037345
0001d0 13 86 c8 be f1 4b 33 bf d9 b8 6e be 32 45 8d be
       -0.3916479 -0.7003775 -0.23312701 -0.27591854
0001e0 a3 b9 5c be b1 cf 80 3e 40 68 35 bf f5 96 f5 be
       -0.2155519 0.25158456 -0.708622 -0.47966734
0001f0 a0 0e 19 bf db bd 58 bf f0 2c af be e9 40 c2 be
       -0.5978794 -0.84664696 -0.34213972 -0.37940148

lstm.weight_hh_l0 f4 [128, 32]
000000 90 ec ca be 14 cc 0c bf 31 0f 0c bf b9 2f 39 3d
       -0.39633608 -0.549989 -0.5471068 0.045211527
000010 b4 f6 9e 3e 97 e0 08 3e 52 b9 21 3e b4 dd 70 be
       0.31047595 0.13366924 0.1579335 -0.23522073
000020 f4 df df be a1 1e 02 3f 77 70 15 be 1d d1 24 3e
       -0.4372555 0.50827986 -0.14593683 0.16095395
000030 1b 1f 03 bf ac 68 e1 3d a6 d6 af bd 27 52 f7 3d
       -0.5121934 0.11006293 -0.08585863 0.12076216
000040 f5 aa 64 bd a3 22 45 be 54 47 b4 3d 90 7e 69 bd
       -0.0558271 -0.19251494 0.08802667 -0.057005465
000050 e4 cf 35 be ec f5 0d 3e 9d d2 68 3e b6 7b b1 3e
       -0.17755085 0.13863343 0.22736593 0.34664696
000060 17 9a 65 be cc 53 87 3e d2 28 c3 be b5 56 d2 be
       -0.22422062 0.2643112 -0.3811708 -0.41081777
000070 b6 c2 5b be 66 fa 52 3e 1e a6 ac be fd 90 b8 be
       -0.21460995 0.20603332 -0.33720487 -0.36048117
000080 0f a2 85 be 32 77 40 be 40 0a 16 be 55 6c a2 bd
       -0.26100203 -0.1879547 -0.14652348 -0.07930819
000090 fc cc 90 3c c9 fd c1 bd 25 4f 2f 3d b9 b0 aa bc
       0.01767587 -0.09472234 0.042800087 -0.020836221
0000a0 c1 ab 65 be 99 92 77 3e 78 5f 10 3c 9c 7c 12 3e
       -0.224288 0.24177016 0.008811824 0.14305347
0000b0 88 26 69 be ec 4b fb bc 00 4e c2 3d d7 af f2 bd
       -0.22768605 -0.03067585 0.094875336 -0.11849945
0000c0 23 da 92 3d 91 9b 27 bd 43 17 e6 3b f3 06 b3 3d
       0.071705125 -0.040919844 0.007021816 0.0874156
0000d0 95 00 c5 bc bc 54 98 3d 77 3d b9 bc 2a d9 88 3e
       -0.02404813 0.07438037 -0.022612317 0.26728183
0000e0 27 f3 7e 3d 9c f8 1b 3e f4 a8 15 3d 2a 04 75 bd
       0.062243607 0.15231556 0.03653808 -0.059818424
0000f0 88 cc 81 be ca 81 b8 bc cd 60 fd bd ab dd 64 3c
       -0.25351357 -0.022522826 -0.12371979 0.013968865
000100 8c cf c8 bd 0e 81 25 bf f3 c3 96 be 61 71 b0 3d
       -0.098052114 -0.64650047 -0.29446372 0.08615375
000110 c4 6a e8 3e c8 7f 4a 3e 48 88 5b 3f f0 cb f9 be
       0.45393956 0.19775307 0.85754824 -0.48788404
000120 22 87 df be d3 22 e8 3e f3 09 89 be d3 0a 02 3e
       -0.43657786 0.4533907 -0.26765403 0.12699442
000130 5a 92 38 bf cb cc e6 bd dd b6 ec 3e ac 82 2b bf
       -0.72098315 -0.1126953 0.46233264 -0.66996264
000140 33 d4 e9 bd 69 8a 95 be b5 1c a4 3e 71 6b 87 be
       -0.11417427 -0.2920716 0.32053152 -0.2644916
000150 a5 ca 97 be 87 6a 99 3d 6d c2 86 3e 07 02 0b 3f
       -0.29646793 0.074910216 0.2632021 0.5429997
000160 25 2c 5a be 1c 9f ee 3e 85 95 da be 0b cf ff be
       -0.21305902 0.46605766 -0.426922 -0.4996265
000170 6f 4a 39 be 45 0e e3 3c 94 49 5b bf 7b ec be bd
       -0.180948 0.027716765 -0.85659146 -0.09322449
000180 66 7d 32 be 6e d3 d0 bd a9 4c 75 be 39 97 ec 3d
       -0.17430648 -0.10196577 -0.23955025 0.11552281
000190 51 d2 84 3d d3 8a f3 bd 0d 10 83 3e 3d cf 5c bc
       0.06485427 -0.11891713 0.25598183 -0.013477144
0001a0 de e9 b6 bd 37 51 be bd ba f6 af 3d 82 0c 89 be
       -0.089313254 -0.09292834 0.08591981 -0.26767355
0001b0 2c 53 8c be f6 0b d9 3d b9 dd 94 3d 6f e6 11 be
       -0.27407205 0.105979845 0.07268853 -0.1424806
0001c0 4c c4 3a be c7 f3 4f 3e 1b 14 be bd f6 25 77 3d
       -0.18238944 0.20307837 -0.092811786 0.060338937
0001d0 1e 2e 28 be 17 21 af 3d 8e 01 6d 3e 68 99 3f 3d
       -0.16423842 0.08551233 0.23145124 0.04677716
0001e0 db 14 26 be 27 80 ac 3d 3a dd 8d 3d f8 55 bd 3d
       -0.16218893 0.084228806 0.06926961 0.09244913
0001f0 02 20 41 bd cf 61 bb 3e 7b ad ff bd 5d 55 16 bc
       -0.047149666 0.3659806 -0.12484261 -0.009175626
000200 45 f7 94 3e 60 03 e1 bf 5e 02 c4 bf 34 e2 70 3e
       0.29094902 -1.7579155 -1.5313222 0.2352379
000210 00 5d 2f 40 b1 16 64 3e d6 1c 11 3f 77 ef 85 bf
       2.7400513 0.22274281 0.56684625 -1.0463704
000220 c5 4d 6f 3e 11 af b2 be 32 71 9f bc 10 1d db 3e
       0.2336951 -0.3489919 -0.019463155 0.4279561
000230 cf 94 1d c0 c0 a7 c0 3c 87 84 6c 3e 53 7c 91 bf
       -2.4622076 0.02351749 0.2309743 -1.1366066
000240 11 6d 38 be d7 cb e1 bf 50 b8 aa 3d 23 99 83 be
       -0.18010356 -1.7640332 0.08335936 -0.25702772
000250 5e b7 0a be 38 b8 b6 3d b7 c6 c0 bd c8 27 ac 3f
       -0.13546512 0.08921856 -0.09412902 1.344964
000260 4b 95 e7 3e 0e 65 2d 3e ee b5 f6 3d 5e 99 66 bf
       0.4523109 0.1693308 0.12046419 -0.9007777
000270 c0 a6 09 be 31 23 ab 3e ae c7 09 c0 d6 81 11 c0
       -0.13442516 0.33425286 -2.1528125 -2.2735496
000280 86 90 23 3c da f5 a8 bd 0a e3 60 be 21 15 b9 3d
       0.009983188 -0.082500175 -0.21961609 0.09037233
000290 41 e2 6a 3d 79 e6 3d be 5f 65 cc bc 08 04 79 be
       0.05734468 -0.1854495 -0.024950681 -0.24317944
0002a0 7e 7a 94 3c 7c 7d 79 be 2e c7 3a 3d a8 ee 2a be
       0.018124815 -0.24364275 0.04560011 -0.16692603
0002b0 63 af cb bd f5 4f 71 3d a4 a0 18 3e ca 16 e8 bd
       -0.09945562 0.058914144 0.1490503 -0.11332472
0002c0 9d bc 4a be 69 ad 87 3d e4 fb 0a be 2f f1 ab bc
       -0.19798513 0.06624872 -0.13572651 -0.020989029
0002d0 1b 2d 8f 3d 04 72 03 3e 67 71 f5 3d f1 2f 7d 3e
       0.06991025 0.12836462 0.119845204 0.2472532
0002e0 e7 ec 76 be 12 27 d7 3d cf bb 26 3e 4f 0d 0b be
       -0.24113809 0.10505499 0.16282581 -0.13579296
0002f0 69 2f 85 be e5 a4 43 3c 8f ef f8 bd 0f ad 22 3e
       -0.26012734 0.011941169 -0.12155067 0.15886329
000300 02 33 fa be ce 1a 8c bf 35 83 82 be 29 e7 be 3e
       -0.4886704 -1.094568 -0.25490728 0.37285736
000310 1b 3c 66 bc f2 a9 45 3d cc 67 3b 3e f6 5c 16 bf
       -0.014052416 0.048257776 0.18301314 -0.587356
000320 f4 9b c7 be 56 50 8d be 23 d4 c4 be 4d 83 70 bd
       -0.3898617 -0.27600354 -0.38443097 -0.05871897
000330 0d 8f 57 bf 8c 09 c7 bd 10 0e 6b 3e 59 23 00 bf
       -0.84202653 -0.09718618 0.22954583 -0.50053936
000340 4c 8d 72 be 1d 0a b9 3b 3e 4a 7f be 8f 90 6e bd
       -0.23686713 0.0056469576 -0.24930665 -0.05824333
000350 9f 81 5f 3a ae 09 f9 3e 38 08 02 3d 55 e4 2f 3f
       0.000852609 0.48640198 0.03174612 0.6870778
000360 c2 7d ad be ba 8d de bd 15 28 36 3e e1 54 c2 be
       -0.33885008 -0.10866876 0.17788728 -0.37955382
000370 30 80 13 bf 77 d2 6b 3e 17 7c 38 bf 85 d4 04 bd
       -0.57617474 0.23029505 -0.72064346 -0.032429237
000380 c9 52 35 3e 42 6a 22 bf d3 7a 08 bf 3e ad d4 3e
       0.17707361 -0.63443387 -0.53312415 0.41538423
000390 02 ca 49 3f c8 21 d4 bd 76 f1 cc 3e 81 17 b3 3c
       0.78823864 -0.10358006 0.4002797 0.021861793
0003a0 2a 24 a9 be f8 b8 bb bd 5d 1d 93 be 73 88 f7 bd
       -0.33035403 -0.09166139 -0.2873334 -0.120865725
0003b0 81 d1 89 be 7f fe 65 3d df aa 18 3e 4a b5 ad be
       -0.2691765 0.05615091 0.14908932 -0.33927375
0003c0 fd cf a0 be ed d7 4d be 66 ec ad 3d da 74 d3 be
       -0.31408682 -0.201019 0.08492355 -0.41300088
0003d0 49 42 0c be e1 b2 88 3e c7 ba 00 be fc f2 97 3e
       -0.13697161 0.26698974 -0.1257125 0.2967757
0003e0 04 c2 70 bd 60 c1 d7 3d 33 94 02 3e 64 55 a3 bd
       -0.058778778 0.1053493 0.12751846 -0.07975271
0003f0 54 26 0d 3e 78 d3 45 be 9d 12 2b bf f5 21 35 3e
       0.13784152 -0.1931895 -0.66825277 0.17688735

lstm.bias_ih_l0 f4 [128]
000000 3c 73 6e bf 37 31 27 bf 1b dc 8d bf a5 00 af bf
       -0.93144584 -0.6530947 -1.1082796 -1.3672072
000010 bc 18 d9 bf 86 11 90 bf 8c 13 80 bf 98 21 87 bf
       -1.6960673 -1.1255348 -1.0005965 -1.0557127
000020 78 c4 5e bf 3e 02 4c bf 19 2e 32 bf 92 a4 17 bf
       -0.8701854 -0.7969092 -0.6960159 -0.5923549
000030 57 2c 10 bf 6c e1 8a bf 7d 02 73 bf 3c ab 77 bf
       -0.5631766 -1.0850043 -0.9492567 -0.9674566
000040 eb 3e 5e bf 5d 3b 84 bf cd 0b 6e bf 81 98 93 bf
       -0.86814755 -1.0330616 -0.92986757 -1.1530915
000050 c6 30 a5 bf 28 3a 71 bf dc b6 a4 bf 7e ed 49 bf
       -1.290551 -0.94229364 -1.2868304 -0.7887801
000060 f9 a6 1d bf 5f 02 98 bf d1 db 8a bf a2 50 70 bf
       -0.61582905 -1.1875724 -1.0848333 -0.93873036
000070 8e 32 47 bf 3e c0 4d bf cc 64 45 bf 82 cd 47 bf
       -0.77811515 -0.80371463 -0.7710693 -0.78047955
000080 87 b7 54 bf 62 43 fe be 32 4a 13 bf ee bd 1f bf
       -0.8309254 -0.49660784 -0.5753509 -0.62399185
000090 41 33 d3 3f c4 5d 04 bf f6 f8 56 bf 20 a6 06 bf
       1.6500016 -0.51705575 -0.83973634 -0.52597237
0000a0 fd 3a 0d bf 35 d9 40 bf a9 6d bc be 6b 4f ba be
       -0.55168134 -0.7533143 -0.36802414 -0.36388716
0000b0 04 12 06 bf 3a f7 29 bf 76 56 37 bf 11 14 33 bf
       -0.5237124 -0.6639286 -0.71616304 -0.69952494
0000c0 5b 92 13 bf 33 92 0b bf af 4d 55 bf 26 09 54 bf
       -0.57645196 -0.5451996 -0.8332166 -0.8282646
0000d0 5f 58 4f bf 5c 11 20 bf 44 5e 50 bf 3c 8d e7 be
       -0.8099422 -0.6252649 -0.8139384 -0.4522494
0000e0 07 1c 01 bf e1 b3 2e bf 2e 38 16 bf ac 00 cb be
       -0.5043339 -0.68243223 -0.58679473 -0.3964895
0000f0 03 28 da be f0 c1 1f bf 62 a7 82 be 0d db 04 bf
       -0.42608652 -0.624053 -0.25518328 -0.51896745
000100 a7 5b 87 3d 2b eb d6 3c de 32 ed bd 9d bd d4 3c
       0.06609278 0.026235184 -0.11581968 0.02596932
000110 59 87 cf bd 5e 7a c0 bc 2e d4 9e 3c b9 f9 27 3d
       -0.101332374 -0.02349585 0.019388285 0.04100964
000120 6d 03 89 3d f0 38 1f 3c dc fd b8 bc 46 cc 26 3d
       0.066901065 0.009718165 -0.022581987 0.040722154
000130 72 46 79 3c 98 e9 0d bd 19 c9 31 3d d9 5f 07 3e
       0.015214549 -0.0346466 0.043404672 0.13220157
000140 e0 78 6a bd 61 8b 23 bd 61 aa ff 3c 78 83 0e 3e
       -0.05724418 -0.039927844 0.031209173 0.13917339
000150 a3 a1 1c be fc 6c cb bd b4 f0 a7 bc 41 c5 a4 3d
       -0.15296035 -0.099328965 -0.020500518 0.08045436
000160 ff ce 80 bd 02 9b a5 bc 7f 2e bc bc 18 ea de 3d
       -0.06289481 -0.020215515 -0.02297139 0.108844936
000170 c3 1d 10 bd 0b 21 07 be 3e 09 e9 39 90 6b 4b bc
       -0.035184633 -0.13196199 0.0004444811 -0.012415782
000180 bb bb 6e bf c7 06 58 bf e7 e5 73 bf 58 ec a9 bf
       -0.93255204 -0.8438534 -0.9527268 -1.3275251
000190 bf 50 af bf e4 fa 78 bf ca bc 91 bf 9d ce 6e bf
       -1.3696517 -0.9725783 -1.1385739 -0.93284017
0001a0 b4 31 81 bf 45 91 77 bf d3 3e 57 bf 71 76 20 bf
       -1.0093293 -0.9670604 -0.8408024 -0.6268073
0001b0 a3 e6 26 bf 01 45 74 bf fc 4d 7a bf 0e 4f 94 bf
       -0.65195674 -0.9541779 -0.97775245 -1.1586626
0001c0 a5 d8 46 bf 61 21 9a bf 6a 33 87 bf 1f 7f 98 bf
       -0.77674323 -1.2041436 -1.0562565 -1.1913794
0001d0 de e2 ac bf 2a 15 41 bf 9b 43 92 bf 1a 90 38 bf
       -1.3506734 -0.7542292 -1.1426882 -0.7209488
0001e0 04 11 1a bf c3 93 97 bf e2 47 60 bf 2d de 58 bf
       -0.60182214 -1.1841968 -0.87609684 -0.84714013
0001f0 8d 0f 3b bf c8 7a 57 bf d4 26 58 bf 6a 29 3f bf
       -0.73070604 -0.84171724 -0.84434247 -0.7467257

lstm.bias_hh_l0 f4 [128]
000000 d0 c1 80 bf cb fd 13 bf 06 67 59 bf af fc 86 bf
       -1.0059147 -0.5780913 -0.84922826 -1.0545863
000010 86 f3 b5 bf 4a 9c 67 bf 7f 34 7d bf 5a fb 83 bf
       -1.4214942 -0.90472853 -0.9890823 -1.0311081
000020 93 02 85 bf 81 c0 74 bf 41 a4 47 bf 26 a1 01 bf
       -1.039141 -0.9560624 -0.77985007 -0.5063652
000030 09 65 28 bf e3 b3 59 bf 07 a9 72 bf 54 8e 8c bf
       -0.6577917 -0.8504011 -0.94789165 -1.0980935
000040 11 87 7c bf f6 7c 85 bf 62 c3 86 bf 2d 1b af bf
       -0.98643595 -1.042876 -1.0528376 -1.3680168
000050 d8 de ab bf e2 fb 30 bf 1f ce 95 bf 94 6a 2f bf
       -1.3427382 -0.6913434 -1.1703528 -0.68522
000060 f3 84 17 bf 3b 7d 7b bf 2c bd 66 bf 20 4f 54 bf
       -0.5918724 -0.9823796 -0.90132403 -0.82933235
000070 03 4b 0d bf f0 60 52 bf 2f 9e 45 bf ea 8a 50 bf
       -0.55192584 -0.82179165 -0.77194494 -0.81461966
000080 8c 5f 62 bf 8b fe e1 be e3 22 62 bf 5a 50 5a bf
       -0.8842704 -0.44139513 -0.8833448 -0.85278857
000090 26 e7 c3 3f 97 1e 2c bf 3c 47 2d bf 58 97 1f bf
       1.5304916 -0.67234176 -0.6768682 -0.6234031
0000a0 1c fd ed be 66 85 62 bf 48 76 28 bf 67 52 1f bf
       -0.4648217 -0.884848 -0.6580548 -0.6223511
0000b0 f2 54 53 be b0 be 31 bf da 77 44 bf d9 c1 27 bf
       -0.20637873 -0.6943159 -0.7674538 -0.65530163
0000c0 5f 4b d4 be 1a fb c8 be 45 61 22 bf 1f 79 70 bf
       -0.41463754 -0.39254075 -0.6342967 -0.93934816
0000d0 dd 31 49 bf 95 a0 0f bf 5e 21 40 bf 41 f0 33 bf
       -0.7859171 -0.56104404 -0.75050914 -0.70288473
0000e0 29 9c 17 bf 7f 95 42 bf ec cb 1f bf 20 53 e9 be
       -0.59222656 -0.7600936 -0.62420535 -0.45571232
0000f0 7b d1 d6 be 07 7b 1a bf fa 01 11 bf e9 cf ec be
       -0.41956696 -0.60343975 -0.5664364 -0.46252373
000100 d0 85 87 bd 14 2c d8 bc e3 39 ec 3d b9 69 d3 bc
       -0.066173196 -0.026388206 0.115344785 -0.025807248
000110 89 9f bd 3d 06 52 bf 3c 22 9a 9b bc 7c af 2b bd
       0.092589445 0.023354542 -0.018994395 -0.0419154
000120 f1 f7 88 bd f1 36 83 bc 93 84 c5 3c b7 f1 1f bd
       -0.06687916 -0.016017409 0.024111068 -0.039048877
000130 ea ee 87 bc cd 26 0f 3d 04 c3 30 bd 6d 62 07 be
       -0.016593415 0.034949113 -0.04315473 -0.1322114
000140 27 6a 6e 3d ad b9 19 3d 63 91 e6 bc 3b 35 0f be
       0.058206704 0.03753059 -0.028145498 -0.1398515
000150 72 74 1c 3e dc 45 cb 3d b9 1a aa 3c 85 c0 a5 bd
       0.15278795 0.09925434 0.020764695 -0.08093361
000160 15 59 83 3d 04 c3 a9 3c 3b c0 bb 3c bc 9d df bd
       0.064134754 0.020722874 0.022918811 -0.10918757
000170 13 4e 09 3d 27 8a 09 3e d4 8f 8e 38 e7 03 d2 3b
       0.033521723 0.13431607 6.797878e-05 0.0064091566
000180 ac 14 78 bf 64 de 09 bf 1d f2 87 bf 33 47 9c bf
       -0.9690654 -0.53854966 -1.0620762 -1.2209228
000190 dd 91 c8 bf 18 f6 73 bf 1e c3 85 bf ad a2 88 bf
       -1.5669514 -0.95297384 -1.045017 -1.0674645
0001a0 cd 54 5f bf 31 2a 7b bf bf 65 67 bf 41 dd 2c bf
       -0.8723877 -0.98111254 -0.9038963 -0.67525107
0001b0 68 97 52 bf d6 b1 67 bf 24 52 5e bf cc b4 72 bf
       -0.8226228 -0.9050573 -0.86844087 -0.94807124
0001c0 fe bc 3c bf 3b 3e 76 bf a1 31 86 bf 9a 72 94 bf
       -0.7372588 -0.96188706 -1.0483896 -1.1597474
0001d0 11 26 ab bf e1 83 63 bf ce 21 8d bf f2 37 3d bf
       -1.3370992 -0.88873106 -1.1025941 -0.7391349
0001e0 38 8b 4b bf 52 41 85 bf be 54 80 bf 4e 85 83 bf
       -0.79509306 -1.0410559 -1.0025861 -1.0275056
0001f0 b8 e0 15 bf da 74 5c bf f8 2f 61 bf 02 ca 65 bf
       -0.5854602 -0.861158 -0.8796382 -0.89761364

fc.weight f4 [1, 32]
000000 70 99 fe 38 b1 78 14 bc e4 67 37 bc 1c b4 64 ba
       0.00012140244 -0.009061978 -0.011194203 -0.0008724348
000010 6c c6 02 3f 16 0d a8 b8 64 1a b0 3b 7a 71 dd bb
       0.5108402 -8.013302e-05 0.0053742398 -0.006757912
000020 c7 f9 66 3a fb 6e a1 3a cc 3a 23 3a 34 72 c6 3b
       0.00088110234 0.00123164 0.0006226718 0.0060560945
000030 f4 93 0e bc 0f 9a af 3a 0b ff d2 b9 e9 42 9f bb
       -0.008702267 0.0013397353 -0.00040244343 -0.0048602712
000040 08 6d 2b b9 a3 9c 1f bc 7b 38 26 3b 8b 3c df ba
       -0.00016348448 -0.009741935 0.0025363255 -0.0017031593
000050 5d 2b dc ba 70 a6 32 3a 50 03 28 3a 57 29 1b 3c
       -0.0016797591 0.0006814962 0.0006409185 0.009470305
000060 cc d5 2f 3b 30 6d 63 3b b6 2b 2e 3a 60 62 c5 bb
       0.0026830314 0.0034702532 0.00066440867 -0.00602369
000070 df bb 25 bb b0 62 91 3b 1c 40 37 bc 55 8f 22 bc
       -0.0025288982 0.0044368133 -0.011184718 -0.009921868
