ml_models/forecast_model_gnn.pth (torch, 4043 bytes, 3 tensors)

weight f4 [16, 2]
0.470468 -0.27526554 0.4368727 -0.09347599 -0.7317143 0.5662298 -0.705473 -0.027613014
-0.43238756 -0.5803507 0.33915794 0.5591684 0.69674766 0.11878314 -0.055912137 -0.6304892
-0.40832254 0.06642765 0.4792492 -0.68039554 -0.20183703 0.011244358 -0.20984401 -0.60522425
0.052652624 0.19442652 0.5729226 -0.48374295 0.67940265 0.027622882 -0.5841614 -0.46087503
00000000: 2fe1 f03e 9bef 8cbe c7ad df3e 5770 bfbd
00000010: a151 3bbf 70f4 103f e199 34bf b034 e2bc
00000020: e761 ddbe dd91 14bf 1ca6 ad3e a925 0f3f
00000030: 0e5e 323f 9344 f33d 2004 65bd bd67 21bf
00000040: a70f d1be 380b 883d 2760 f53e 672e 2ebf
00000050: 5eae 4ebe 413a 383c 59e1 56be faef 1abf
00000060: 47aa 573d bf17 473e 0eab 123f 28ad f7be
00000070: 55ed 2d3f 6249 e23c 9a8b 15bf d0f7 ebbe

bias f4 [16]
-0.5830322 0.26187077 -0.16335 -0.33944058 0.066777214 -0.70912516 0.0593653 0.15168811
-0.116480485 0.41712275 -0.45691568 0.1725835 -0.4720614 0.70166063 0.07262334 -0.09877493
00000000: 9941 15bf ed13 863e 3945 27be 28cb adbe
00000010: 7ec2 883d 3a89 35bf 0729 733d 2154 1b3e
00000020: 528d eebd 1d91 d53e daf0 e9be bbb9 303e
00000030: 08b2 f1be 08a0 333f 8cbb 943d 834a cabd

weight f4 [1, 16]
-0.09005975 -0.011252499 0.009872657 -0.022404432 0.18871936 -0.18658376 0.1830194 0.015417877
-0.11152059 -0.11426571 -0.018164396 -0.19905606 -0.19047308 0.11799304 0.19465476 -0.08263767
00000000: 3f71 b8bd 675c 38bc edc0 213c 8089 b7bc
00000010: a63f 413e d00f 3fbe 7069 3b3e 439b 7c3c
00000020: e864 e4bd 2404 eabd 80cd 94bc 5ad5 4bbe
00000030: 600b 43be 56a6 f13d 9453 473e f03d a9bd
